class_prediction_model2.onnx (onnx, 96464 bytes, 8 tensors)

functional_model_1/sequential_16_1/lstm_16_1/lstm_cell_1/add_1/ReadVariableOp/resource:0 f4 [256]
0	0x3db13fb2	0.08654727
1	0x3d95870f	0.07301151
2	0x3d9e0c69	0.07717211
3	0x3d80ffd4	0.06298795
4	0x3d650dab	0.055921238
5	0x3de079e6	0.1096075
6	0x3dce9fc3	0.10089066
7	0x3db2312f	0.08700787
8	0xbc0517a1	-0.008123309
9	0x3d2e381b	0.042533975
10	0x3da60c34	0.08107796
11	0x3dba3e0c	0.09093866
12	0x3df4aa21	0.11946512
13	0x3d5a594b	0.053307813
14	0x3db1bb4c	0.08678302
15	0x3e108603	0.14113621
16	0x3ca6dbdf	0.020368515
17	0x3e0298d8	0.12753618
18	0x3d82d9e7	0.06389218
19	0x3dee3134	0.116304785
20	0x3d9fbb80	0.07799435
21	0x3deb3636	0.11484949
22	0x3ddb19b6	0.10698263
23	0x3de0a25e	0.10968469
24	0x3d3b1d37	0.04568216
25	0x3e007e0c	0.12548083
26	0x3dd635cc	0.1045948
27	0x3c1eea95	0.009699483
28	0x3db8cf6b	0.09023937
29	0x3dbde30e	0.09271823
30	0x3d9e233b	0.077215634
31	0x3cf96f0a	0.030448455
32	0x3d827fc3	0.06372025
33	0x3d6593a6	0.05604901
34	0x3dd03014	0.1016542
35	0x3dd076ce	0.1017891
36	0x3c23c48d	0.009995592
37	0x3d8986f4	0.067151934
38	0x3e0320a3	0.12805419
39	0x3c2e65b1	0.010644362
40	0x3df0b179	0.117526
41	0x3d8f2282	0.06989004
42	0x3d706b2e	0.058695965
43	0x3dad7b60	0.084707975
44	0x3e02a378	0.12757671
45	0x3d805dba	0.06267877
46	0x3dc5735a	0.09641142
47	0x3dbcd045	0.09219412
48	0x3dcd0dff	0.10012435
49	0x3df6d1b5	0.12051717
50	0x3dd15600	0.10221481
51	0x3d159e46	0.036527894
52	0x3de2c95b	0.11073562
53	0x3d3c5041	0.045974974
54	0x3de39011	0.11111463
55	0x3d6b37f0	0.057426393
56	0x3db8eb80	0.09029293
57	0x3db87469	0.090065785
58	0x3d4a06a1	0.049322728
59	0x3dd5a5ea	0.10432036
60	0x3dbe4aab	0.092915855
61	0x3dab116b	0.083529316
62	0x3d082563	0.03323878
63	0x3dd41fcd	0.10357628
64	0x3f728b52	0.94743836
65	0x3f68e91c	0.90980697
66	0x3f812efa	1.0092461
67	0x3f70bd07	0.9403843
68	0x3f830f0f	1.023897
69	0x3f70b586	0.9402698
70	0x3f737dd4	0.95113873
71	0x3f690cb2	0.91034997
72	0x3f8658ed	1.0495888
73	0x3f6fdbdf	0.9369487
74	0x3f75defe	0.96043384
75	0x3f7c4dfb	0.9855649
76	0x3f676a9f	0.90397066
77	0x3f7e6e5e	0.99387157
78	0x3f836df5	1.0267931
79	0x3f66a85e	0.9010066
80	0x3f7d73e9	0.9900499
81	0x3f6a6deb	0.9157397
82	0x3f79933c	0.97490287
83	0x3f667e33	0.90036315
84	0x3f713392	0.94219315
85	0x3f6a938b	0.9163138
86	0x3f69c6d0	0.9131899
87	0x3f723046	0.9460491
88	0x3f7cb796	0.9871763
89	0x3f65936b	0.89678067
90	0x3f68b4f4	0.9090111
91	0x3f84fc35	1.0389467
92	0x3f766ebb	0.9626271
93	0x3f6caf0a	0.9245459
94	0x3f70f37a	0.94121516
95	0x3f868f46	1.0512474
96	0x3f6e4bd6	0.93084466
97	0x3f83f735	1.0309817
98	0x3f6f0036	0.93359697
99	0x3f6a5622	0.9153768
100	0x3f84a8ff	1.0364074
101	0x3f6c442d	0.9229153
102	0x3f668e74	0.90061116
103	0x3f8577f5	1.0427233
104	0x3f6814de	0.9065684
105	0x3f83c5f4	1.0294785
106	0x3f7db9d1	0.9911166
107	0x3f7691dd	0.9631632
108	0x3f686d21	0.9079152
109	0x3f859df3	1.0438827
110	0x3f66fa14	0.9022534
111	0x3f697bc4	0.91204476
112	0x3f732569	0.9497896
113	0x3f6f4526	0.9346489
114	0x3f6b183d	0.9183386
115	0x3f81505f	1.0102652
116	0x3f6b659b	0.9195191
117	0x3f7bd63f	0.9837379
118	0x3f683df1	0.90719515
119	0x3f7e656e	0.9937352
120	0x3f79ded1	0.97605616
121	0x3f6e11b8	0.92995787
122	0x3f87039d	1.0547978
123	0x3f6ed895	0.9329923
124	0x3f7a808f	0.97852415
125	0x3f743ff3	0.9541008
126	0x3f81b67e	1.0133817
127	0x3f6a397e	0.91493976
128	0xbc51adfe	-0.012797831
129	0xbc87b4a6	-0.016565632
130	0x3d4a1383	0.049335014
131	0xbc393a8b	-0.011305462
132	0xbd2a0557	-0.041509
133	0xbc8eb5ed	-0.017420733
134	0x3cca96b8	0.024730071
135	0xbca2a82d	-0.019855583
136	0x3c0c0acd	0.008547497
137	0x3a86d858	0.0010287864
138	0x3cd47e21	0.02593905
139	0xbd810682	-0.063000694
140	0x3c45c961	0.012071938
141	0xbd148307	-0.03625777
142	0xbd809353	-0.062781
143	0x3c159f86	0.009132272
144	0xbc0f29c9	-0.00873799
145	0x3c734c89	0.01484979
146	0x3cf2b753	0.029628431
147	0x3c06dbeb	0.0082311435
148	0x3c0c79ff	0.008574008
149	0x3b65906b	0.0035028707
150	0xbc5cea2c	-0.013483565
151	0xbd5effcc	-0.054443166
152	0xbc928151	-0.017883928
153	0xba2e2ffe	-0.00066447246
154	0x3c1a75f9	0.009427541
155	0x3ca0a61e	0.01961046
156	0x3d308691	0.043097083
157	0xbd1879d0	-0.037225544
158	0xba8c65f6	-0.0010711539
159	0xbd02cbbf	-0.03193259
160	0x3b718af3	0.0036856502
161	0x3d09c1e1	0.033632163
162	0x3c225ac1	0.009909333
163	0x3bad3993	0.0052864044
164	0xbc8df6fa	-0.017329682
165	0xbb458a53	-0.0030142262
166	0xbb365597	-0.0027822012
167	0xbb6ba0b8	-0.003595395
168	0x3bb22d4e	0.0054375296
169	0xbd65c547	-0.05609634
170	0x3d0462b4	0.032320693
171	0x3d341deb	0.043973844
172	0x3aff7c82	0.0019492062
173	0xbd4d33a8	-0.05009809
174	0xbc481028	-0.012210883
175	0xbbdebec6	-0.0067976443
176	0xbd0bfff5	-0.034179647
177	0x3d09ccb7	0.033642497
178	0xbaa0c471	-0.0012265575
179	0xbc9db2df	-0.019250331
180	0x3c845940	0.016155839
181	0xbc69a73d	-0.014261064
182	0x3b988a43	0.004655154
183	0xbcd2a0ea	-0.025711495
184	0xbcf473a5	-0.0298403
185	0x3bc20a8c	0.0059216674
186	0x3d21a7ec	0.039466783
187	0xbc992b5b	-0.018697431
188	0xbd41214c	-0.047150895
189	0x3d439a25	0.047754426
190	0x3cbfb4b9	0.023401605
191	0x3c1cf799	0.009580516
192	0x3db18f12	0.086698666
193	0x3d95c0f5	0.07312194
194	0x3d9e1add	0.077199675
195	0x3d80c36e	0.06287275
196	0x3d6575ef	0.056020673
197	0x3de019e6	0.1094244
198	0x3dcdb325	0.10043935
199	0x3db14e1f	0.086574785
200	0xbc10f5d8	-0.008847676
201	0x3d293c22	0.041317113
202	0x3da63737	0.08116
203	0x3dbaa23b	0.09112974
204	0x3df451c4	0.11929658
205	0x3d5fd57a	0.054646946
206	0x3db0be1e	0.08630012
207	0x3e10254a	0.14076725
208	0x3ca13a2f	0.019681064
209	0x3e028da6	0.12749347
210	0x3d80f63e	0.06296967
211	0x3dee2c6b	0.11629566
212	0x3da00714	0.0781385
213	0x3deb77a2	0.114974275
214	0x3ddb2a6a	0.10701449
215	0x3de0ad32	0.109705344
216	0x3d3bbc77	0.04583403
217	0x3e003b16	0.1252254
218	0x3dd6780d	0.104721166
219	0x3c1c376b	0.009534697
220	0x3db99f3e	0.09063576
221	0x3dbe6be6	0.09297924
222	0x3d9e0695	0.07716099
223	0x3cfca5de	0.03084081
224	0x3d831cfd	0.064020135
225	0x3d663568	0.056203276
226	0x3dcfc9e3	0.10145929
227	0x3dd07e6b	0.10180362
228	0x3c2c7933	0.010526943
229	0x3d89322d	0.066990234
230	0x3e030a2a	0.12796846
231	0x3c332248	0.010933466
232	0x3df07ad9	0.11742181
233	0x3d8ec644	0.0697141
234	0x3d6b014f	0.057374295
235	0x3daeb4c8	0.08530575
236	0x3e028bbc	0.12748617
237	0x3d79c51a	0.060978986
238	0x3dc5061a	0.096203044
239	0x3dbcf524	0.09226444
240	0x3dcd557c	0.100260705
241	0x3df6eefa	0.120573
242	0x3dd1cf8f	0.10244667
243	0x3d16902c	0.036758587
244	0x3de33f89	0.11096103
245	0x3d3d5a56	0.04622873
246	0x3de37e40	0.11108065
247	0x3d679dff	0.05654716
248	0x3db863fb	0.09003445
249	0x3db82021	0.08990503
250	0x3d4a93d5	0.04945739
251	0x3dd55a58	0.10417622
252	0x3dbdb328	0.09262687
253	0x3dab3ad5	0.08360831
254	0x3d099e76	0.033598386
255	0x3dd43e3a	0.10363431

functional_model_1/sequential_16_1/lstm_16_1/lstm_cell_1/Cast_1/ReadVariableOp/resource:0 f4 [64, 256]
0	0x3d855123	0.06509616
1	0xbdce916d	-0.100863315
2	0x3ded89f4	0.11598578
3	0xbdbe71eb	-0.09299072
4	0x3d2491bb	0.040178042
5	0xbb4c0c58	-0.0031135287
6	0xbcd7331c	-0.026269488
7	0xbd4d11ee	-0.050065927
8	0x3c7269a5	0.014795695
9	0xbc7c0750	-0.015382603
10	0xbc998f3d	-0.01874506
11	0xbdd65031	-0.10464514
12	0x3b8f42f7	0.0043719965
13	0xbcc573c1	-0.024103047
14	0xbcb05b3a	-0.021527875
15	0x3d1110a8	0.035416275
16	0xbdfa235c	-0.122137755
17	0xbdda0926	-0.10646276
18	0x3c689e46	0.014197892
19	0xbda94f6e	-0.08267103
20	0x3cb816f8	0.02247189
21	0xbdb82051	-0.08990539
22	0xbd922c34	-0.07137337
23	0xbcb0327f	-0.021508453
24	0x3d972e3e	0.07381867
25	0xbd3c4a5e	-0.04596936
26	0xbd6cfed7	-0.05786022
27	0x3d8c38d0	0.068467736
28	0xbdb63ab0	-0.088979125
29	0xbd1eb14f	-0.038743313
30	0xbdd33166	-0.103121564
31	0xbd1419ae	-0.036157303
32	0x3df5d95a	0.12004347
33	0x3def5cda	0.11687632
34	0x3cea4658	0.028597996
35	0xbd90eb1d	-0.07076094
36	0xbcdb259d	-0.026751334
37	0x3dbf2662	0.09333493
38	0xbcf17b68	-0.02947779
39	0x3cfb3b11	0.030667813
40	0xbc17427f	-0.0092321625
41	0x3d89512f	0.06704938
42	0xbdf2c8be	-0.11854695
43	0xbd3c72e7	-0.046008017
44	0xbdb2396e	-0.0870236
45	0x3d30154e	0.042989068
46	0xbdc9b332	-0.09848632
47	0xbe2656b4	-0.16244012
48	0xbabc78b1	-0.001437923
49	0x3db1022b	0.08642992
50	0xbd9cfb86	-0.07665162
51	0xbd0f8bda	-0.035045482
52	0x3cafc49d	0.021456057
53	0x3da67df1	0.0812949
54	0x3d20d312	0.039263792
55	0xbd572ec2	-0.052534826
56	0x3c647a04	0.013945106
57	0x3d93afa3	0.072112344
58	0x3dc94a65	0.09828643
59	0xbd841d58	-0.064509094
60	0x3cccb190	0.024987012
61	0x3dda0c55	0.106468834
62	0x3ad066f6	0.0015899825
63	0xbd9e632f	-0.077337615
64	0x3d5ff96c	0.054681227
65	0xbb474e98	-0.0030411836
66	0xbcacd595	-0.021097938
67	0x3c956d79	0.018240677
68	0x3dc06f78	0.09396261
69	0x3d28819c	0.04113923
70	0xbd0cd83a	-0.034385897
71	0xbdd26350	-0.102728486
72	0xbdbc2fd8	-0.09188813
73	0xbd3bb295	-0.045824606
74	0xbc84e3d8	-0.016221926
75	0x3da310bb	0.079621755
76	0xbcdb4bc0	-0.026769519
77	0xbd9830b0	-0.074311614
78	0xbd6683dc	-0.056278095
79	0xbcaf147c	-0.021372072
80	0xb9e1387f	-0.00042957437
81	0x3d7ea184	0.062165752
82	0xbccd9d05	-0.025099287
83	0xbda14085	-0.07873634
84	0xbc1e385d	-0.009656993
85	0x3d4c21bf	0.04983687
86	0x3db6388a	0.08897503
87	0x3dafba1d	0.0858042
88	0x3d3e01d8	0.046388477
89	0xbd046bcb	-0.032329362
90	0x3cdd2a8e	0.02699783
91	0x3cfbe04e	0.030746605
92	0xbc1a961b	-0.009435202
93	0x3cd366d8	0.025805876
94	0x3c95aee7	0.018271876
95	0x3be24933	0.0069056987
96	0x3d279833	0.040916633
97	0x3ddf7979	0.10911841
98	0xbdcf0f2a	-0.10110314
99	0x3bfab409	0.0076508564
100	0xbcc46afe	-0.0239768
101	0xbd096637	-0.033544745
102	0xbda8758c	-0.08225545
103	0x3d7862c5	0.06064107
104	0xbdbb7fb5	-0.091552176
105	0x3da817d2	0.08207668
106	0xbc0c7038	-0.008571677
107	0x3db4c90d	0.0882741
108	0xbcc679f9	-0.024228083
109	0x3c1f8926	0.009737289
110	0xbd9dd50f	-0.07706653
111	0xbd08438f	-0.033267554
112	0x3d89a07f	0.06720065
113	0xbdf25725	-0.11833028
114	0xbcbd40b8	-0.02310215
115	0xbcfd195b	-0.03089588
116	0x3d85b45f	0.06528544
117	0xbb20370a	-0.0024446868
118	0xbb03f8b3	-0.002013725
119	0xbc1a102b	-0.009403269
120	0x3c646510	0.013940111
121	0x3d19e509	0.03757194
122	0x3d4d8ef4	0.05018516
123	0x3b9f34b5	0.004858578
124	0x3ca2d4de	0.019876894
125	0xbd1065fc	-0.03525351
126	0x3d755fbc	0.059905753
127	0xbb852b05	-0.004063966
128	0xbd4c6202	-0.049898155
129	0x3da5238e	0.08063422
130	0x3d98412b	0.07434305
131	0x3de85cd7	0.11345833
132	0xbdf11ec3	-0.117734455
133	0xbd9537c9	-0.07286031
134	0xbc6c5c53	-0.014426309
135	0x3d94b25c	0.07260582
136	0xbdf72ab6	-0.12068693
137	0xbd3ac1fb	-0.04559515
138	0x3cc53751	0.024074228
139	0x3c92d086	0.017921697
140	0x3da14e53	0.07876267
141	0x3d1b9a22	0.03798879
142	0xbd80e330	-0.062933326
143	0x3e100be1	0.14067031
144	0x3cfb6ca6	0.030691456
145	0x3d505759	0.05086455
146	0xbd6bdc24	-0.05758299
147	0xbe664a4e	-0.22489282
148	0x3de186aa	0.11012013
149	0xbc1fc9ed	-0.009752733
150	0x3d8eaed7	0.06966942
151	0x3e121d3e	0.14268968
152	0xbab74c8c	-0.0013984605
153	0x3d8a5586	0.067545936
154	0x3d8b548a	0.06803234
155	0xbdfe04a0	-0.12403226
156	0xbd65959d	-0.056050885
157	0x3e1df9c6	0.15427312
158	0x3e18a2f5	0.14905913
159	0x3cbd24ae	0.02308878
160	0xbe2a8895	-0.16653664
161	0x3e363522	0.17793706
162	0x3e1f634a	0.1556522
163	0xbd62eddf	-0.055402633
164	0x3ca107f4	0.019657113
165	0x3dfb76cf	0.1227852
166	0x3cada322	0.021195952
167	0x3dbc7c26	0.09203367
168	0xbdf16c45	-0.11788229
169	0xbd01a6ce	-0.031653218
170	0xbd20af1c	-0.039229497
171	0xbd2ce6b6	-0.04221221
172	0x3dcd297d	0.10017679
173	0x3d3edba6	0.04659619
174	0x3d58642f	0.052829918
175	0x3d8fe519	0.07026119
176	0xbe1f2303	-0.155407
177	0xbd1a3769	-0.0376505
178	0xbdb80ebd	-0.08987186
179	0x3d8f21cc	0.06988868
180	0xbe0b70c1	-0.13617231
181	0x3dd1a828	0.102371514
182	0xbcc64a2e	-0.024205294
183	0x3d4e3d5c	0.050351486
184	0x3cadd169	0.021218019
185	0x3d99207e	0.074769005
186	0x3d0c9b83	0.034327995
187	0xbe03fa5c	-0.12888473
188	0xbd85e3a9	-0.06537563
189	0x3d388f6b	0.04505865
190	0x3d8a84a2	0.06763579
191	0x3de9693b	0.11397024
192	0xbd743432	-0.05962009
193	0xbd9e2f35	-0.07723848
194	0x3cedbcee	0.029020753
195	0xbdae394f	-0.085070245
196	0x3ddfd522	0.10929324
197	0x3d925ae9	0.07146246
198	0x3dd90233	0.105961226
199	0xbd35b9e1	-0.04436672
200	0xbd01fcaf	-0.03173512
201	0x3dd64172	0.104617015
202	0x3d1812e7	0.0371274
203	0xbd75672c	-0.059912845
204	0xbd11b22f	-0.03557032
205	0x3cf665ef	0.030077903
206	0x3dd6e77f	0.10493373
207	0xbd4727e1	-0.048622016
208	0xbd025917	-0.031823244
209	0xbdd66aec	-0.104696125
210	0x3da4e0a4	0.08050659
211	0xbe2df710	-0.16988778
212	0xbe776cdc	-0.2416262
213	0xbdcc2490	-0.09967911
214	0xbd327d94	-0.043576792
215	0xbb316548	-0.0027068425
216	0x3d81cdd4	0.06338087
217	0xbd9f36a8	-0.07774097
218	0x3ba9d5e7	0.00518297
219	0x3d89bc33	0.06725349
220	0x3d4de039	0.050262664
221	0xbe0172b2	-0.12641409
222	0xbdbbc2a4	-0.09167984
223	0xbd5d23ec	-0.053989336
224	0x3d756af9	0.05991647
225	0xbccd2818	-0.025043532
226	0xbd3772b7	-0.044787135
227	0xbd8ce115	-0.068788685
228	0x3d3a949c	0.04555188
229	0x3cc4a9da	0.024006773
230	0xbc81ebe0	-0.015859544
231	0xbcab9eea	-0.0209498
232	0x3ce902d1	0.028443726
233	0xbcdaa340	-0.026689172
234	0xbd99b661	-0.07505489
235	0xbcb2a4b6	-0.021807056
236	0xbd5e84ef	-0.054325994
237	0xbd70f829	-0.058830414
238	0xbd41035c	-0.047122344
239	0xbd6e73b8	-0.058215827
240	0x3dde2e72	0.108487025
241	0xbe9e83bc	-0.3095988
242	0x3d69a235	0.05703946
243	0x3d8cb0fd	0.06869695
244	0xbaf26579	-0.0018493376
245	0x3db14ca1	0.08657194
246	0xbd2766a5	-0.040869374
247	0xbd11356d	-0.03545134
248	0x3bba6ab1	0.005688988
249	0x3d81c706	0.06336789
250	0x3e0c3aac	0.13694257
251	0x3e267f10	0.16259408
252	0xbcfc69ae	-0.03081211
253	0x3ccf34e2	0.025293771
254	0x3d590a60	0.05298841
255	0xbd1627cc	-0.036659047

functional_model_1/sequential_16_1/lstm_16_1/lstm_cell_1/Cast/ReadVariableOp/resource:0 f4 [4, 256]
0	0x3dd18954	0.102312714
1	0x3d2c88d7	0.04212269
2	0x3d2778a3	0.040886533
3	0x3e257204	0.16156775
4	0xbd380f48	-0.04493645
5	0xbca6b98c	-0.020352148
6	0x3dd45fc1	0.10369826
7	0xbd960841	-0.07325793
8	0x3dd10c6a	0.10207446
9	0x3cef4f80	0.029212713
10	0x3d11d909	0.03560737
11	0x3ce89f18	0.028396174
12	0xbd3d9e3f	-0.046293493
13	0x3e55c73e	0.20876786
14	0x3c8eb6e8	0.0174212
15	0x3de04b2e	0.109518394
16	0xbb8603c0	-0.0040898025
17	0xbddc6835	-0.107620634
18	0x3d8f0561	0.06983448
19	0xbd6adf5d	-0.057341922
20	0x3d7411e4	0.059587374
21	0x3dad7a40	0.08470583
22	0x3cd8ae22	0.02645022
23	0xbc8a1f14	-0.016860522
24	0xbdb22377	-0.08698171
25	0x3e1cdbdc	0.15318245
26	0x3dbab358	0.09116238
27	0xbdd75e77	-0.105160646
28	0x3de8c431	0.113655455
29	0x3e77a8d9	0.24185504
30	0x3ddb1aa8	0.10698444
31	0x3d9df1a0	0.07712102
32	0x3e074fdc	0.13214058
33	0xbbd421bd	-0.0064737485
34	0xbc7d5a8c	-0.015463483
35	0xbddac4bb	-0.106820546
36	0xbc766e28	-0.015040912
37	0x3d50382c	0.05083482
38	0x3d978ed3	0.074002884
39	0x3e3f8034	0.1870125
40	0xbdbae999	-0.091265865
41	0xbc331940	-0.010931313
42	0x3d1308a3	0.03589691
43	0xbd755e03	-0.05990411
44	0xbd114641	-0.03546739
45	0xbd4f97d7	-0.050681915
46	0x3e3f836d	0.18702479
47	0x3c5dc758	0.013536297
48	0xbc653b28	-0.013991155
49	0xbe54939b	-0.20759432
50	0x3def7929	0.11693031
51	0xbe15950d	-0.1460764
52	0x3d6ffb9b	0.05858956
53	0x3d2436bb	0.040091258
54	0x3d72b390	0.059253275
55	0x3e54202c	0.20715398
56	0xbdf5c95a	-0.120012954
57	0x3d88f9ee	0.06688295
58	0xbcb1dfa4	-0.021713085
59	0xbb76477c	-0.003757923
60	0x3c36abe6	0.011149382
61	0x3b2b49c7	0.0026136504
62	0xbd36abfc	-0.04459761
63	0xbe2c1f09	-0.16808714
64	0x3df526d1	0.11970294
65	0xbe4ef374	-0.20210057
66	0xbd004da8	-0.03132406
67	0xbd99bc45	-0.07506613
68	0x3e352d27	0.17693006
69	0xbd969049	-0.07351739
70	0xbc84dc6c	-0.016218387
71	0x3d4dfea9	0.05029169
72	0x3e32a3a9	0.17445244
73	0xbd8c9b6d	-0.068655826
74	0xbd0c2def	-0.034223493
75	0xbdcecf1f	-0.10098099
76	0x3c7ea807	0.0155429905
77	0xbd545216	-0.051836096
78	0xbdaaed26	-0.08346014
79	0xbb871549	-0.0041224104
80	0x3d3b870a	0.04578308
81	0xbe2b39d1	-0.16721274
82	0x3d9744a1	0.07386137
83	0xbd37676c	-0.044776365
84	0xbe30d560	-0.17268896
85	0x3da08219	0.07837314
86	0xbba6c3f1	-0.005089276
87	0x3c82114a	0.015877385
88	0xbdd84b68	-0.105612576
89	0xbe117096	-0.14203104
90	0x3d6655dd	0.05623423
91	0xbd75c55b	-0.060002666
92	0xbd4c2ea0	-0.049849153
93	0xbc4f1b72	-0.012640821
94	0xbde84aec	-0.11342415
95	0x3d871618	0.06596011
96	0xbe201d49	-0.15636171
97	0x3d2264a2	0.039646752
98	0xbdf9c8db	-0.12196513
99	0xbdebaf28	-0.11508018
100	0xbcc17df0	-0.023619622
101	0x3d499b66	0.049220465
102	0x3da4bb01	0.08043481
103	0x3dc6a474	0.09699336
104	0xbcfea365	-0.031083772
105	0x3e095835	0.13412555
106	0x3d07cf3f	0.03315663
107	0x3d1286c8	0.03577307
108	0xbdf59433	-0.119911574
109	0xbd913a9e	-0.070912585
110	0xbd3036b9	-0.043020938
111	0xbe434bfa	-0.19071952
112	0xbd0fe1b9	-0.035127375
113	0xbe528816	-0.20559725
114	0xbe34ab4b	-0.17643468
115	0x3e33b063	0.17547755
116	0xbe439939	-0.19101419
117	0x3de79d31	0.11309279
118	0xbd83f224	-0.06442669
119	0x3d083992	0.03325803
120	0xbe2ba7f1	-0.16763283
121	0x3d613793	0.05498464
122	0xbdf27ea0	-0.11840558
123	0xbe33a085	-0.17541702
124	0x3d111c1a	0.03542719
125	0xbe2cc55f	-0.16872166
126	0x3de39257	0.111118965
127	0xbe0906a6	-0.13381442
128	0x3e6fb76a	0.2340981
129	0xbe1f2918	-0.1554302
130	0xbe2b66bd	-0.1673841
131	0xbe403d2a	-0.18773332
132	0x3dd8c641	0.10584689
133	0x3e1c9e57	0.15294777
134	0xbd9c2a95	-0.076253094
135	0xbe337fc6	-0.1752921
136	0xbd04be7e	-0.03240823
137	0xbd62d414	-0.055378035
138	0xbe4a2a3f	-0.19742678
139	0xbe123c78	-0.1428088
140	0x3d392329	0.045199547
141	0xbdaf8bfb	-0.08571621
142	0x3dfa387c	0.12217805
143	0xbe062da4	-0.13103348
144	0x3cf09757	0.02936904
145	0xbe346efc	-0.17620462
146	0xbd720ddd	-0.059095252
147	0x3d4394a2	0.04774917
148	0xbde07f19	-0.10961742
149	0x3e34180a	0.17587295
150	0xbe4f624d	-0.20252343
151	0xbe2bc7b0	-0.16775393
152	0xbe02065f	-0.12697743
153	0xbe50e8d5	-0.20401318
154	0xbe1e66a1	-0.15468837
155	0x3cedfaaf	0.0290502
156	0x3b77457d	0.0037730627
157	0xbe336502	-0.17519
158	0xbe15dc65	-0.14634855
159	0x3dce7bfa	0.100822404
160	0x3de05cb9	0.109551854
161	0x3c93900c	0.018013023
162	0xbe0f2214	-0.13977844
163	0x3e6205a3	0.22072463
164	0x3d84b508	0.064798415
165	0xbd9a4edf	-0.07534575
166	0xbd94387b	-0.07237335
167	0xbdca3749	-0.09873826
168	0x3ca88a19	0.020573663
169	0x3d82cee0	0.063871145
170	0x3dcb6a28	0.09932357
171	0xbc9ed4fd	-0.01938867
172	0xbe071bbb	-0.13194172
173	0x3d88a20c	0.06671533
174	0xbc1a0abd	-0.009401974
175	0xbe09ed6a	-0.13469473
176	0x3e29ff60	0.16601324
177	0xbdf92ed7	-0.12167137
178	0x3e414769	0.18874897
179	0x3e2fbd16	0.17161974
180	0x3d8e3494	0.06943622
181	0xbdaff00f	-0.085907094
182	0xbd920b3d	-0.0713105
183	0x3cef574d	0.029216433
184	0x3c4f30fe	0.012645958
185	0xbdb9c665	-0.09071044
186	0xbc810153	-0.015747702
187	0x3da3dceb	0.08001121
188	0xbe4ca0be	-0.19983193
189	0xbe2744f7	-0.16334902
190	0xbe03e61c	-0.12880749
191	0xbe601f97	-0.2188705
192	0xbd197c6c	-0.037472174
193	0x3d8204f4	0.06348601
194	0xbe4c82e7	-0.1997181
195	0x3c8966cc	0.01677265
196	0xbdf89c8c	-0.12139234
197	0xbd71540f	-0.058918055
198	0xbe56cd43	-0.20976739
199	0x3e702f2f	0.23455499
200	0x3e58665a	0.21132794
201	0x3e56f366	0.20991287
202	0xbe24296b	-0.16031425
203	0xbd5beac7	-0.053690698
204	0xbe0bd2d0	-0.13654637
205	0x3e16c31d	0.14722867
206	0xbe80884d	-0.2510399
207	0xbd4a6ade	-0.049418323
208	0xbd00c19c	-0.03143464
209	0xbe409ae1	-0.18809082
210	0x3e40b0c4	0.1881743
211	0x3e2582ea	0.16163221
212	0xbe056373	-0.13026218
213	0xbdfe5a11	-0.124195226
214	0xbd5a6b08	-0.05332473
215	0x3e250c84	0.16118056
216	0xbdfe1204	-0.1240578
217	0x3bdbde7f	0.006709873
218	0x3b58d987	0.003308864
219	0x3b0c2fb4	0.0021390738
220	0x3c9ac0fe	0.018890854
221	0xbd03f760	-0.032218337
222	0xbd8ff186	-0.07028489
223	0xbd84b622	-0.064800516
224	0x3d09631d	0.033541787
225	0xbe26f6eb	-0.16305129
226	0xbdc5906c	-0.09646687
227	0xbd8c3138	-0.06845325
228	0xbd392600	-0.045202255
229	0x3dae6cf0	0.08516872
230	0xbe1a7ff2	-0.1508787
231	0x3d1d2de4	0.038373843
232	0x3d9a441d	0.07532523
233	0xbe4dde31	-0.2010429
234	0x3e66e1ba	0.22547045
235	0xbd178682	-0.03699351
236	0x3dc18164	0.094485074
237	0x3e76ab33	0.24088745
238	0x3ddeea4d	0.10884533
239	0xbe39991c	-0.18124813
240	0x3bbab92c	0.0056983437
241	0xbd9efc37	-0.0776295
242	0x3bd55b2d	0.006511113
243	0xbddebaa7	-0.10875445
244	0xbe20f697	-0.15719067
245	0x3d1d455a	0.038396217
246	0xbc4c1450	-0.012456015
247	0x3e6c89af	0.23099397
248	0xbe5768a1	-0.21036007
249	0xbe068c9f	-0.1313958
250	0xbe08f9af	-0.13376497
251	0x3da15f61	0.0787952
252	0x3e6b62e3	0.22986941
253	0xbe5d0ec2	-0.21587661
254	0x3d160688	0.036627322
255	0xbd08cab9	-0.033396456

functional_model_1/sequential_16_1/embedding_16_1/GatherV2/ReadVariableOp:0 f4 [3, 4]
0	0xbc5f0634	-0.013612319
1	0xbc7f200c	-0.015571605
2	0xbca78233	-0.020447826
3	0x3cc6cce6	0.024267625
4	0xbe0bfafa	-0.13669959
5	0xbe0a3d72	-0.13500002
6	0x3e0a0681	0.13479044
7	0x3dc93ddb	0.09826251
8	0x3df318dd	0.11869977
9	0x3dd6b2ce	0.10483323
10	0xbdc72e80	-0.09725666
11	0xbdfb39e1	-0.12266899

functional_model_1/sequential_16_1/dense_33_1/Cast/ReadVariableOp:0 f4 [32, 2]
0	0x3df71a5b	0.12065574
1	0x3dac97af	0.08427369
2	0xbe25d998	-0.16196287
3	0x3d0813a6	0.033221863
4	0xbe08beeb	-0.1335408
5	0xbde89ac8	-0.11357647
6	0x3ecbfe99	0.3984268
7	0xbe2dd6e6	-0.16976508
8	0xbe8aa875	-0.27081648
9	0xbe01f113	-0.12689619
10	0x3d925f61	0.07147098
11	0x3eb77877	0.35834095
12	0x3ecfa105	0.40552536
13	0x3e59a343	0.21253686
14	0xbd80286a	-0.06257708
15	0xbeb96696	-0.3621108
16	0xbea55d6b	-0.32297835
17	0xbe25f7ac	-0.1620776
18	0xbdb6a224	-0.089176446
19	0xbeb4592d	-0.35224286
20	0x3e7a00aa	0.24414316
21	0xbd416514	-0.047215536
22	0x3d4767b9	0.048682902
23	0x3ecd921d	0.40150538
24	0xbdbdb887	-0.092637114
25	0x3d1a2fc9	0.037643228
26	0xbe1c85b8	-0.15285385
27	0xbdaa3cff	-0.08312415
28	0xbebf6dda	-0.37388498
29	0x3e9b0a03	0.30281076
30	0xbef392c4	-0.4757291
31	0x3ec3f38f	0.38271758
32	0xbe794a15	-0.24344666
33	0xbd957f43	-0.07299664
34	0xbec692f6	-0.38783997
35	0x3e8faad2	0.28060013
36	0xbe8ee1ac	-0.2790655
37	0x3ebcdace	0.36885685
38	0x3ed87bbe	0.42281908
39	0xbd697ee7	-0.05700579
40	0x3d96d8ef	0.073655955
41	0x3e30f168	0.17279589
42	0xbe647cb9	-0.22313203
43	0x3e5f38db	0.21799032
44	0x3e6eeff9	0.2333373
45	0x3ed1b27b	0.40956482
46	0x3ed0867c	0.40727603
47	0xbd9e5c52	-0.077324525
48	0x3dac0c60	0.08400798
49	0x3e85da0f	0.26142928
50	0xbebfba92	-0.3744703
51	0xbea8977e	-0.3292808
52	0xbecd74b2	-0.40128094
53	0x3d93d39f	0.07218098
54	0x3d9d3808	0.07676703
55	0xbeb9f5cb	-0.36320338
56	0xbce5723c	-0.028008573
57	0x3e0c7ddc	0.13719887
58	0x3d55e382	0.05221892
59	0x3e91deea	0.28490382
60	0x3c9a06c0	0.018802047
61	0xbe1b6790	-0.15176225
62	0xbd382752	-0.044959374
63	0x3d23dab0	0.04000348

functional_model_1/sequential_16_1/dense_33_1/BiasAdd/ReadVariableOp:0 f4 [2]
0	0x3cc705c5	0.024294743
1	0xbcc705c3	-0.02429474

functional_model_1/sequential_16_1/dense_32_1/Cast/ReadVariableOp:0 f4 [64, 32]
0	0x3e4bc7ad	0.19900389
1	0xbdb58975	-0.088641085
2	0xbc973dcc	-0.018462084
3	0xbdb0cebf	-0.08633184
4	0x3e53acb1	0.20671345
5	0x3e8a341f	0.2699289
6	0x3ca0a23a	0.019608606
7	0xbdf311f0	-0.11868656
8	0x3e821fcc	0.25414884
9	0x3e1d69dc	0.15372413
10	0x3e64c2ff	0.2234001
11	0x3e74726b	0.23871772
12	0x3d138cdb	0.036023002
13	0x3e46aa1e	0.19400832
14	0xbe0b6493	-0.13612585
15	0x3e0e33db	0.13886969
16	0x3dd0294c	0.10164127
17	0xbe5aad6d	-0.21355219
18	0x3dda7ae2	0.10667969
19	0xbe304c48	-0.17216599
20	0xbe5e06e9	-0.21682324
21	0xbde42558	-0.11139935
22	0x3c4778b6	0.012174776
23	0x3e196621	0.14980365
24	0x3e3f4830	0.18679881
25	0x3bb93747	0.0056523415
26	0xbdd02870	-0.10163963
27	0x3de375c0	0.111064434
28	0xbe31fb35	-0.17380984
29	0xbdbceff8	-0.09225458
30	0xbe86e9e5	-0.26350322
31	0xbdb7cb4f	-0.08974325
32	0x3dc65781	0.09684659
33	0xbe1594f8	-0.14607608
34	0xbe49b082	-0.19696239
35	0x3d0d9b9f	0.03457224
36	0xbe3a5836	-0.18197712
37	0xbea57cb2	-0.32321697
38	0x3deae278	0.11468977
39	0xbdae8dba	-0.08523126
40	0xbe2ddb65	-0.16978224
41	0x3e0e5932	0.13901213
42	0x3e6c1107	0.2305337
43	0xbdaec093	-0.08532824
44	0xbbbda135	-0.0057870396
45	0xbe5d31b4	-0.21600991
46	0xbe9c9113	-0.30579433
47	0xbe89fe38	-0.26951766
48	0x3e5e3ac6	0.21702108
49	0x3be4e92c	0.006985804
50	0xbdf50de8	-0.11965543
51	0xbb3023e0	-0.0026876852
52	0xbce43c08	-0.027860656
53	0xbde19009	-0.11013801
54	0xbe8a47b9	-0.27007845
55	0xbdc5171a	-0.09623547
56	0xbddc1116	-0.107454464
57	0x3e2c8705	0.16848381
58	0x3dd6926f	0.10477149
59	0x3cc9c758	0.024631187
60	0x3b831854	0.004000703
61	0x3c4c0da4	0.012454424
62	0xbe275306	-0.16340265
63	0x3e1a6cf6	0.15080628
64	0xbe4aa3f0	-0.197891
65	0xbc5b4627	-0.013383425
66	0xbcb43c6e	-0.022001471
67	0x3e565cc3	0.20933823
68	0xbda56a00	-0.080768585
69	0x3cad4509	0.021151083
70	0x3e6e9470	0.23298812
71	0x3de71d28	0.11284858
72	0xbe5093c9	-0.20368876
73	0x3e61ef41	0.22063924
74	0xbe1bd751	-0.15218855
75	0x3de1df39	0.110289045
76	0xbe07c7b5	-0.13259776
77	0x3dc95414	0.0983049
78	0x3df41149	0.119173594
79	0xba7f1cb6	-0.0009731756
80	0xbc9f1383	-0.019418484
81	0x3e7b5b66	0.24546584
82	0x3d7017f1	0.058616582
83	0x3e3375f0	0.17525458
84	0x3d072b0c	0.033000037
85	0x3dc51669	0.09623415
86	0xbe4eaf8c	-0.20184153
87	0xbe603cd0	-0.21898198
88	0x3d1dd493	0.038532805
89	0xbdf5b051	-0.1199652
90	0x3e3e9881	0.18612863
91	0x3cba5db6	0.022749763
92	0x3cff35ac	0.031153522
93	0xbe5d24fb	-0.21596138
94	0x3d209dab	0.039212864
95	0x3d2828e2	0.041054614
96	0x3e07093b	0.13187115
97	0xbdb36710	-0.08759892
98	0xbe26185d	-0.16220231
99	0x3db84042	0.08996631
100	0xbe4eb748	-0.20187104
101	0xbdeb7eb1	-0.11498774
102	0xbe5ddca5	-0.216662
103	0x3dbb9f15	0.09161202
104	0x3e7ba0c1	0.24573041
105	0x3dc679c8	0.09691197
106	0xbd7d36aa	-0.06181971
107	0x3dd7a305	0.105291404
108	0x3e3d5e97	0.18493114
109	0x3e4e007e	0.20117375
110	0xbdba33ff	-0.09091949
111	0xbe39a55a	-0.18129483
112	0x3dc6d839	0.0970921
113	0x3da82c02	0.08211519
114	0xbe00093d	-0.12503524
115	0x3e58c900	0.21170425
116	0x3e7294fc	0.23689646
117	0x3e07b871	0.13253953
118	0xbe5f1a7a	-0.21787444
119	0xbe35c68a	-0.17751518
120	0x3d715b9c	0.058925256
121	0x3e82fff3	0.255859
122	0x3e49974e	0.19686624
123	0x3dd476f4	0.10374251
124	0xbc14818d	-0.00906409
125	0xbdfcce40	-0.123440266
126	0xbd2a7293	-0.041613173
127	0x3c9ffd2e	0.019529905
128	0x3d984f42	0.07436992
129	0x3e69d3ff	0.22834776
130	0x3e83ff13	0.25780544
131	0xbe975433	-0.29556426
132	0xbd56d4bc	-0.052448973
133	0x3e3037a6	0.17208728
134	0xbe9dde2f	-0.30833575
135	0xbe1b869f	-0.15188073
136	0xbcf70110	-0.030151874
137	0xbe38e042	-0.18054298
138	0xbbc84d34	-0.006112719
139	0xbdd69ad9	-0.104787536
140	0xbd0dac36	-0.03458806
141	0x3e457fee	0.19287083
142	0xbe06c1d6	-0.1315988
143	0xbe0200b8	-0.12695587
144	0xbe1d7fb9	-0.15380754
145	0xbde5c4b6	-0.1121916
146	0xbda89bca	-0.082328394
147	0x3d6de547	0.058079984
148	0x3dabf911	0.08397115
149	0xbe5e02a5	-0.21680696
150	0x3e25aecb	0.1617996
151	0x3b5899c5	0.0033050638
152	0xbc8aa343	-0.016923552
153	0xbd5e5eef	-0.054289754
154	0xbdd6da3e	-0.10490845
155	0x3e0b8747	0.13625823
156	0x3e1cf16d	0.15326472
157	0xbb9a49bf	-0.0047084983
158	0xbe0a0505	-0.13478477
159	0xbdb36d2e	-0.08761059
160	0x3e0381aa	0.12842432
161	0xbe229e85	-0.15880783
162	0x3dda2b5a	0.106528
163	0xbe796274	-0.24353963
164	0x3ca29071	0.019844266
165	0x3dfa33e7	0.12216931
166	0xbcd9722d	-0.026543701
167	0xbe633688	-0.22188771
168	0x3e3d866a	0.18508306
169	0x3c30910e	0.010776771
170	0xbe2a1479	-0.16609372
171	0x3dcce6b9	0.10004944
172	0xbe36b48f	-0.17842315
173	0x3e11974d	0.14217873
174	0xbdd6603f	-0.10467576
175	0x3e476ba8	0.19474661
176	0x3d9bf1f3	0.076145075
177	0x3e59ee4a	0.21282306
178	0x3e9c904a	0.30578834
179	0xbea0c225	-0.3139812
180	0xbd8d2bb0	-0.06893098
181	0x3d9bc229	0.076053925
182	0x3ea247b7	0.3169534
183	0x3e67ff6e	0.22656032
184	0xbd9d286e	-0.07673727
185	0xbcec471d	-0.028842503
186	0xbe2cbc6e	-0.16868755
187	0x3df2bda3	0.118525766
188	0x3e5c80fb	0.21533577
189	0x3e44c2d2	0.19214943
190	0x3db7dda6	0.08977823
191	0x3db05403	0.08609774
192	0x3d599db6	0.05312892
193	0x3e3124c1	0.17299177
194	0x3dcf259a	0.10114594
195	0x3e9a05c8	0.30082536
196	0x3e4d72fa	0.20063391
197	0xbda072d4	-0.07834402
198	0x3db2d09b	0.087311946
199	0x3c39a47b	0.011330719
200	0x3d706c3e	0.058696978
201	0x3dd76dac	0.10518965
202	0x3e3c3876	0.18380913
203	0xbe8de73c	-0.2771548
204	0x3e1405d0	0.14455342
205	0xbdafd97b	-0.08586403
206	0xbe4442ac	-0.19166058
207	0xbd5ec338	-0.054385394
208	0x3e6565a3	0.22402053
209	0x3e63a1a9	0.22229637
210	0x3da80201	0.08203507
211	0x3e2f3fdd	0.17114206
212	0xbe58d390	-0.21174455
213	0xbe4009d3	-0.18753748
214	0xbe1a5ff8	-0.15075672
215	0x3e220ea1	0.15825893
216	0xbe1b14eb	-0.15144698
217	0x3c48901e	0.012241391
218	0x3e516538	0.20448768
219	0xbe7b71d8	-0.24555147
220	0xbd8d6590	-0.06904137
221	0xbd7cbf78	-0.061706036
222	0xbbe6fc8e	-0.00704915
223	0x3cc6fab3	0.024289465
224	0xbd635003	-0.055496227
225	0xbd08d268	-0.033403784
226	0xbcc32d21	-0.02382523
227	0x3cba6f73	0.022758221
228	0x3e4786bc	0.19484991
229	0xbe20c8c8	-0.15701592
230	0x3e69327a	0.22773162
231	0x3e554e6a	0.20830694
232	0x3ddd3d11	0.10802663
233	0xbe300557	-0.17189537
234	0x3c1d2d96	0.009593388
235	0xbdc28245	-0.09497503
236	0x3da7b80e	0.081894025
237	0xbe41bb43	-0.18919091
238	0xbe84db0d	-0.25948372
239	0x3d1f4da0	0.03889239
240	0x3e245fff	0.16052245
241	0x3e1e0e08	0.1543504
242	0xbe0c11e0	-0.13678694
243	0x3d08df7d	0.03341626
244	0x3e32eb44	0.17472559
245	0xbdff3cb4	-0.1246275
246	0x3dc2f016	0.09518449
247	0xbe36e121	-0.17859317
248	0x3d0f1719	0.034934137
249	0xbe77f952	-0.24216202
250	0x3e0cf2f3	0.13764553
251	0x3d43d3f7	0.047809567
252	0x3d0b7e6c	0.034056112
253	0xbe489df0	-0.19591498
254	0x3e5046a9	0.20339455
255	0xbc51ca97	-0.012804649

functional_model_1/sequential_16_1/dense_32_1/BiasAdd/ReadVariableOp:0 f4 [32]
0	0xbbf066b5	-0.0073364624
1	0x3cca2ade	0.024678644
2	0xbc35e1af	-0.01110117
3	0x3d03f589	0.032216582
4	0xbc3eb702	-0.011640312
5	0x3c6ef0f7	0.014583818
6	0x3d36ee16	0.04466065
7	0x3d00b39f	0.0314213
8	0xbc492f9e	-0.012279419
9	0x3d2880b7	0.041138377
10	0xbc19cf74	-0.00938784
11	0x3a904d72	0.0011009409
12	0xbc7465b6	-0.014916828
13	0xbbc47e0d	-0.0059964717
14	0x3c4e58fc	0.012594458
15	0x3c389cdf	0.01126787
16	0xbc7252b5	-0.014790227
17	0xbba08c75	-0.0048995563
18	0x3c5149f0	0.012773976
19	0x3d076c16	0.033062063
20	0xbc9f8217	-0.019471211
21	0x3bf4b001	0.0074672704
22	0x3cf24cd5	0.029577652
23	0xbb9f4f70	-0.0048617646
24	0xbc27a6af	-0.010232612
25	0xbc5999fb	-0.013281341
26	0xbbc4c1be	-0.006004541
27	0xbc01f5f7	-0.007932178
28	0xbc2044b6	-0.009782007
29	0xbba0b5ba	-0.004904476
30	0x3b7ac506	0.0038264408
31	0xbc93e7db	-0.018054893
