class_prediction_model6.onnx (onnx, 95919 bytes, 8 tensors)

functional_model_1/sequential_2_1/lstm_2_1/lstm_cell_1/add_1/ReadVariableOp/resource:0 f4 [256]
0.061201166 0.026789505 -0.023932496 0.020240257 0.035088375 -0.0067795035 -0.08525062 0.098920226
-0.016537212 -0.0041275984 0.07915142 -0.14141059 0.08702974 0.03201749 0.06324896 -0.0027929547
-0.09117401 -0.12985523 0.0727943 0.04087598 -0.06035406 -0.08654863 -0.02821797 -0.035267815
0.027380759 0.051157687 -0.052557323 -0.046372335 -0.14884797 -0.22828746 -0.080918364 0.013328785
0.017082663 0.003962381 -0.028083209 -0.27202442 0.031133763 -0.027537784 0.058116563 0.049817916
-0.06350013 -0.0336506 0.044150315 0.021128967 -0.042669438 0.03577938 0.058913663 0.003131878
0.041634303 0.0038715843 -0.013440511 -0.076704495 -0.11845864 0.08879808 0.0051415875 0.03237441
-0.040557794 0.07690137 0.0042217504 0.03794593 0.11513204 0.087832935 -0.0075940555 -0.057928037
0.99128133 0.9822551 0.9273198 0.79474837 1.0177034 0.9995223 0.9499297 0.8931287
0.9460051 0.9460142 0.94539994 0.8800496 0.9796411 1.0084308 0.97752464 0.9146446
0.94396126 0.8814378 1.0003325 0.9462241 0.8713911 0.91075706 0.90122926 0.9418152
0.9502835 0.9143906 0.842485 0.7799475 0.8741824 0.8314126 0.81966954 0.79356974
0.9032356 0.94593394 0.9204845 0.7430581 0.8907015 0.93227667 0.9197555 1.0076902
1.0190082 0.85463595 0.96727955 0.97943145 0.97450113 1.0087426 0.84412044 0.84375924
0.97406316 0.9932443 0.91120094 0.92826277 0.88025355 1.0524179 1.0025969 0.9707799
0.9611565 0.84794736 0.83437765 0.8339962 0.99528927 1.0165001 1.0280197 0.89381725
-0.0017756503 -0.016343314 -0.016720105 0.016724512 -0.030993503 -0.01073086 0.010302403 0.03877465
-0.022998637 -0.025060015 -0.0069029727 0.00086332625 -0.019410703 -0.007837881 0.0006346567 0.012193868
0.0010572451 -0.008409075 -0.012251013 -0.018128863 -0.0043128165 -0.00523543 0.0055824337 -0.0073324856
-0.0054011405 -0.00026841852 -0.003564547 0.02571506 0.019704873 0.0074252477 0.016862655 -0.042190533
0.029367074 -0.002476187 -0.008995677 0.016632788 -0.018302113 0.011133167 -0.006574006 0.01960017
-0.0040110326 0.02516249 0.0015135799 0.020226393 0.015802538 0.0012649698 0.0072887703 0.021793347
0.027556576 0.025316117 -0.01589522 0.019723345 0.019616678 0.004919948 0.0070562703 0.01064553
-0.021341518 -0.019208552 -0.013532399 -0.0069261165 -0.00031262139 0.00084464735 -0.0049749096 -0.001213295
0.059959877 0.037817873 -0.034044698 -0.023800757 0.035385214 -0.010137235 -0.08356194 0.07870714
-0.02147671 -0.036136504 0.07925481 -0.150671 0.09790243 0.027196469 0.058825627 -0.0540619
-0.10542842 -0.092013314 0.07203614 0.018818907 -0.059089813 -0.0899979 -0.025747651 -0.039805524
0.022966262 0.027989822 -0.028694034 -0.06567713 -0.17384207 -0.22281884 -0.08723017 0.00029001542
-0.004611377 -0.0030425605 -0.018874306 -0.26933813 -0.0041727163 -0.024304986 0.07670754 0.049157023
-0.060077358 -0.025831299 0.043616485 0.014358466 -0.0360029 0.029600337 0.06431593 0.011830762
0.01918479 0.039274372 -0.029859586 -0.08860843 -0.12923874 0.034485534 0.00036246874 0.02422171
-0.038201712 0.026656397 0.01648516 0.052441236 0.106899664 0.07355808 -0.017315961 -0.012757644
00000000: 13ae 7a3d aa75 db3c 150e c4bc e5ce a53c
00000010: d4b8 0f3d 9926 debb e197 aebd b096 ca3d
00000020: 0c79 87bc ce40 87bb 241a a23d f0cd 10be
00000030: a63c b23d c624 033d ac88 813d 010a 37bb
00000040: 70b9 babd c5f8 04be 2e15 953d 926d 273d
00000050: d235 77bd 6840 b1bd 5f29 e7bc fc74 10bd
00000060: 9d4d e03c b98a 513d 5946 57bd ebf0 3dbd
00000070: 9a6b 18be 30c4 69be 87b8 a5bd fa60 5a3c
00000080: f1f0 8b3c dcd6 813b c20e e6bc c946 8bbe
00000090: 3c0c ff3c eb96 e1bc a20b 6e3d df0d 4c3d
000000a0: 5b0c 82bd 36d5 09bd f6d6 343d a816 ad3c
000000b0: 26c6 2ebd 668d 123d 744f 713d 3240 4d3b
000000c0: bb88 2a3d 68ba 7d3b 9735 5cbc 3f17 9dbd
000000d0: 729a f2bd c5db b53d c37a a83b 089b 043d
000000e0: ee1f 26bd 777e 9d3d 9c56 8a3b 316d 1b3d
000000f0: 59ca eb3d c1e1 b33d 8ed7 f8bb f345 6dbd
00000100: 9dc4 7d3f 1275 7b3f d564 6d3f a174 4b3f
00000110: 1b44 823f b2e0 7f3f 982e 733f 15a4 643f
00000120: 642d 723f fd2d 723f bb05 723f ee4a 613f
00000130: c2c9 7a3f 4314 813f 0e3f 7a3f 2626 6a3f
00000140: 72a7 713f e8a5 613f e50a 803f be3b 723f
00000150: 7d13 5f3f 6027 693f f6b6 663f cd1a 713f
00000160: c845 733f 8115 6a3f 19ad 573f a4aa 473f
00000170: 6bca 5f3f 75d7 543f ddd5 513f 6327 4b3f
00000180: 733a 673f ba28 723f dfa4 6b3f 0e39 3e3f
00000190: 0305 643f afa9 6e3f 1975 6b3f fefb 803f
000001a0: dc6e 823f 6cc9 5a3f a29f 773f 05bc 7a3f
000001b0: e878 793f 7a1e 813f 4718 583f 9b00 583f
000001c0: 345c 793f 4245 7e3f 7744 693f a1a2 6d3f
000001d0: 4c58 613f a1b5 863f 1855 803f 0885 783f
000001e0: 5a0e 763f 1413 593f c699 553f c680 553f
000001f0: 47cb 7e3f ad1c 823f 2696 833f 35d1 643f
00000200: f0bc e8ba 6ae2 85bc 9af8 88bc d801 893c
00000210: 16e6 fdbc 7dd0 2fbc 69cb 283c 2bd2 1e3d
00000220: a367 bcbc a94a cdbc 5532 e2bb d850 623a
00000230: 3203 9fbc 756a 00bc 175f 263a cac8 473c
00000240: 4293 8a3a 38c6 09bc 79b8 48bc fb82 94bc
00000250: 8752 8dbb f88d abbb d9ec b63b 5945 f0bb
00000260: 0dfc b0bb 86ba 8cb9 2d9b 69bb 64a8 d23c
00000270: 1d6c a13c 7e4f f33b 8d23 8a3c fbcf 2cbd
00000280: 3893 f03c 8647 22bb 9b62 13bc 7c41 883c
00000290: 50ee 95bc e367 363c c26a d7bb 8990 a03c
000002a0: fb6e 83bb 9121 ce3c 5063 c63a d2b1 a53c
000002b0: 5374 813c 58cd a53a a3d6 ee3b f687 b23c
000002c0: 54be e13c bf63 cf3c b136 82bc da92 a13c
000002d0: 28b3 a03c 8437 a13b 4938 e73b 976a 2e3c
000002e0: 68d4 aebc 415b 9dbc ffb6 5dbc 7af4 e2bb
000002f0: 55e7 a3b9 536b 5d3a 9104 a3bb 6d07 9fba
00000300: 7d98 753d eae6 1a3d 7472 0bbd cef9 c2bc
00000310: 16f0 103d a516 26bc 8622 abbd 3631 a13d
00000320: edef afbc df03 14bd 5950 a23d 8049 1abe
00000330: 1281 c83d 21cb de3c 24f3 703d 0370 5dbd
00000340: dbea d7bd 7a71 bcbd af87 933d 1c2a 9a3c
00000350: 2908 72bd d250 b8bd bdec d2bc 1e0b 23bd
00000360: be23 bc3c e94a e53c c00f ebbc bb81 86bd
00000370: a803 32be 9f2a 64be bba5 b2bd 360d 9839
00000380: 091b 97bb b265 47bb 4a9e 9abc b0e6 89be
00000390: 48bb 88bb 401b c7bc d818 9d3d e058 493d
000003a0: ad13 76bd 299c d3bc 33a7 323d c53f 6b3c
000003b0: c777 13bd 687c f23c 12b8 833d d0d5 413c
000003c0: 6c29 9d3c 2ade 203d 179c f4bc 5678 b5bd
000003d0: 2957 04be b440 0d3d bb09 be39 9c6c c63c
000003e0: 6679 1cbd 845e da3c e30b 873c 9fcc 563d
000003f0: 36ee da3d 9ea5 963d 34da 8dbc 7005 51bc

functional_model_1/sequential_2_1/lstm_2_1/lstm_cell_1/Cast_1/ReadVariableOp/resource:0 f4 [64, 256]
0.016501576 0.18350634 -0.11659954 0.29082426 0.22077948 0.11562394 -0.0014966361 0.3715865
-0.012896217 0.07639263 0.036133237 0.056690935 0.0938912 0.185027 0.19521661 0.13952108
-0.07024976 0.1101338 -0.13318688 0.09572719 0.1432835 -0.04870167 0.075935215 0.05771976
-0.015223966 0.050093077 0.20766816 -0.256558 -0.084185995 0.2504418 0.16600408 0.12992263
0.11217461 0.06900589 0.16256537 -0.09106168 -0.2860622 0.050905265 0.28674358 -0.056694526
0.46412563 -0.35844028 0.13720374 0.10418478 0.24898256 0.00236464 0.32708496 0.1753376
0.26285282 0.26597363 0.045665883 0.051652744 0.07611019 0.34608504 0.017196732 0.16636331
0.12736274 -0.052462336 0.2649305 0.23114839 0.17438287 0.35863104 -0.10099262 0.38577566
0.05329994 0.08184566 0.18137006 0.005324176 -0.10119736 0.17865483 -0.0018148719 0.32440504
0.08877808 -0.05334801 0.0047631855 0.025414012 0.108554326 0.1153285 0.14006607 0.1794763
-0.06751626 -0.12025321 -0.024564482 0.07593167 0.07954578 -0.024241354 0.03860773 -0.03305766
0.017895408 0.38435456 0.042967543 0.014341273 -0.051136706 0.15125194 0.037083924 -0.07041059
0.10188772 0.04070308 0.032127477 0.020489167 0.09350178 0.19020177 0.25828797 0.040379632
-0.094048314 -0.14718713 0.057506997 0.047276895 0.252011 -0.060345672 0.08435141 0.23242958
0.3836227 -0.08427908 0.12002327 0.05812545 -0.049055494 0.385166 -0.10892614 0.073661596
0.09495997 0.022739137 0.106291786 0.16278493 0.106634274 0.32989568 -0.03708813 -0.13879867
-0.081825644 -0.0024073296 -0.24398537 -0.036845602 0.10026406 0.06289186 0.1429983 -0.04670768
-0.0015914062 -0.104906 -0.10053778 0.1119498 0.001117382 -0.0009017275 0.0665212 0.035391007
0.060058046 0.008046501 -0.0010582407 -0.15000094 0.05112181 0.03599963 -0.02713429 -0.073486015
-0.0138278715 0.029091036 0.19180289 0.052945565 -0.11411857 -0.07185289 -0.033450082 -0.13875009
0.019565718 -0.028165713 -0.12414098 0.05374333 0.14213003 0.009733651 -0.12795927 -0.019537516
-0.058699463 0.058610056 -0.09209623 0.14104123 -0.13416667 0.050325934 0.13897318 0.08652648
0.18072696 0.035405524 0.041515425 -0.12352316 0.006894345 0.20717031 0.049095638 -0.028206099
0.09357826 -0.093496054 0.12853721 0.14881368 0.0018888828 0.17917782 -0.041284133 0.0035383636
0.10074004 0.042715516 0.142707 0.5164788 0.0578549 -0.005603019 -0.0044182525 0.45872378
0.10029074 0.01845316 0.163178 0.030256184 0.12304894 0.07023132 0.11887179 0.21543585
0.16433671 0.27345392 -0.009400742 0.10994977 0.07496679 0.03295753 0.13219829 -0.0015625535
-0.020850347 0.19406296 0.26832327 -0.055824116 0.007002757 0.07445509 0.1699153 0.034153208
0.09123435 -0.019224366 0.023840975 -0.021337865 -0.15330338 0.057906974 0.30316037 0.12837885
0.15798508 -0.17481568 0.24914268 0.14906013 0.095714755 -0.01233955 0.21180226 0.02744266
0.16076322 0.11801674 0.19702585 0.08392891 -0.031099465 0.030187927 0.062477313 0.18079771
-0.020605002 0.35651344 0.4543384 0.14340791 0.08968477 0.12587093 0.03868895 0.27644497
00000000: 502e 873c 16e9 3b3e bdcb eebd ebe6 943e
00000010: 0414 623e 3fcc ec3d c62a c4ba 9640 be3e
00000020: a84a 53bc bd73 9c3d 7200 143d c134 683d
00000030: 084a c03d b877 3d3e dde6 473e 9dde 0e3e
00000040: 1bdf 8fbd d48d e13d 2462 08be 9e0c c43d
00000050: e9b8 123e 677b 47bd ec83 9b3d 8e6b 6c3d
00000060: f16d 79bc 662e 4d3d f6a6 543e 925b 83be
00000070: b569 acbd e839 803e f9fc 293e 700a 053e
00000080: cdbb e53d f652 8d3d 8977 263e 8c7e babd
00000090: bf76 92be 0a82 503d 0ed0 923e 8538 68bd
000000a0: e0a1 ed3e 7c85 b7be 237f 0c3e d45e d53d
000000b0: 49f5 7e3e 13f8 1a3b ae77 a73e b38b 333e
000000c0: a594 863e b22d 883e 260c 3b3d d491 533d
000000d0: a9df 9b3d 0f32 b13e 29e0 8c3c 255b 2a3e
000000e0: 616b 023e bfe2 56bd f8a4 873e 2ab2 6c3e
000000f0: 6c91 323e 7d9e b73e 38d5 cebd 6384 c53e
00000100: 0a51 5a3d b39e a73d 13b9 393e 6d76 ae3b
00000110: 9040 cfbd 4bf1 363e ffe0 edba 6b18 a63e
00000120: 48d1 b53d 7183 5abd 7f14 9c3b 0c31 d03c
00000130: bb51 de3d 5931 ec3d 7b6d 0f3e a3c8 373e
00000140: f745 8abd 5147 f6bd 743b c9bc 1082 9b3d
00000150: e6e8 a23d ce95 c6bc 2423 1e3d 7867 07bd
00000160: 6499 923c 1fca c43e bcfe 2f3d a9f7 6a3c
00000170: b974 51bd cae1 1a3e 50e5 173d 6d33 90bd
00000180: 82aa d03d 46b8 263d 1a98 033d e6d8 a73c
00000190: dc7d bf3d 41c4 423e 523e 843e 1d65 253d
000001a0: 679c c0bd 39b8 16be 758c 6b3d 6ba5 413d
000001b0: 9607 813e 062d 77bd 6fc0 ac3d 0502 6e3e
000001c0: 326a c43e 839a acbd c3ce f53d f414 6e3d
000001d0: 6aee 48bd 7a34 c53e ab14 dfbd e4db 963d
000001e0: 5f7a c23d 6d47 ba3c 82af d93d 18b1 263e
000001f0: 1263 da3d 16e8 a83e b9e9 17bd 3d21 0ebe
00000200: 3494 a7bd 4ac4 1dbb 4dd7 79be 6aeb 16bd
00000210: 3e57 cd3d 73cd 803d 256e 123e 8d50 3fbd
00000220: bb96 d0ba f5d8 d6bd c0e6 cdbd f045 e53d
00000230: 1e75 923a e861 6cba 443c 883d 29f6 103d
00000240: 6dff 753d 79d5 033c aab4 8aba d999 19be
00000250: 1a65 513d 5974 133d bb48 debc d67f 96bd
00000260: 4c8e 62bc 5350 ee3c fa67 443e 73dd 583d
00000270: ffb6 e9bd 9c27 93bd f402 09bd 8114 0ebe
00000280: 4948 a03c c8bb e6bc a03d febd f721 5c3d
00000290: 898a 113e e479 1f3c c107 03be 240d a0bc
000002a0: d96e 70bd 1911 703d f39c bcbd 1d6d 103e
000002b0: fd62 09be 9122 4e3d fc4e 0e3e cc34 b13d
000002c0: 7d10 393e 6205 113d 140c 2a3d b6f9 fcbd
000002d0: f5e9 e13b 7424 543e 8218 493d 7a10 e7bc
000002e0: f5a5 bf3d dc7a bfbd 429f 033e 9d62 183e
000002f0: 6494 f73a 647a 373e 8d19 29bd e4e3 673b
00000300: cb50 ce3d 77f6 2e3d c921 123e f437 043f
00000310: 42f9 6c3d 8899 b7bb fdc6 90bb d8dd ea3e
00000320: 3b65 cd3d 152b 973c 2218 273e d1db f73c
00000330: 1501 fc3d 70d5 8f3d 0e73 f33d 379b 5c3e
00000340: e247 283e 2702 8c3e 9205 1abc 582d e13d
00000350: 3088 993d 7afe 063d fd5e 073e 98ce ccba
00000360: 59ce aabc 71b8 463e ab61 893e d4a7 64bd
00000370: 6277 e53b e97b 983d 47fe 2d3e 3ce4 0b3d
00000380: 13d9 ba3d 6b7c 9dbc 264e c33c bfcc aebc
00000390: 90fb 1cbe dd2f 6d3d d637 9b3e bf75 033e
000003a0: d7c6 213e e202 33be 421f 7f3e 38a3 183e
000003b0: 1906 c43d d32b 4abc b1e2 583e 6ecf e03c
000003c0: 1d9f 243e c3b2 f13d 25c1 493e ece2 ab3d
000003d0: 4ec4 febc ac4c f73c 36e8 7f3d 0923 393e
000003e0: d2cb a8bc ee88 b63e 0b9f e83e 86d9 123e
000003f0: a6ac b73d 4fe4 003e 4e78 1e3d 328a 8d3e

functional_model_1/sequential_2_1/lstm_2_1/lstm_cell_1/Cast/ReadVariableOp/resource:0 f4 [4, 256]
0.0056821713 0.26354107 -0.080487154 0.19838978 0.0011372352 -0.042077653 -0.0042056083 0.34797704
-0.15777089 0.1578748 0.06951179 0.068800524 0.048086133 0.1334628 0.06739559 0.012752236
-0.13093811 0.3367614 -0.14619534 0.12505716 0.08311992 -0.01576297 0.24069737 0.11200242
0.03750522 -0.032256037 0.33513567 0.2243869 0.05817791 -0.29253668 0.08938755 -0.4102041
-0.25400013 0.14395377 0.1612457 -0.15285031 0.06817443 0.103403606 0.3783675 0.12594998
0.08894024 -0.022990663 0.047875956 -0.16325635 0.21908607 0.039835356 0.31568888 0.15899383
0.019058833 0.28892484 -0.14096935 0.01828971 0.10828338 -0.13828352 0.08735857 -0.13863169
0.0019069011 -0.4248564 0.22590196 0.29387406 0.12378869 -0.17206621 0.11662944 0.09236224
0.059371375 -0.06498467 -0.047901817 -0.12824872 -0.23653223 -0.18865821 0.14052024 0.14820853
-0.3954805 0.19818585 -0.3316905 -0.44797847 -0.4065125 -0.20433575 -0.24054106 0.052682098
0.0071809017 -0.36156434 0.09104699 -0.20908421 -0.35476083 -0.17618456 -0.029499112 -0.16682872
-0.09678853 -0.16008154 0.12999979 0.0760804 -0.36857206 0.25100482 -0.091961645 -0.17739464
-0.3761913 -0.2734713 -0.36628264 0.11882116 0.16966276 -0.42426464 0.12054006 0.02768291
-0.50179476 -0.13073021 -0.34026706 -0.19015592 -0.25411546 -0.031554136 -0.023522357 0.069281824
-0.123491086 -0.11374108 -0.34172064 -0.08383798 0.22915001 -0.42451367 0.026603606 -0.38296893
-0.2068842 0.14562634 -0.099013135 -0.17248914 -0.22941323 -0.095752224 -0.119128674 -0.5106857
-0.34926137 -0.33921918 0.1284015 -0.0956418 -0.19701695 0.18572132 -0.19181778 -0.24522269
0.23919255 0.23057896 -0.30731398 -0.19867098 -0.3226055 0.3110536 0.33451942 0.11211251
-0.019386783 0.23080045 0.3384715 0.20547418 -0.25543982 -0.13199204 -0.2124081 0.22843872
-0.12422705 0.13843492 0.2140731 0.09193079 -0.08597974 0.069666676 -0.21920668 -0.16703185
-0.19693619 0.28688985 -0.20345487 0.12451586 -0.06531863 -0.18422817 -0.07725924 -0.32034475
-0.15267645 0.101592705 0.25406703 -0.2284112 0.20380446 -0.2773953 0.113781005 0.17899877
-0.0866308 0.20871557 -0.022672711 0.006568329 -0.036768492 0.052392427 0.3205078 -0.015064302
-0.28096822 -0.009470402 0.211374 0.12014473 0.32767096 -0.19530442 0.086893335 0.28881037
0.023318814 -0.05346144 0.22556615 0.404319 -0.19777279 0.19933549 0.0037910915 0.52670723
0.13251774 0.4221007 -0.21372527 -0.27490908 -0.037815142 0.15572321 -0.1971131 0.55647945
0.05522423 0.024957173 -0.012636776 0.34663442 -0.020630034 0.13644159 0.15882625 0.11375945
-0.17276351 0.26814356 0.41937214 0.36263335 -0.15133117 -0.08568408 0.23797935 -0.45702106
-0.43294704 0.22970416 -0.063717864 0.14345178 0.37874562 -0.024414258 0.21519716 0.17097709
-0.46817622 -0.15727313 -0.20503578 0.14877698 -0.19623788 0.010601402 0.41745883 0.25397167
0.07604052 0.285217 0.27769193 -0.061437625 0.21606897 -0.37016568 0.11855447 0.079265565
0.08403913 0.28310248 0.29868495 0.17217998 0.13096672 -0.005631333 0.043713104 -0.078938305
00000000: 8231 ba3b dbee 863e 73d6 a4bd b126 4b3e
00000010: 480f 953a 9e59 2cbd 33cf 89bb 0c2a b23e
00000020: b18e 21be eea9 213e 335c 8e3d 4ae7 8c3d
00000030: f7f5 443d 79aa 083e b306 8a3d c1ee 503c
00000040: a414 06be fd6b ac3e 3bb4 15be fc0e 003e
00000050: c73a aa3d 5821 81bc 5f79 763e 8661 e53d
00000060: 139f 193d e81e 04bd e796 ab3e aec5 653e
00000070: f64b 6e3d 5ec7 95be d210 b73d 4606 d2be
00000080: 4e0c 82be 9e68 133e 981d 253e cb84 1cbe
00000090: 099f 8b3d 45c5 d33d 63b9 c13e 08f9 003e
000000a0: 4d26 b63d ea56 bcbc 9419 443d ac2c 27be
000000b0: 1958 603e 662a 233d f9a1 a13e 47cf 223e
000000c0: 4521 9c3c f5ed 933e 455a 10be 4dd4 953c
000000d0: adc3 dd3d 329a 0dbe 0de9 b23d 77f5 0dbe
000000e0: fcf0 f93a c786 d9be d852 673e a976 963e
000000f0: ed84 fd3d 2032 30be 6adb ee3d 6a28 bd3d
00000100: 662f 733d af16 85bd b234 44bd a253 03be
00000110: 8135 72be 9e2f 41be 8ae4 0f3e fac3 173e
00000120: 6c7c cabe 3bf1 4a3e 56d3 a9be 6f5d e5be
00000130: 6822 d0be 643d 51be 6550 76be 2fc9 573d
00000140: c54d eb3b f61e b9be d876 ba3d 2c1a 56be
00000150: 36a3 b5be ba69 34be 1fa8 f1bc 26d5 2abe
00000160: 1139 c6bd 6aec 23be aa1e 053e 0ad0 9b3d
00000170: 7ab5 bcbe b483 803e 6356 bcbd f1a6 35be
00000180: 259c c0be 6e04 8cbe 6689 bbbe 8258 f33d
00000190: 13bc 2d3e 3739 d9be b5dd f63d 45c7 e23c
000001a0: 9f75 00bf 24de 05be 7c37 aebe 3cb8 42be
000001b0: 6c1b 82be e93e 01bd f5b1 c0bc a1e3 8d3d
000001c0: e5e8 fcbd 15f1 e8bd 02f6 aebe 3fb3 abbd
000001d0: 4da6 6a3e db59 d9be ceef d93c 8114 c4be
000001e0: 74d9 53be 121f 153e 66c7 cabd fea0 30be
000001f0: 4deb 6abe be19 c4bd bcf9 f3bd 4cbc 02bf
00000200: 63d2 b2be 23ae adbe af7b 033e d9df c3bd
00000210: d0be 49be bb2d 3e3e e16b 44be a81b 7bbe
00000220: e4ee 743e e41c 6c3e 4258 9dbe 6870 4bbe
00000230: 8c2c a5be 6b42 9f3e 2146 ab3e 3e9b e53d
00000240: 08d1 9ebc f456 6c3e 234c ad3e d367 523e
00000250: 02c9 82be ec28 07be 8281 59be d7eb 693e
00000260: c06a febd e2c1 0d3e fb35 5b3e 3646 bc3d
00000270: 2516 b0bd 67ad 8e3d b777 60be 660a 2bbe
00000280: a4a9 49be 3ae3 923e 7956 50be 2c02 ff3d
00000290: c6c5 85bd 4fa6 3cbe 183a 9ebd 3a04 a4be
000002a0: 3757 1cbe d60f d03d 1315 823e a0e4 69be
000002b0: 1eb2 503e c206 8ebe 0406 e93d 744b 373e
000002c0: 7d6b b1bd 89b9 553e 1fbc b9bc 233b d73b
000002d0: 8f9a 16bd 7199 563d 9919 a43e 43d0 76bc
000002e0: 11db 8fbe bf29 1bbc 6d72 583e 710e f63d
000002f0: 7dc4 a73e e2fd 47be 22f5 b13d f4de 933e
00000300: 1907 bf3c 62fa 5abd d0fa 663e e602 cf3e
00000310: f384 4abe 9a1e 4c3e f673 783b 49d6 063f
00000320: bbb2 073e 951d d83e ccda 5abe e2c0 8cbe
00000330: 0de4 1abd e875 1f3e 04d8 49be 7075 0e3f
00000340: cd32 623d fc72 cc3c 7b0a 4fbc 117a b13e
00000350: 5100 a9bc 58b7 0b3e 59a3 223e b7fa e83d
00000360: ebe8 30be 1d4a 893e f2b7 d63e 14ab b93e
00000370: 8ff6 1abe 237b afbd dcb0 733e aafe e9be
00000380: 3cab ddbe 9137 6b3e 837e 82bd 06e5 123e
00000390: f2ea c13e 6900 c8bc a55c 5c3e 9e14 2f3e
000003a0: cbb4 efbe 350c 21be e6f4 51be fe58 183e
000003b0: 95f2 48be 81b1 2d3c 2abd d53e 9308 823e
000003c0: 22bb 9b3d f607 923e a32d 8e3e 05a6 7bbd
000003d0: 2f41 5d3e 5b86 bdbe b0cc f23d fc55 a23d
000003e0: b51c ac3d cff2 903e 3ced 983e f34f 303e
000003f0: 241c 063e 0c87 b8bb 830c 333d 68aa a1bd

functional_model_1/sequential_2_1/embedding_2_1/GatherV2/ReadVariableOp:0 f4 [3, 4]
0.008732557 -0.039604675 0.0397115 -0.0030006059 -0.22193429 0.223195 0.112116575 -0.17004944
0.24051993 -0.23121056 -0.16372547 0.2029681
00000000: 0013 0f3c 8338 22bd 87a8 223d d0a5 44bb
00000010: be42 63be 3b8d 643e 609d e53d 7121 2ebe
00000020: db4a 763e 76c2 6cbe a6a7 27be dfd6 4f3e

functional_model_1/sequential_2_1/dense_5_1/Cast/ReadVariableOp:0 f4 [32, 2]
-0.23267077 -0.2000117 0.21833463 0.02141077 -0.23267975 -0.23305078 -0.23914237 -0.24130757
-0.40438926 -0.39837676 0.04138828 -0.015619596 -0.20253107 -0.080838405 0.29665402 0.33662823
0.2742114 0.038244404 0.1310816 0.3779763 0.13475832 -0.22072183 -0.25152048 0.31958157
0.05448523 -0.2864593 0.41280258 0.26953137 0.3853407 0.12827082 -0.17736475 0.44128245
0.0088052275 -0.16822715 -0.19748949 0.19488566 0.2086239 0.22191945 -0.12001905 -0.09097286
0.16620608 -0.3340796 -0.19797952 0.20543747 0.09210246 0.11691945 -0.36561453 0.26015407
-0.16350158 -0.17540856 -0.32498962 -0.20656434 -0.18145041 0.15703611 -0.1798002 -0.026536442
-0.25063297 -0.1442029 0.022779511 -0.10993786 -0.14098445 -0.053393353 0.2405783 0.08941214
00000000: 3f41 6ebe decf 4cbe 1d93 5f3e a465 af3c
00000010: 9a43 6ebe dda4 6ebe bde1 74be 5519 77be
00000020: 1c0c cfbe 0af8 cbbe c286 293d 55e9 7fbc
00000030: 4e64 4fbe 9b8e a5bd 09e3 973e 895a ac3e
00000040: 7065 8c3e 2aa6 1c3d 413a 063e 1c86 c13e
00000050: 16fe 093e e704 62be 4bc7 80be 32a0 a33e
00000060: e82b 5f3d cbaa 92be dc5a d33e 0400 8a3e
00000070: 604b c53e 6d59 033e 1b9f 35be c6ef e13e
00000080: cd43 103c bd43 2cbe af3a 4abe 1b90 473e
00000090: 81a1 553e da3e 633e 8ccc f5bd fb4f babd
000000a0: ed31 2a3e 7b0c abbe 25bb 4abe 335e 523e
000000b0: 37a0 bc3d 7773 ef3d d431 bbbe ea32 853e
000000c0: f56c 27be 4d9e 33be 0a65 a6be 9a85 53be
000000d0: 23ce 39be 13ce 203e 8b1d 38be f462 d9bc
000000e0: f752 80be eda9 13be 199c ba3c 1a27 e1bd
000000f0: 3a5e 10be fdb2 5abd 285a 763e b61d b73d

functional_model_1/sequential_2_1/dense_5_1/BiasAdd/ReadVariableOp:0 f4 [2]
-0.007282241 0.007282245
00000000: dd9f eebb e69f ee3b

functional_model_1/sequential_2_1/dense_4_1/Cast/ReadVariableOp:0 f4 [64, 32]
-0.075781025 0.07350756 0.19872645 0.13467236 0.13635425 -0.11392258 -0.015157763 0.24599527
-0.12169205 0.014248842 0.045200054 -0.15431534 0.17657372 -0.26231852 0.28562745 0.09892606
0.014700631 0.054096267 0.0015170954 0.07868373 0.2015982 0.17215697 0.043555103 -0.051544867
-0.08928918 -0.047294457 0.01220716 -0.24052744 0.24985331 -0.22141498 0.07755947 0.021232558
-0.11106223 -0.105632655 0.13854086 -0.07850923 0.0975666 -0.06641753 -0.17619385 -0.2256903
0.12104906 -0.219981 0.09826286 0.06489881 -0.04493181 0.07483093 -0.007690306 0.2693058
0.12526993 0.25200683 0.12378042 -0.18527736 0.053255368 0.2071389 0.22263953 -0.1917248
0.25329226 -0.17764106 0.0040644463 -0.2598903 0.24005224 -0.19185285 0.057879467 -0.0012114538
0.16929156 -0.013030308 0.16960232 0.025984785 0.057977077 -0.016641092 0.0669599 -0.22380763
0.015306316 0.122337185 -0.20299576 -0.2100628 -0.12228159 0.051755443 -0.15083653 -0.077234104
-0.23018563 0.17213574 0.018073162 0.13843916 0.17053398 -0.2939936 0.07301291 0.21610145
0.021970596 0.04733757 -0.15894987 0.21948189 -0.23506995 -0.11619388 0.19364741 0.036630202
0.1831258 -0.1879689 0.007139272 0.1991766 0.020734377 -0.04422633 -0.20222549 0.16308436
0.0082161315 0.3216038 0.022398213 -0.20329037 0.10006838 -0.19125831 0.21787658 -0.17225161
0.10915546 -0.0084024975 0.080043115 -0.14880206 -0.004373632 0.0075142337 0.051572036 0.08147206
-0.17793779 -0.049063925 0.121452846 0.21515425 -0.0053507686 -0.015826778 -0.28176135 -0.0024930642
-0.16263585 0.08246989 0.034031168 0.20054238 -0.14954631 -0.0051236562 -0.16980067 0.22248007
-0.057266414 -0.22527544 -0.11532654 0.061640497 -0.121725895 -0.0043392023 -0.01684759 0.22428614
0.23734123 -0.011780623 0.18705735 0.07518294 0.1832963 0.19607125 0.16544348 -0.20099553
-0.06860427 0.12472884 0.1094535 -0.025248554 -0.19645792 0.09860445 0.08622286 0.117029734
0.010836662 -0.14081424 0.09272122 -0.23951803 -0.012186039 -0.0875368 -0.17651561 -0.12534687
-0.03688893 -0.23381129 -0.11625662 -0.031655807 0.22890173 0.0084215235 -0.20313486 0.014251944
-0.08867593 0.22305904 0.107429065 -0.15696806 -0.22218324 -0.0070641115 -0.07514207 0.11373481
0.16864732 0.11353153 0.11506035 -0.24414355 -0.066045105 0.16126682 0.1971517 0.1111055
0.037178278 -0.101238236 -0.08270939 0.12169082 -0.14408144 -0.09767833 -0.050730318 0.19309007
-0.02491554 -0.16033599 -0.022716511 0.0067085293 0.2308053 0.032321133 0.091624215 -0.027923716
0.24756208 -0.21251865 -0.104453914 -0.086521275 0.117739186 -0.15161963 0.13973479 0.16613196
0.021237778 -0.114858836 0.26139644 0.060856126 -0.100485004 -0.21585555 0.07478753 0.043060336
-0.08501711 0.08845048 -0.0059129936 0.046977915 -0.11878307 0.074873105 -0.21258487 -0.16216366
-0.3335269 0.2217361 -0.1087064 0.09806017 0.111573905 0.14973322 0.36469117 -0.39682975
0.08345798 0.25871348 0.050579064 0.052857835 -0.25882834 0.0895579 0.22589226 0.075597905
0.202253 -0.1759135 -0.014378322 -0.086205155 -0.23430477 0.07174807 -0.21735096 -0.15756151
00000000: 1533 9bbd 228b 963d f27e 4b3e 8de7 093e
00000010: 73a0 0b3e 3e50 e9bd 4458 78bc 2fe6 7b3e
00000020: ae39 f9bd fa73 693c b123 393d d704 1ebe
00000030: becf 343e 9d4e 86be c33d 923e bf99 ca3d
00000040: eada 703c 0c94 5d3d 46d9 c63a ef24 a13d
00000050: c26f 4e3e eb49 303e d666 323d b620 53bd
00000060: 3fdd b6bd d5b7 41bd 8a00 483c d34c 76be
00000070: 8cd9 7f3e 9cba 62be 80d7 9e3d e7ef ad3c
00000080: 9874 e3bd ef55 d8bd a8dd 0d3e 72c9 a0bd
00000090: ffd0 c73d ea05 88bd 296c 34be 5c1b 67be
000000a0: 92e8 f73d b342 61be 0a3e c93d abe9 843d
000000b0: 6b0a 38bd f540 993d f6fe fbbb 73e2 893e
000000c0: c346 003e 0a07 813e 9780 fd3d 59b9 3dbe
000000d0: 4d22 5a3d 381c 543e 9efb 633e 8253 44be
000000e0: 86af 813e 8ae7 35be 0c2f 853b 5710 85be
000000f0: 41d0 753e 1375 44be 0513 6d3d a5c9 9eba
00000100: c45a 2d3e 137d 55bc 3bac 2d3e 0bde d43c
00000110: 5f79 6d3d e652 88bc 4622 893d d42d 65be
00000120: 58c7 7a3c eb8b fa3d 1fde 4fbe b41a 57be
00000130: c56e fabd 84fd 533d e474 1abe ea2c 9ebd
00000140: c8b5 6bbe 5a44 303e 2b0e 943c ffc2 0d3e
00000150: 76a0 2e3e 5486 96be cb87 953d b349 5d3e
00000160: aefb b33c 0ae5 413d c1c3 22be dcbf 603e
00000170: 2db6 70be 0ff7 edbd 824b 463e 8d09 163d
00000180: 5485 3b3e eb7a 40be 8ef0 e93b f3f4 4b3e
00000190: 24db a93c ab26 35bd 3314 4fbe 96ff 263e
000001a0: f49c 063c 41a9 a43e 757c b73c 5a2b 50be
000001b0: a7f0 cc3d 38d9 43be 0a1b 5f3e ba62 30be
000001c0: e68c df3d a1aa 09bc a5ed a33d 915f 18be
000001d0: af50 8fbb f639 f63b 333d 533d d3da a63d
000001e0: 5335 36be 41f7 48bd 45bc f83d 6551 5c3e
000001f0: 8055 afbb 29a7 81bc 0643 90be ad62 23bb
00000200: 038a 26be f9e5 a83d 4464 0b3d fb5a 4d3e
00000210: ab22 19be 58e4 a7bb 3ae0 2dbe d1d1 633e
00000220: 3090 6abd 9bae 66be 5230 ecbd bf7a 7c3d
00000230: 6d4b f9bd de2f 8ebb f503 8abc 44ab 653e
00000240: 9409 733e 8403 41bc f68b 3f3e 83f9 993d
00000250: 06b2 3b3e e7c6 483e 046a 293e c6d1 4dbe
00000260: 6580 8cbd d671 ff3d 2829 e03d 0ed6 cebc
00000270: 442c 49be 21f1 c93d 9c95 b03d 49ad ef3d
00000280: 418c 313c 9c31 10be 9fe4 bd3d 3744 75be
00000290: f4a7 47bc 7e46 b3bd 82c0 34be ee5a 00be
000002a0: d918 17bd 3a6c 6fbe f317 eebd 85a9 01bd
000002b0: 3765 6a3e 6efa 093c 9602 50be fc80 693c
000002c0: ba9b b5bd 9769 643e c503 dc3d 3cbc 20be
000002d0: 0184 63be 107a e7bb 16e4 99bd cced e83d
000002e0: e2b1 2c3e 3883 e83d c3a4 eb3d c400 7abe
000002f0: a842 87bd 2123 253e 23e2 493e 488b e33d
00000300: 4048 183d fe55 cfbd 8a63 a9bd 0939 f93d
00000310: 168a 13be 940b c8bd 98ca 4fbd 67b9 453e
00000320: ad1b ccbc 1e2f 24be fa17 babc 39d3 db3b
00000330: 3958 6c3e 2a63 043d 7aa5 bb3d 47c0 e4bc
00000340: ea80 7d3e 7d9e 59be efeb d5bd 1132 b1bd
00000350: 3e21 f13d 2d42 1bbe a316 0f3e 7f1e 2a3e
00000360: d9fa ad3c 1c3b ebbd c1d5 853e 4644 793d
00000370: 15cb cdbd 3d09 5dbe 342a 993d 0960 303d
00000380: 731d aebd 8625 b53d c9c1 c1bb ea6b 403d
00000390: 8a44 f3bd 1257 993d d9af 59be 3b0e 26be
000003a0: 0ac4 aabe ca0e 633e 76a1 debd c5d3 c83d
000003b0: dc80 e43d aa53 193e cdb8 ba3e 452d cbbe
000003c0: 04ec aa3d 1876 843e fe2b 4f3d 7581 583d
000003d0: 2685 84be 226a b73d 4d50 673e 13d3 9a3d
000003e0: 691b 4f3e ab22 34be 0e93 6bbc 548c b0bd
000003f0: 97ed 6fbe a7f0 923d 4091 5ebe ce57 21be

functional_model_1/sequential_2_1/dense_4_1/BiasAdd/ReadVariableOp:0 f4 [32]
-0.027635178 0.007922824 -0.06274174 -0.032112822 -0.038033444 -0.07894355 0.0058526346 -0.024364112
-0.04209061 0.060335472 0.037110977 -0.034538735 -0.061606046 -0.08470401 -0.021387896 -0.06936442
-0.079832606 -0.07917702 -0.06038809 -0.027823977 0.051797222 -0.106683254 -0.059214734 0.044341866
-0.051976208 0.019738251 -0.08174388 -0.015555348 -0.06334491 -0.08278711 -0.08661491 -0.05930263
00000000: 2b63 e2bc bbce 013c be7e 80bd bc88 03bd
00000010: f5c8 1bbd 28ad a1bd 75c7 bf3b 3f97 c7bc
00000020: 3467 2cbd 5422 773d ae01 183d 7d78 0dbd
00000030: 9f56 7cbd 4c79 adbd ab35 afbc ef0e 8ebd
00000040: 477f a3bd 9027 a2bd 8059 77bd 1cef e3bc
00000050: 5329 543d c07c dabd 268b 72bd d19f 353d
00000060: 01e5 54bd 1db2 a13c 5669 a7bd dcdb 7ebc
00000070: faba 81bd 4a8c a9bd 2863 b1bd 51e7 72bd
