model11.onnx (onnx, 501406 bytes, 12 tensors)

functional_5_1/lstm_11_1/lstm_cell_1/add_1/ReadVariableOp/resource:0 f4 [256]
-0.03349169 -0.035025854 -0.030887002 -0.048258975 -0.08048998 -0.041580413 -0.029151333 -0.032441974
-0.056839824 -0.043019194 -0.0665054 -0.03786639 -0.046948757 -0.07335263 -0.019535823 -0.07270899
-0.053237982 -0.015825346 -0.027653914 -0.052106433 -0.039281435 -0.065299004 -0.05352856 -0.058853894
-0.041419577 -0.032364495 -0.044107426 -0.047835696 -0.019395083 -0.021282364 -0.006632306 -0.028645974
-0.029579114 -0.030745147 -0.019377513 -0.053021446 -0.04252555 -0.033088353 -0.044656288 -0.03326421
-0.05280506 -0.028107509 -0.039694484 -0.036075715 -0.04715102 -0.047723044 -0.020249045 -0.0445327
-0.035059445 -0.03721358 -0.07012921 -0.037281588 -0.06458847 -0.042421885 -0.02409168 -0.05206118
-0.05874219 -0.030959658 -0.04388353 -0.01793411 -0.027746612 -0.018018888 -0.056183573 -0.042802222
0.97769344 0.97276837 0.9859728 0.9793381 0.94352746 0.9694195 0.9769949 0.9854403
0.94322133 0.95596325 0.9282864 0.9602337 0.9597433 0.9626951 0.9764247 0.9510505
0.9641763 0.9672285 0.9649796 0.9662857 0.97011906 0.9285907 0.9712752 0.9463376
0.977471 0.9877066 0.95860296 0.94053024 0.9767698 0.97569704 0.999171 0.9775544
0.9763024 0.9859372 0.98409766 0.9326892 0.9427468 0.97567165 0.9717448 0.9629456
0.9750473 0.9713811 0.955925 0.9604786 0.97263145 0.93811274 0.9874006 0.9635759
0.9766927 0.94855696 0.95001763 0.96476424 0.9338429 0.97842366 0.96720755 0.9389667
0.91856307 0.9782437 0.9533882 0.9817141 0.98485637 0.9699735 0.95150733 0.9594075
-0.0055723847 0.0062961215 -0.014764818 -0.0024134219 -0.007697287 0.0005543044 0.005278418 0.009934679
-0.0008022898 0.00725527 0.008430423 -0.0039788126 -0.006848966 0.005773448 -0.0075300843 -0.0043707797
-0.011975374 -0.012529518 0.0074784635 -0.015761314 0.0037543213 0.010999606 0.006638948 -0.011327136
-0.004485832 -0.0076203523 -0.005852936 -0.0017448664 0.008223304 0.0046020723 0.018534563 -0.016730078
0.0005882873 -0.0097066285 -0.0069545954 0.0044290135 -0.00069322047 0.016320193 0.0008585908 -0.0066623124
-0.0060040066 0.0009806694 -0.0018231674 0.0077530053 -0.008240034 0.002985314 -0.015085195 -0.0038735354
-0.010562621 0.0043588774 -0.00048368392 -0.00045743422 -0.0010475658 -0.0028356416 0.0015306285 0.0039618835
0.0001389287 -0.0032466238 0.0019115098 -0.0021613503 0.009625798 0.0028258183 0.0062366445 -0.006240113
-0.039768934 -0.03260036 -0.035799548 -0.04630978 -0.08187331 -0.04301279 -0.029932367 -0.03410474
-0.05557853 -0.042675808 -0.06351148 -0.03908233 -0.046352208 -0.07180256 -0.0035938374 -0.065705545
-0.054031495 -0.019660885 -0.028087748 -0.053650633 -0.039427366 -0.06617403 -0.047505826 -0.0587388
-0.041135922 -0.034434285 -0.046807677 -0.04788605 -0.021029506 -0.021534937 -0.006255355 -0.028719345
-0.032454785 -0.030520407 -0.018697351 -0.050747 -0.044850416 -0.034005012 -0.045457363 -0.03402747
-0.05180404 -0.03222857 -0.040148966 -0.035183348 -0.045817025 -0.04608067 -0.018729566 -0.046968643
-0.03589808 -0.038499203 -0.0699419 -0.039374225 -0.06559883 -0.041593138 -0.022652436 -0.050694026
-0.0599327 -0.02999184 -0.046179734 -0.02039399 -0.022225132 -0.01928258 -0.056848865 -0.04261633
00000000: 952e 09bd 4577 0fbd bd06 fdbc 34ab 45bd
00000010: eed7 a4bd 3950 2abd c7ce eebc e0e1 04bd
00000020: e0d0 68bd e534 30bd fc33 88bd ca19 1bbd
00000030: 574d 40bd e739 96bd 9709 a0bc 73e8 94bd
00000040: 1210 5abd 28a4 81bc 768a e2bc 8e6d 55bd
00000050: 92e5 20bd 7cbb 85bd c340 5bbd c810 71bd
00000060: 93a7 29bd a290 04bd fda9 34bd 5def 43bd
00000070: 70e2 9ebc 5a58 aebc d153 d9bb f6aa eabc
00000080: e64f f2bc 3fdd fbbc 97bd 9ebc 042d 59bd
00000090: 452f 2ebd a787 07bd 83e9 36bd 0d40 08bd
000000a0: 1e4a 58bd b841 e6bc af96 22bd 21c4 13bd
000000b0: 6e21 41bd 3d79 43bd 53e1 a5bc ec67 36bd
000000c0: 7e9a 0fbd 446d 18bd e79f 8fbd 94b4 18bd
000000d0: f646 84bd 92c2 2dbd ea5b c5bc 1b3e 55bd
000000e0: a79b 70bd 1c9f fdbc 37bf 33bd 8eea 92bc
000000f0: dd4c e3bc 599c 93bc bf20 66bd 6251 2fbd
00000100: 1e4a 7a3f 5907 793f b768 7c3f e7b5 7a3f
00000110: 048b 713f e02b 783f 561c 7a3f d145 7c3f
00000120: f476 713f 02ba 743f 2da4 6d3f e0d1 753f
00000130: bdb1 753f 3073 763f f8f6 793f 0c78 733f
00000140: 42d4 763f 499c 773f e708 773f 805e 773f
00000150: b959 783f 1fb8 6d3f 7ea5 783f 2e43 723f
00000160: 8a3b 7a3f 57da 7c3f 0167 753f 97c6 703f
00000170: 960d 7a3f 48c7 793f acc9 7f3f 0141 7a3f
00000180: f4ee 793f 6166 7c3f d3ed 7b3f b8c4 6e3f
00000190: db57 713f 9ec5 793f 44c4 783f 9a83 763f
000001a0: b39c 793f 6fac 783f 80b7 743f ede1 753f
000001b0: 60fe 783f 2828 703f 49c6 7c3f e9ac 763f
000001c0: 8808 7a3f a1d4 723f 5b34 733f cafa 763f
000001d0: 5410 6f3f f979 7a3f ea9a 773f 1f60 703f
000001e0: f326 6b3f 2e6e 7a3f 4011 743f 9e51 7b3f
000001f0: 8c1f 7c3f 2f50 783f fc95 733f bb9b 753f
00000200: 8d98 b6bb b24f ce3b 23e8 71bc 802a 1ebb
00000210: 8639 fcbb bd4e 113a 94f6 ac3b 10c5 223c
00000220: c250 52ba 9ebd ed3b c21f 0a3c b360 82bb
00000230: 4a6d e0bb 312f bd3b edbe f6bb c238 8fbb
00000240: 5c34 44bc 9c48 4dbc e60d f53b df1d 81bc
00000250: 0f0b 763b b137 343c 888b d93b 7495 39bc
00000260: e3fd 92bb 26b4 f9bb fcc9 bfbb 00b4 e4ba
00000270: 09bb 063c fbcc 963b ccd5 973c 840d 89bc
00000280: 4b37 1a3a 8d08 1fbc 60e3 e3bb 4221 913b
00000290: 3db9 35ba edb1 853c 0e13 613a 874f dabb
000002a0: 42bd c4bb ce89 803a 59f7 eeba ec0c fe3b
000002b0: 3501 07bc 42a5 433b e527 77bc 24db 7dbb
000002c0: d80e 2dbc ead4 8e3b f596 fdb9 c8d3 efb9
000002d0: 7a4e 89ba 2cd6 39bb 5f9f c83a b0d2 813b
000002e0: 64ad 1139 4fc5 54bb a08b fa3a 71a5 0dbb
000002f0: 86b5 1d3c 5d31 393b c45c cc3b dd79 ccbb
00000300: c0e4 22bd f587 05bd 8ca2 12bd 53af 3dbd
00000310: 32ad a7bd 2e2e 30bd b934 f5bc 69b1 0bbd
00000320: 50a6 63bd d4cc 2ebd 4f12 82bd cb14 20bd
00000330: d0db 3dbd 380d 93bd 9686 6bbb a190 86bd
00000340: 2150 5dbd dd0f a1bc 4718 e6bc c4c0 5bbd
00000350: 977e 21bd 4086 87bd 7895 42bd 1998 70bd
00000360: 247e 28bd f70a 0dbd 68b9 3fbd 2a24 44bd
00000370: 1246 acbc 096a b0bc b9f9 ccbb d544 ebbc
00000380: 4fef 04bd ef05 fabc 302b 99bc 16dc 4fbd
00000390: 12b5 37bd d748 0bbd 8031 3abd 6360 0bbd
000003a0: 7930 54bd 1b02 04bd 3e73 24bd 6a1c 10bd
000003b0: a2aa 3bbd 16bf 3cbd bf6e 99bc 3162 40bd
000003c0: dd09 13bd 57b1 1dbd b33d 8fbd de46 21bd
000003d0: ae58 86bd 915d 2abd 9a91 b9bc 8aa4 4fbd
000003e0: fe7b 75bd 72b1 f5bc f626 3dbd 4c11 a7bc
000003f0: 7b11 b6bc 80f6 9dbc 5bda 68bd 768e 2ebd

functional_5_1/lstm_11_1/lstm_cell_1/Cast_1/ReadVariableOp/resource:0 f4 [64, 256]
-0.08297307 -0.026229696 -0.03902874 0.016132813 -0.007925594 -0.09911614 -0.0067865006 -0.12377914
-0.019859593 -0.034249928 -0.060327742 -0.04168991 -0.13538371 -0.071341045 0.102471836 -0.026184045
-0.009384203 0.031282526 -0.073850304 -0.029761497 0.01659219 -0.16163914 0.012763244 0.0379562
0.0068386192 0.03828619 -0.031835347 -0.0045599476 -0.024027752 -0.04306088 -0.050022773 0.056456067
0.017622672 0.066772826 0.0087523125 -0.041331027 0.1049819 -0.033742163 0.06736542 -0.02879523
0.08738156 0.011763248 -0.080496974 -0.03866837 -0.04198693 -0.007962609 -0.06491762 -0.088282175
-0.11322243 0.0766038 -0.059083138 -0.05696318 -0.009592357 -0.100344636 0.063926354 -0.0420641
0.03970968 0.03495248 0.0001276609 0.10446041 0.13644159 0.08028239 0.01791313 0.010445143
-0.042023852 -0.10485228 -0.1523852 -0.11453143 -0.050946303 -0.008194074 -0.037151527 -0.024826093
0.025595866 -0.09340878 0.020977609 -0.001048478 0.08968745 -0.028558725 0.02343116 -0.097495124
0.08390349 -0.03489895 -0.07129749 0.081434295 -0.021127226 -0.17574534 0.005888121 0.08545221
0.05201584 -0.09487643 0.08726459 0.072046585 -0.031157747 0.023898553 -0.044053923 -0.0034383452
0.04082331 0.0255399 0.05254294 -0.08879566 -0.20431067 0.017635651 0.11685831 -0.02976503
0.10609588 -0.07714649 -0.04293522 0.1090132 -0.05490183 0.02747124 -0.003922264 -0.085486695
0.015387916 -0.0127035165 -0.11390224 -0.037929337 -0.04714574 -0.119611405 -0.014613071 -0.029405342
-0.034637816 -0.029586984 -0.009675857 -0.15307018 0.08587072 0.1958231 -0.08577205 -0.029481333
0.024780186 -0.088495545 0.12496876 -0.041872874 0.109339334 0.08704282 0.06888961 -0.01960248
-0.047577545 -0.07140734 0.015361294 -0.024567695 0.06767058 0.073109634 0.09352453 -0.014217107
0.0021710356 0.02253884 -0.01866752 -0.06696042 -0.05086014 -0.032670658 0.1379937 0.0021153828
-0.11192977 0.07852273 5.543088e-05 0.081249274 -0.00026960444 0.10226989 0.011476427 -0.041333854
0.0014150407 -0.045220394 0.0010476968 -0.020464735 0.06354048 0.033535995 0.049423125 -0.029228745
-0.06837535 0.025273928 0.13771659 0.023702106 0.030124314 -0.051122885 -0.02901956 -0.01406778
0.02252154 0.043016396 -0.011792737 -0.035971634 -0.0026107484 -0.056893025 0.016237997 -0.07933916
0.00012644303 -0.05432205 0.052819498 -0.023153262 0.024608048 0.021098725 -0.014857351 -0.081280306
-0.08037358 -0.07021171 -0.11856467 -0.07988697 0.08372006 -0.06625976 -0.095919356 0.0004710496
0.06708856 -0.037084576 0.027611652 0.012512205 -0.041769784 -0.021420104 -0.09909305 0.00896304
-0.03578115 -0.098484024 -0.093323216 -0.08491341 0.04941543 -0.096697085 -0.065848984 -0.020874165
-0.065936185 0.092482604 0.04462405 -0.019471934 -0.049876723 0.08371663 0.01558478 -0.02254787
-0.013860456 0.11229822 -0.069488935 -0.032922905 -0.03641849 -0.04898814 0.010059468 0.05912518
0.043358665 -0.04315708 -0.016026339 0.026287219 0.10407657 0.14105113 -0.030626873 -0.010427489
-0.01936682 -0.13673344 0.007939063 -0.085781015 0.021381449 -0.017231174 -0.042664554 0.043160364
0.02129271 0.039570294 0.0139092505 -0.039285183 0.04759556 0.051794656 -0.08327453 0.07067831
00000000: c9ed a9bd a9df d6bc 9adc 1fbd f628 843c
00000010: 5ada 01bc 67fd cabd 4b61 debb eb7f fdbd
00000020: 96b0 a2bc a749 0cbd 391a 77bd 0ac3 2abd
00000030: 07a2 0abe 411b 92bd c1dc d13d ec7f d6bc
00000040: 33c0 19bc 1b22 003d d43e 97bd 62ce f3bc
00000050: 58ec 873c bb84 25be ed1c 513c f677 1b3d
00000060: 7f16 e03b fbd1 1c3d c865 02bd 9d6b 95bb
00000070: d9d5 c4bc 9b60 30bd aee4 4cbd 7a3e 673d
00000080: 6c5d 903c 31c0 883d dc65 0f3c b94a 29bd
00000090: c000 d73d 3935 0abd e2f6 893d f9e3 ebbc
000000a0: 1af5 b23d a3ba 403c 99db a4bd ba62 1ebd
000000b0: 7dfa 2bbd 9a75 02bc 87f3 84bd 49cd b4bd
000000c0: 29e1 e7bd 74e2 9c3d 2901 72bd 3952 69bd
000000d0: 4329 1dbc 7d81 cdbd d2eb 823d 684b 2cbd
000000e0: 9ea6 223d 552a 0f3d b6dc 0539 57ef d53d
000000f0: 58b7 0b3e 186b a43d 8ebe 923c 1b22 2b3c
00000100: 3421 2cbd cbbc d6bd de0a 1cbe 748f eabd
00000110: 12ad 50bd 7040 06bc 332c 18bd 1760 cbbc
00000120: 6cae d13c 1a4d bfbd 3cd9 ab3c 156d 89ba
00000130: 0eae b73d fdf3 e9bc b4f2 bf3c 86ab c7bd
00000140: 98d5 ab3d 34f2 0ebd 6b04 92bd 06c7 a63d
00000150: 0113 adbc 96f6 33be 24f1 c03b 9101 af3d
00000160: 900e 553d 934e c2bd c7b7 b23d 298d 933d
00000170: 883e ffbc e6c6 c33c e371 34bd dc55 61bb
00000180: 5836 273d 0d39 d13c 4437 573d 80da b5bd
00000190: d136 51be a478 903c 6953 ef3d cbd5 f3bc
000001a0: cc48 d93d fbfe 9dbd d7dc 2fbd 5042 df3d
000001b0: bee0 60bd 5e0b e13c 5686 80bb a613 afbd
000001c0: 991d 7c3c 6922 50bc 9445 e9bd cb5b 1bbd
000001d0: e41b 41bd d3f6 f4bd aa6b 6fbc 79e3 f0bc
000001e0: 62e0 0dbd 6760 f2bc 7c87 1ebc 6ebe 1cbe
000001f0: fddc af3d da85 483e 42a9 afbd d682 f1bc
00000200: d1ff ca3c 273d b5bd 9fef ff3d e482 2bbd
00000210: 4ded df3d 8243 b23d ff15 8d3d 6195 a0bc
00000220: ace0 42bd 033e 92bd f0ad 7b3c 3142 c9bc
00000230: e096 8a3d 81ba 953d ca89 bf3d deee 68bc
00000240: ef47 0e3b 60a3 b83c a0ec 98bc 8b22 89bd
00000250: b952 50bd abd1 05bd 384e 0d3e 3ca2 0a3b
00000260: 6f3b e5bd 86d0 a03d 747e 6838 0566 a63d
00000270: b259 8db9 e072 d13d a007 3c3c b04d 29bd
00000280: e378 b93a 0539 39bd df52 893a a9a5 a7bc
00000290: 8321 823d 0a5d 093d e76f 4a3d 1f71 efbc
000002a0: 6008 8cbd 450b cf3c 9405 0d3e eb2a c23c
000002b0: 44c7 f63c 3b66 51bd 6eba edbc 8c7c 66bc
000002c0: 187f b83c f631 303d 5336 41bc fe56 13bd
000002d0: 1719 2bbb a908 69bd 8c05 853c 927c a2bd
000002e0: cb95 0439 cc80 5ebd 4259 583d e9ab bdbc
000002f0: d196 c93c 3cd7 ac3c 3f6c 73bc 4a76 a6bd
00000300: e79a a4bd 28cb 8fbd 09d2 f2bd c89b a3bd
00000310: 6c75 ab3d 32b3 87bd 5e71 c4bd 35f7 f639
00000320: ba65 893d ffe5 17bd d531 e23c feff 4c3c
00000330: cb16 2bbd 3779 afbc 4cf1 cabd b7d9 123c
00000340: 418f 12bd feb1 c9bd 3e20 bfbd 15e7 adbd
00000350: d567 4a3d 1f09 c6bd d5db 86bd 4c00 abbc
00000360: 8d09 87bd 8567 bd3d b5c7 363d 9b83 9fbc
00000370: 894b 4cbd a073 ab3d 4e57 7f3c 50b6 b8bc
00000380: f716 63bc 9cfc e53d 3750 8ebd 2bda 06bd
00000390: 8e2b 15bd caa7 48bd 78d0 243c 3f2d 723d
000003a0: db98 313d 7ac5 30bd ab49 83bc 4b58 d73c
000003b0: 1926 d53d b56f 103e 35e5 fabc 0fd8 2abc
000003c0: 2aa7 9ebc da03 0cbe d812 023c f5ad afbd
000003d0: 2628 af3c 6428 8dbc 07c1 2ebd ecc8 303d
000003e0: 0d6e ae3c 7614 223d a0e3 633c 80e9 20bd
000003f0: 90f3 423d a226 543d d68b aabd cabf 903d

functional_5_1/lstm_11_1/lstm_cell_1/Cast/ReadVariableOp/resource:0 f4 [128, 256]
0.09702684 -0.13233528 0.056188315 -0.061775707 0.0057022674 -0.050892834 -0.021949718 0.04364869
-0.1332905 0.06328099 -0.00755902 -0.089280896 0.057996023 0.11511151 0.012919431 0.056252934
-0.031097297 0.048250202 0.0053039524 -0.05462911 0.09543102 -0.1361654 -0.13462563 -0.020747539
-0.12687263 -0.10251116 0.064668976 -0.10672212 0.068706974 -0.04594504 -0.14456308 -0.073252104
0.10553704 0.06648098 -0.1048908 -0.072579965 0.06308919 0.07253074 -0.11438552 0.07184596
-0.09228126 0.09302531 -0.031947095 -0.10122582 0.07930358 0.037414793 -0.027422477 -0.10275481
-0.004051993 -0.026996229 0.0061909645 -0.03780607 -0.023737751 -0.021120925 0.015086119 0.09872411
0.0014625369 0.08469496 0.0031729843 -0.118762806 -0.10011146 -0.077427655 0.007743246 0.10053434
-0.09024837 -0.02824939 -0.09575795 0.092598006 0.018487131 -0.052577943 -0.0925853 -0.07616468
1.6797349e-05 -0.020814992 -0.13173291 0.0072475444 0.03980206 0.058950316 -0.08370701 -0.1232318
-0.005998637 0.07883945 -0.021929702 -0.017451452 -0.08924046 -0.06729037 0.077002 -0.050694354
0.08841254 -0.0608156 0.03852112 0.06512073 0.03948276 -0.095838815 -0.032095574 -0.09945202
0.05697905 -0.065192014 -0.12895405 -0.09915076 0.055874303 0.113218345 -0.035337854 -0.14055936
-0.012377692 -0.0011787742 0.048031185 -0.07876462 0.053890083 -0.064587474 -0.12441097 -0.09777868
-0.03214695 0.0825435 0.018396692 0.005137918 -0.07992647 -0.11348726 -0.039714046 -0.027533926
0.046733204 0.07183572 -0.10909779 -0.047905084 0.08709614 0.10580234 -0.11446468 -0.053746533
0.034399897 0.13675064 -0.07657923 -0.06724648 -0.09930423 0.093325056 0.107584275 -0.09166548
-0.08559509 -0.07283676 -0.09777258 0.05732055 -0.038137995 0.07753255 0.109880485 0.030411208
-0.15220009 -0.014903331 0.04027662 -0.03274062 -0.0039816555 0.09300427 0.060994904 0.059075728
-0.11938677 0.03326868 -0.038326 0.11454263 -0.0045133606 0.10699245 -0.014748446 -0.05464304
-0.0067609097 0.032770537 -0.038713478 0.033545822 -0.057738185 0.03195783 0.046845444 0.099031635
-0.116655186 -0.038841773 0.040928666 0.023879725 -0.10128851 -0.109045655 -0.03150915 0.13051233
0.014646016 -0.061113406 -0.017061705 0.09857324 -0.10894403 0.07335595 -0.0072027748 -0.08533094
0.03223202 -0.11000878 0.081770994 -0.026754316 -0.08284285 0.016500287 -0.0270055 0.07707146
-0.10366634 -0.07216523 -0.09030562 -0.07147535 -0.10486989 -0.099832766 0.016974771 0.031118847
-0.042702094 -0.039306063 -0.08704048 -0.035354197 -0.115536556 -0.008015049 0.11762917 0.06588101
0.05607327 -0.09231945 -0.15012828 0.08212008 0.07463771 -0.11117702 0.00073889986 0.08614999
-0.025898566 0.0826567 -0.00043971604 0.09347301 -0.03750335 -0.0728848 -0.028227556 0.007507934
0.0827707 -0.12919381 -0.07001773 0.06640723 0.0149645535 0.07760002 0.053035684 -0.095420554
-0.039170213 -0.056892402 -0.06662005 -0.060822055 -0.09793786 0.0696247 0.04221404 -0.09761451
-0.09207252 0.01756858 -0.10193615 0.016218489 0.048946235 0.024570424 0.13878061 -0.05327579
-0.036940157 0.043090258 0.016984157 0.0769125 -0.027885124 0.023708293 0.09835106 0.11405437
00000000: 02b6 c63d e682 07be b825 663d 8608 7dbd
00000010: 16da ba3b 0175 50bd e5cf b3bc f8c8 323d
00000020: 4e7d 08be 7799 813d a8b1 f7bb e7d8 b6bd
00000030: 3d8d 6d3d 95bf eb3d 05ac 533c 7a69 663d
00000040: c2bf febc 01a2 453d c7cc ad3b c6c2 5fbd
00000050: 5771 c33d f16e 0bbe 4ddb 09be bef6 a9bc
00000060: e6ea 01be 5ff1 d1bd 2b71 843d 2091 dabd
00000070: 3eb6 8c3d de30 3cbd 5808 14be 3305 96bd
00000080: ce23 d83d 2e27 883d fdd0 d6bd cea4 94bd
00000090: e834 813d ff8a 943d f542 eabd fa23 933d
000000a0: f5fd bcbd 0e84 be3d f5da 02bd 7c4f cfbd
000000b0: ea69 a23d 4140 193d 1aa5 e0bc 1d71 d2bd
000000c0: 95c6 84bb 3227 ddbc 93dd ca3b 8ada 1abd
000000d0: ac75 c2bc ca05 adbc c52b 773c de2f ca3d
000000e0: 98b2 bf3a 8d74 ad3d d8f1 4f3b ea39 f3bd
000000f0: 3d07 cdbd 6492 9ebd 0ebb fd3b f3e4 cd3d
00000100: 23d4 b8bd 446b e7bc be1c c4bd 06a4 bd3d
00000110: 5372 973c f85b 57bd 5d9d bdbd 3afc 9bbd
00000120: 08e8 8c37 3484 aabc fee4 06be cf7c ed3b
00000130: 7c07 233d e375 713d 956e abbd f460 fcbd
00000140: 3790 c4bb 9476 a13d eba5 b3bc 59f6 8ebc
00000150: b4c3 b6bd 89cf 89bd 39b3 9d3d e2a4 4fbd
00000160: a211 b53d c719 79bd 52c8 1d3d 045e 853d
00000170: adb8 213d 2447 c4bd a676 03bd 80ad cbbd
00000180: dd62 693d 6483 85bd 880c 04be 8e0f cbbd
00000190: 74dc 643d 05df e73d 6dbe 10bd cbee 0fbe
000001a0: cecb 4abc 1981 9aba 59bc 443d 584f a1bd
000001b0: d9bb 5c3d 7046 84bd 2ecb febd 3040 c8bd
000001c0: 85ac 03bd 910c a93d a9b4 963c fb5b a83b
000001d0: 7db0 a3bd 026c e8bd 32ab 22bd d48e e1bc
000001e0: 516b 3f3d 9b1e 933d aa6e dfbd 1f38 44bd
000001f0: 765f b23d e6ae d83d 756c eabd 5325 5cbd
00000200: e8e6 0c3d 5c08 0c3e 92d5 9cbd 86b8 89bd
00000210: 0460 cbbd 3521 bf3d 2555 dc3d 1cbb bbbd
00000220: 7b4c afbd 702b 95bd fe3c c8bd f4c8 6a3d
00000230: 9636 1cbd 63c9 9e3d 0509 e13d ed20 f93c
00000240: 57da 1bbe 1a2d 74bc 19f9 243d 071b 06bd
00000250: 8c78 82bb 0679 be3d cbd5 793d 64f9 713d
00000260: 0d81 f4bd bd44 083d b9fb 1cbd 5495 ea3d
00000270: d0e4 93bb dc1e db3d 77a3 71bc 61d1 5fbd
00000280: 9f8a ddbb 663a 063d 0692 1ebd 5867 093d
00000290: e07e 6cbd 37e6 023d 02e1 3f3d 19d1 ca3d
000002a0: eae8 eebd 8d18 1fbd d1a4 273d 6a9f c33c
000002b0: 5a70 cfbd 5453 dfbd bd0f 01bd 06a5 053e
000002c0: d8f5 6f3c 0d52 7abd fdc4 8bbc c4e0 c93d
000002d0: 0c1e dfbd a53b 963d 4105 ecbb fdc1 aebd
000002e0: b905 043d 494c e1bd 8d77 a73d de2b dbbc
000002f0: 83a9 a9bd 9c2b 873c a33a ddbc a4d7 9d3d
00000300: 054f d4bd 5dcb 93bd 27f2 b8bd ab61 92bd
00000310: 06c6 d6bd 1f75 ccbd ad0e 8b3c f4ec fe3c
00000320: 64e8 2ebd 65ff 20bd 4742 b2bd 90cf 10bd
00000330: 6e9e ecbd 8d51 03bc 90e7 f03d 9fec 863d
00000340: 16ad 653d fb11 bdbd 3abb 19be 932e a83d
00000350: a8db 983d c7b0 e3bd bbb2 413a 686f b03d
00000360: 3b29 d4bc ea47 a93d b089 e6b9 c76e bf3d
00000370: 1d9d 19bd a044 95bd 7a3d e7bc 1d05 f63b
00000380: af83 a93d 624b 04be 7565 8fbd 8400 883d
00000390: e32d 753c c2ec 9e3d f23b 593d da6b c3bd
000003a0: f270 20bd 0208 69bd 1870 88bd 8c20 79bd
000003b0: a593 c8bd 6597 8e3d a1e8 2c3d 1eea c7bd
000003c0: 8490 bcbd fceb 8f3c e6c3 d0bd a3dc 843c
000003d0: d97b 483d ea47 c93c 811c 0e3e b737 5abd
000003e0: 904e 17bd 697f 303d 5c22 8b3c 4d84 9d3d
000003f0: 586f e4bc e537 c23c 486c c93d 5695 e93d

functional_5_1/lstm_10_1/lstm_cell_1/add_1/ReadVariableOp/resource:0 f4 [512]
-0.040337916 -0.053676818 -0.042250138 -0.043738287 -0.036421247 -0.053799465 -0.027283842 -0.030250335
-0.028637819 -0.02540615 -0.035657853 -0.0823871 -0.05561182 -0.043445915 -0.04168149 -0.05374062
-0.02992913 -0.024483368 -0.045738455 -0.054577302 -0.06209216 -0.07772963 -0.04916946 -0.032696944
-0.06135614 -0.059616685 -0.04446759 -0.043663837 -0.0320116 -0.045397542 -0.025919043 -0.025442572
-0.059099734 -0.045734793 -0.053184483 -0.03515292 -0.031969048 -0.061144512 -0.06256826 -0.029192034
-0.029299565 -0.059952702 -0.032570127 -0.044591542 -0.061297517 -0.02057662 -0.014575764 -0.0570394
-0.03946545 -0.07413009 -0.037218798 -0.033352185 -0.059977207 -0.069257304 -0.05409998 -0.038471017
-0.02719772 -0.045127086 -0.048840713 -0.02428816 -0.05176896 -0.056752287 -0.039720714 -0.049648426
-0.03675192 -0.067604534 -0.06959207 -0.028722918 -0.045579027 -0.0698918 -0.06777017 -0.054723058
-0.053853277 -0.03500062 -0.05263038 -0.020127637 -0.057683043 -0.034360535 -0.040131904 -0.067440405
-0.035125103 -0.062057436 -0.029288566 -0.047218177 -0.075560525 -0.035126984 -0.04118038 -0.059074044
-0.047752842 -0.053720284 -0.046427984 -0.040770028 -0.042565417 -0.028732827 -0.033601455 -0.054978397
-0.049638342 -0.023865389 -0.04915967 -0.03471839 -0.057641078 -0.030770231 -0.05504447 -0.03314351
-0.04294021 -0.059447173 -0.05155042 -0.023370847 -0.049683064 -0.044194724 -0.044839192 -0.024305137
-0.05283842 -0.0458257 -0.022213275 -0.064159855 -0.060655076 -0.033075314 -0.061858308 -0.029388817
-0.06120985 -0.05621207 -0.059280954 -0.045353822 -0.048102267 -0.04585498 -0.02862503 -0.032068472
0.9658111 0.93918115 0.95399904 0.95572335 0.97056586 0.94471717 0.9683842 0.95989877
0.9686641 0.9776566 0.9652843 0.91818106 0.94686174 0.9565613 0.95611584 0.9438441
0.9642716 0.9874554 0.95502245 0.9546718 0.9345945 0.93636584 0.9477995 0.95819193
0.9499238 0.94722253 0.95917696 0.9666777 0.96781003 0.95713365 0.95498675 0.98125094
0.93757933 0.95340073 0.9506004 0.9701171 0.96147 0.934275 0.9403954 0.9737276
0.9706195 0.94367415 0.9692881 0.9586805 0.9485189 0.97687757 0.9842271 0.9469093
0.95846045 0.93193865 0.96828884 0.9663504 0.9379114 0.9311422 0.93190104 0.9759444
0.9739694 0.9607078 0.9510088 0.9843752 0.9573854 0.9539425 0.95929337 0.9581745
0.96392107 0.92822653 0.9381777 0.95080364 0.96409446 0.9306144 0.938969 0.94647926
0.94476056 0.9709383 0.9436069 0.9766213 0.9377578 0.96783835 0.94968045 0.93248194
0.9574512 0.93916386 0.972184 0.9457536 0.94030154 0.975196 0.96116537 0.94574577
0.94128364 0.95738655 0.9646471 0.9303554 0.96151084 0.97494084 0.9730618 0.93735045
0.9386326 0.9740705 0.9586256 0.964272 0.94556564 0.96406364 0.9509897 0.95287174
0.95911294 0.93834853 0.9427713 0.97834504 0.95566833 0.95528847 0.9728576 0.96309125
0.95203567 0.9580957 0.96250254 0.94259834 0.94809365 0.9656419 0.9375898 0.96726733
0.9384441 0.9558726 0.95106643 0.94781554 0.9538218 0.94727224 0.9698107 0.98280245
00000000: 5f39 25bd 39dc 5bbd 7b0e 2dbd eb26 33bd
00000010: 722e 15bd d45c 5cbd 5d82 dfbc 8dcf f7bc
00000020: dc99 eabc 8f20 d0bc f80d 12bd 91ba a8bd
00000030: 38c9 63bd 58f4 31bd 36ba 2abd 201f 5cbd
00000040: ef2d f5bc 5891 c8bc 3f58 3bbd 738c 5fbd
00000050: 5954 7ebd b630 9fbd ea65 49bd 3bed 05bd
00000060: 9350 7bbd a030 74bd a623 36bd dad8 32bd
00000070: 981e 03bd c6f2 39bd 2c54 d4bc f16c d0bc
00000080: 9012 72bd 6854 3bbd f9d7 59bd 82fc 0fbd
00000090: faf1 02bd ab72 7abd ca23 80bd 2224 efbc
000000a0: a405 f0bc f790 75bd 4168 05bd 9fa5 36bd
000000b0: 1b13 7bbd 4d90 a8bc 2fcf 6ebc 25a2 69bd
000000c0: 86a6 21bd 84d1 97bd bd72 18bd 4d9c 08bd
000000d0: a9aa 75bd c6d6 8dbd f197 5dbd c993 1dbd
000000e0: c1cd debc 2ed7 38bd 330d 48bd f7f7 c6bc
000000f0: b00b 54bd 1675 68bd 30b2 22bd 265c 4bbd
00000100: 2e89 16bd 3f74 8abd 4a86 8ebd 534c ebbc
00000110: 13b1 3abd 6f23 8fbd 16cb 8abd 4925 60bd
00000120: 4195 5cbd cf5c 0fbd f492 57bd b7e2 a4bc
00000130: 0e45 6cbd a2bd 0cbd 5a61 24bd 321e 8abd
00000140: 57df 0fbd f02f 7ebd 93ee efbc d967 41bd
00000150: 7abf 9abd 50e1 0fbd c2ac 28bd a0f7 71bd
00000160: 7c98 43bd cd09 5cbd 452b 3ebd 79fe 26bd
00000170: 1359 2ebd 1b61 ebbc aea1 09bd 0731 61bd
00000180: 9351 4bbd 5981 c3bc a65b 49bd df34 0ebd
00000190: 0d19 6cbd da11 fcbc 4f76 61bd 7dc1 07bd
000001a0: 13e2 2fbd e17e 73bd 8826 53bd 3874 bfbc
000001b0: 7880 4bbd 8705 35bd 4da9 37bd 911b c7bc
000001c0: 196d 58bd bbb3 3bbd 9df8 b5bc 3e66 83bd
000001d0: 7571 78bd fb79 07bd 235f 7dbd d1c0 f0bc
000001e0: 2eb7 7abd a13e 66bd 96d0 72bd eec4 39bd
000001f0: e206 45bd 6ed2 3bbd 0a7f eabc 3b5a 03bd
00000200: 653f 773f 2d6e 703f 4839 743f 49aa 743f
00000210: 0177 783f fcd8 713f 07e8 773f edbb 753f
00000220: 5ffa 773f b447 7a3f df1c 773f ea0d 6b3f
00000230: 8865 723f 34e1 743f 02c4 743f c49f 713f
00000240: 81da 763f e1c9 7c3f 5a7c 743f 5f65 743f
00000250: 9641 6f3f acb5 6f3f fda2 723f 114c 753f
00000260: 352e 733f 2d7d 723f 9f8c 753f 3178 773f
00000270: 66c2 773f b606 753f 037a 743f 4333 7b3f
00000280: 3305 703f 1212 743f 8c5a 733f 9859 783f
00000290: e622 763f a52c 6f3f c1bd 703f 3646 793f
000002a0: 857a 783f a194 713f 4423 783f 166c 753f
000002b0: 22d2 723f a614 7a3f 4ff6 7b3f a668 723f
000002c0: aa5d 753f 8893 6e3f c7e1 773f bd62 773f
000002d0: f61a 703f 565f 6e3f 1191 6e3f 7ed7 793f
000002e0: 0f56 793f f2f0 753f 5075 733f 0300 7c3f
000002f0: 3617 753f 9335 743f 4094 753f ed4a 753f
00000300: 88c3 763f 41a0 6d3f 6a2c 703f de67 733f
00000310: e5ce 763f bf3c 6e3f 4660 703f 774c 723f
00000320: d4db 713f 6a8f 783f 3990 713f db03 7a3f
00000330: e510 703f 41c4 773f 421e 733f 23b7 6e3f
00000340: 861b 753f 0b6d 703f 0de1 783f e81c 723f
00000350: 9ab7 703f 72a6 793f ef0e 763f 651c 723f
00000360: f7f7 703f 4917 753f 1df3 763f c62b 6e3f
00000370: 9325 763f b995 793f 941a 793f 33f6 6f3f
00000380: 3a4a 703f af5c 793f 7d68 753f 88da 763f
00000390: 9710 723f e0cc 763f 1074 733f 67ef 733f
000003a0: 6d88 753f 9c37 703f 7659 713f d274 7a3f
000003b0: aea6 743f c98d 743f 320d 793f 268d 763f
000003c0: 9cb8 733f c345 753f 9166 763f 204e 713f
000003d0: 44b6 723f 4f34 773f e305 703f d59e 773f
000003e0: df3d 703f 11b4 743f 1779 733f 0aa4 723f
000003f0: aa2d 743f 6f80 723f 8445 783f f198 7b3f

functional_5_1/lstm_10_1/lstm_cell_1/Cast_1/ReadVariableOp/resource:0 f4 [128, 512]
0.05463832 -0.05749517 -0.026062658 -0.08177045 -0.052420646 -0.025877824 0.013660135 0.0028821419
0.027783683 -0.06463911 0.038590774 0.030316243 -0.03415304 0.026963862 -0.06152483 0.020690799
-0.014778474 -0.017548645 0.010228838 0.010035684 -0.0030052713 -0.0009868672 0.005919608 -0.040649492
-0.037035465 -0.0033618691 -0.009237031 0.05365593 0.01039408 0.049648445 0.06552084 -0.042721882
0.0066541103 -0.03949502 -0.002469249 0.019679723 0.052294236 -0.00511376 -0.07533727 -0.050506745
0.012500207 -0.036508974 -0.008975109 -0.031056834 -0.018955037 -0.053409994 -0.003076481 -0.054276038
-0.04237578 -0.01483801 0.0042854585 -0.00275328 0.016895846 -0.028861646 -0.02373213 -0.019049669
-0.029775362 0.014793292 0.04403119 0.054238647 -0.011161451 -0.047092017 0.0010234083 -0.060879458
0.033142474 -0.10010674 -0.058002025 -0.040678706 -0.034973323 -0.008640678 0.0063096997 0.0099684
0.025109628 -0.017512146 0.07120245 0.049768057 -0.017057547 -0.0057505183 -0.08072814 0.039117508
-0.034657106 0.0029375013 0.010011225 -0.05199673 -0.03191718 -0.05344247 -0.0052320436 -0.00095328764
-0.07637783 0.025877567 -0.00016744385 0.042508647 0.013306826 -0.002862238 -0.034237903 -0.07335922
-0.07306498 -0.017266523 0.07283423 -0.08602967 -0.00060499366 -0.072934695 0.018562922 0.007585595
0.04536005 -0.011230573 0.047378007 -0.055575036 0.010821017 -0.016722688 0.025222808 0.08200205
-0.0053305454 -0.04166199 0.02366023 0.04205632 -0.06352831 -0.037110317 0.046914414 -0.019391198
0.023194999 0.03461408 0.020557264 -0.015417522 0.0011724092 -0.020254625 -0.038361203 0.026240513
-0.023505153 0.022506293 -0.075116634 0.030226128 -0.024691865 -0.043590296 -0.021242851 -0.029117756
0.024857376 0.09802607 0.013894967 -0.07173252 -0.009601196 -0.051159807 0.07975765 -0.15569463
-0.158002 -0.06500601 -0.003979513 -0.024133988 0.013313648 -0.07244305 0.025287133 0.08124877
0.012835078 -0.03692267 0.06601351 0.043438934 -0.034320775 0.023319738 -0.014091781 0.04742391
-0.0747561 0.10082651 -0.058815192 0.04638692 0.025830355 -0.0019507759 -0.08003507 -0.076555006
-0.0030382082 0.0064376057 -0.08363738 -0.034936376 -0.055436432 -0.02437649 -0.011581402 -0.046431847
0.02111116 0.046589293 -0.05974239 0.05109798 -0.068433456 -0.060095876 -0.021688167 -0.027494462
-0.010060804 0.024832673 0.04532049 0.020340344 -0.0016174465 -0.05522311 -0.03760039 -0.09015653
0.025409533 0.040119763 -0.07017919 -0.044872977 0.02264126 -0.048937127 -0.015008149 0.008387014
-0.040679567 0.061392955 0.0708855 -0.004941173 0.027647689 -0.11194049 -0.087344006 -0.099756554
0.009405687 -0.018530002 -0.06855135 -0.043003835 0.014775207 0.095901705 -0.023864357 -0.01991367
0.028568672 0.0064384066 -0.050570026 -0.03393898 -0.047680672 -0.05066936 -0.098534256 0.056865986
-0.05297768 0.062867984 0.07282262 -0.0029580283 -0.02413 -0.024950907 -0.0020677128 0.062489305
0.059412822 -0.0021412086 0.036646046 0.05180077 0.04879073 0.03122897 -0.07394621 0.039547503
0.073417135 -0.004770599 0.004888449 0.0450013 -0.003873509 -0.04853836 -0.051417198 -0.041821998
-0.037538145 -0.011538841 0.021719202 -0.032162465 -0.017288713 -0.038019374 0.04148963 0.006805881
00000000: 6ecc 5f3d 0e80 6bbd 5b81 d5bc 4477 a7bd
00000010: 08b7 56bd bbfd d3bc c2ce 5f3c 51e2 3c3b
00000020: 9b9a e33c 8261 84bd 5c11 1e3d c559 f83c
00000030: 0fe4 0bbd 51e3 dc3c 7601 7cbd c07f a93c
00000040: 6a21 72bc 2dc2 8fbc db96 273c b66c 243c
00000050: 16f4 44bb c559 81ba 45f9 c13b 1580 26bd
00000060: 80b2 17bd ce52 5cbb eb56 17bc 52c6 5b3d
00000070: ee4b 2a3c 2b5c 4b3d ca2f 863d 24fd 2ebd
00000080: b90a da3b 88c5 21bd 20d3 21bb 5f37 a13c
00000090: 7b32 563d 5491 a7bb 6d4a 9abd 29e0 4ebd
000000a0: abcd 4c3c 6f8a 15bd 560c 13bc e76a febc
000000b0: 9847 9bbc 70c4 5abd c99e 49bb 8d50 5ebd
000000c0: 3a92 2dbd 201b 73bc 086d 8c3b 6070 34bb
000000d0: 2869 8a3c 426f ecbc e269 c2bc 0d0e 9cbc
000000e0: 76eb f3bc 905f 723c 0d5a 343d 5829 5e3d
000000f0: 85de 36bc 8fe3 40bd e223 863a bd5c 79bd
00000100: 67c0 073d c304 cdbd 8893 6dbd b79e 26bd
00000110: 3040 0fbd a191 0dbc 99c1 ce3b 8052 233c
00000120: b5b2 cd3c a275 8fbc 97d2 913d 97d9 4b3d
00000130: 45bc 8bbc d86e bcbb cc54 a5bd ae39 203d
00000140: 9cf4 0dbd 1883 403b 1f06 243c 86fa 54bd
00000150: 97bb 02bd 7ee6 5abd 9071 abbb 0de6 79ba
00000160: fb6b 9cbd 31fd d33c de93 2fb9 8c1d 2e3d
00000170: e004 5a3c 6394 3bbb 0b3d 0cbd 5c3d 96bd
00000180: 18a3 95bd 8672 8dbc 1d2a 953d 5330 b0bd
00000190: 7098 1eba c95e 95bd 4511 983c 9590 f83b
000001a0: 76cb 393d 7000 38bc 710f 423d a6a2 63bd
000001b0: a34a 313c 05fe 88bc 10a0 ce3c b1f0 a73d
000001c0: dbab aebb c3a5 2abd 19d3 c13c 3f43 2c3d
000001d0: 211b 82bd fd00 18bd 5429 403d 4ada 9ebc
000001e0: 7003 be3c 7ec7 0d3d b567 a83c c699 7cbc
000001f0: 86ab 993a 07ed a5bc a320 1dbd 58f6 d63c
00000200: e18d c0bc 1e5f b83c c0d6 99bd c99c f73c
00000210: 9846 cabc bd8b 32bd 7d05 aebc 5c88 eebc
00000220: b2a1 cb3c e4c1 c83d b7a7 633c 80e8 92bd
00000230: 564e 1dbc f28c 51bd fb57 a33d 6a6e 1fbe
00000240: 47cb 21be df21 85bd 9366 82bb a4b4 c5bc
00000250: 7d21 5a3c 065d 94bd f626 cf3c c165 a63d
00000260: 384a 523c 3a3c 17bd 1732 873d 06ed 313d
00000270: f193 0cbd 0909 bf3c 37e1 66bc 933f 423d
00000280: ba19 99bd 217e ce3d 33e8 70bd 3600 3e3d
00000290: 2e9a d33c 2db1 ffba 6de9 a3bd dfc8 9cbd
000002a0: ad1c 47bb 8df2 d23b 134a abbd 7219 0fbd
000002b0: 5011 63bd 34b1 c7bc ecbf 3dbc 522f 3ebd
000002c0: 50f1 ac3c 6ad4 3e3d 70b4 74bd 1e4c 513d
000002d0: d726 8cbd 1827 76bd 62ab b1bc 113c e1bc
000002e0: 12d6 24bc e46d cb3c faa1 393d cba0 a63c
000002f0: 8000 d4ba a131 62bd de02 1abd fda3 b8bd
00000300: a727 d03c 9f54 243d 1bba 8fbd bacc 37bd
00000310: 2a7a b93c 4c72 48bd bde4 75bc b069 093c
00000320: 9e9f 26bd 2e77 7b3d 6b2c 913d 90e9 a1bb
00000330: 687d e23c 0e41 e5bd 6ae1 b2bd 2a4d ccbd
00000340: 501a 1a3c 3bcc 97bc a664 8cbd ca24 30bd
00000350: b613 723c 1d68 c43d 2f7f c3bc fe21 a3bc
00000360: d908 ea3c 45f9 d23b 8422 4fbd 9a03 0bbd
00000370: cf4c 43bd ad8a 4fbd 54cc c9bd 4fec 683d
00000380: 20ff 58bd eec0 803d 0724 953d 7bdb 41bb
00000390: 47ac c5bc d865 ccbc 7782 07bb c9f4 7f3d
000003a0: dc5a 733d 8553 0cbb 2a1a 163d 0b2d 543d
000003b0: cad8 473d e6d3 ff3c 1c71 97bd 90fc 213d
000003c0: b95b 963d af52 9cbb 482f a03b 4853 383d
000003d0: b2da 7dbb 29d0 46bd d79a 52bd 8b4d 2bbd
000003e0: 99c1 19bd 680d 3dbc 78ec b13c cabc 03bd
000003f0: 0fa1 8dbc 34ba 1bbd 08f1 293d de03 df3b

functional_5_1/lstm_10_1/lstm_cell_1/Cast/ReadVariableOp/resource:0 f4 [1, 512]
0.06784016 -0.15451597 -0.04289246 0.04480925 0.10768833 0.059211314 -0.029778767 -0.03668943
-0.011801344 0.0021858101 0.0065812487 0.11223251 0.054553207 -0.037365437 -0.03480871 0.044694707
-0.009237268 -0.053857893 -0.069787055 0.02706367 -0.018447597 -0.027720017 -0.023150349 -0.08666797
0.020909168 -0.12643342 -0.025244845 0.053216342 -0.07763642 -0.022585664 0.1253685 -0.092229374
0.029200114 0.006567099 0.105605796 0.07887754 -0.058870595 -0.01364427 -0.0031556278 0.021925323
0.012903066 0.06576605 -0.109579735 -0.089292236 -0.09475019 0.060249936 0.10131732 0.020688448
-0.015744576 -0.08632692 0.016708387 -0.096094996 -0.001084271 -0.045452345 -0.10036667 -0.0021901745
0.105332576 0.09622761 0.06232466 -0.10543258 0.11089126 -0.062894404 0.09311132 0.0056988467
-0.075915 -0.03265921 -0.062444307 0.1057978 -0.030992076 0.07342167 -0.015015632 0.05591283
-0.045895744 -0.1154777 0.089311905 0.07826018 -0.08787204 -0.053717148 -0.0787741 -0.033066753
0.08529681 -0.024879012 -0.101705685 0.040874068 0.06544767 -0.04073322 -0.07537304 0.039731547
-0.05942454 0.019570015 -0.06348103 0.011177415 0.012002035 -0.038125776 -0.015344113 0.11885201
0.070972115 -0.06512685 0.064936556 0.0120600285 0.031356815 0.052550703 0.008955642 -0.049100928
-0.12122921 0.037753586 0.103560895 -0.09299396 0.0785734 0.08670492 -0.07012576 -0.011457788
0.12792267 0.06814458 0.0012386449 0.08001474 -0.09359818 -0.039418787 -0.07401939 0.059573393
0.0075030564 -0.11759305 -0.08315366 0.05100826 0.027837977 -0.041231725 0.06917695 0.027810669
0.039251514 0.026376491 -0.064833656 0.05547406 0.115464315 0.038205396 -0.023164155 0.046636976
0.046971712 -0.05105204 -0.08683036 -0.070388466 -0.05937907 -0.07642319 -0.03714878 -0.06740001
-0.03498469 -0.12915698 0.02558286 -0.063882306 0.004302211 -0.08383036 -0.06294276 -0.052483182
-0.115172654 0.08112329 0.05628876 -0.076156825 -0.048051998 -0.03827107 -0.011446673 0.04373231
-0.06327 -0.08979587 -0.024844706 -0.018080033 0.055318147 -0.14424853 -0.07125926 0.047055192
0.10621345 0.063555844 0.04797449 0.11047128 0.11132442 0.035339557 -0.06373962 -0.090824924
-0.07359894 0.059790533 -0.051064033 -0.08876985 -0.0014462349 0.0957592 0.06984028 0.0053172805
-0.084642485 0.0033187007 -0.08051826 0.07119011 -0.06273555 -0.03430954 -0.10992818 -0.042722184
0.06347753 -0.09622682 -0.09490583 0.007985977 -0.060506348 -0.08811488 -0.11637268 -0.09881559
-0.13956256 -0.0067560123 0.048475757 0.014070655 0.1040527 -0.020797102 0.036946002 -0.07142813
0.023987353 -0.1148132 0.069618024 0.08171793 -0.045072675 -0.091141105 -0.0552514 0.05204131
-0.03941426 0.050078154 0.03517933 0.05971376 0.070807755 0.07407551 -0.061179552 -0.11613957
0.052028444 -0.10812454 -0.07718185 0.043266 0.07489046 -0.0938839 -0.057798598 0.09884437
-0.058053184 0.052338462 -0.027937092 0.019835392 0.0659067 0.004452917 0.06559381 0.07801345
0.1138777 -0.020144498 -0.04525311 -0.008337592 0.0054867836 0.0405135 -0.03238977 0.10917685
-0.022476027 -0.050342083 -0.08622357 -0.09279731 0.06743518 -0.047072764 -0.092546366 -0.030466292
00000000: c8ef 8a3d 6f39 1ebe 01b0 2fbd e789 373d
00000010: b38b dc3d 9087 723d 9af2 f3bc a847 16bd
00000020: 6d5a 41bc cf3f 0f3b 84a7 d73b 28da e53d
00000030: 2f73 5f3d 800c 19bd 9493 0ebd cc11 373d
00000040: e957 17bc 189a 5cbd 84ec 8ebd a1b4 dd3c
00000050: 6a1f 97bc 1715 e3bc cda5 bdbc fa7e b1bd
00000060: b449 ab3c c377 01be 47ce cebc 61f9 593d
00000070: d8ff 9ebd 9205 b9bc 9a60 003e c1e2 bcbd
00000080: 1435 ef3c d230 d73b da47 d83d 8c8a a13d
00000090: 4b22 71bd 378c 5fbc a6ce 4ebb bc9c b33c
000000a0: 6267 533c 5ab0 863d 576b e0bd d9de b6bd
000000b0: 630c c2bd a3c8 763d 747f cf3d d27a a93c
000000c0: c5fa 80bc 2bcc b0bd 07e0 883c 74cd c4bd
000000d0: 191e 8eba 3d2c 3abd 0a8d cdbd 0889 0fbb
000000e0: 9bb8 d73d fb12 c53d 2548 7f3d 09ed d7bd
000000f0: f51a e33d c8ce 80bd 26b1 be3d 64bd ba3b
00000100: 5379 9bbd aac5 05bd 9ac5 7fbd 84ac d83d
00000110: 18e3 fdbc 1a5e 963d 2004 76bc da04 653d
00000120: 2dfd 3bbd 937f ecbd 29e9 b63d e046 a03d
00000130: 42f6 b3bd 8306 5cbd 5154 a1bd 0171 07bd
00000140: 18b0 ae3d 12cf cbbc 124b d0bd 916b 273d
00000150: 6e09 863d e0d7 26bd 2e5d 9abd 8cbd 223d
00000160: 2567 73bd 4c51 a03c 5802 82bd 7a21 373c
00000170: 2fa4 443c c629 1cbd e065 7bbc af68 f33d
00000180: d459 913d 3a61 85bd 75fd 843d 6d97 453c
00000190: 0170 003d 683f 573d afba 123c 0e1e 49bd
000001a0: 0547 f8bd 81a3 1a3d bc17 d43d 9e73 bebd
000001b0: 17eb a03d 5992 b13d 189e 8fbd 72b9 3bbc
000001c0: 29fe 023e 638f 8b3d 075a a23a c5de a33d
000001d0: 67b0 bfbd 9875 21bd 7a97 97bd 3b03 743d
000001e0: 33dc f53b a0d4 f0bd 774c aabd 0aee 503d
000001f0: 780c e43c 99e2 28bd a5ac 8d3d 33d3 e33c
00000200: 32c6 203d 8313 d83c 82c7 84bd c538 633d
00000210: 8e78 ec3d 437d 1c3d c1c2 bdbc 6a06 3f3d
00000220: 6965 403d f21b 51bd 1ed4 b1bd d427 90bd
00000230: 7837 73bd c383 9cbd 5229 18bd 0409 8abd
00000240: 1b4c 0fbd ba41 04be 2593 d13c bad4 82bd
00000250: 90f9 8c3b 40af abbd 22e8 80bd 9bf8 56bd
00000260: a4df ebbd f823 a63d 0b8f 663d 1cf8 9bbd
00000270: 2cd2 44bd 20c2 1cbd d48a 3bbc a720 333d
00000280: b493 81bd e6e6 b7bd 2087 cbbc 941c 94bc
00000290: 4895 623d e3b5 13be 60f0 91bd f2bc 403d
000002a0: 7086 d93d 9129 823d e680 443d c43e e23d
000002b0: 0ffe e33d 36c0 103d eb89 82bd 6b02 babd
000002c0: 0bbb 96bd ebe6 743d 8528 51bd f8cc b5bd
000002d0: 978f bdba 661d c43d 6c08 8f3d 953c ae3b
000002e0: 0a59 adbd 8f7e 593b c2e6 a4bd 1fcc 913d
000002f0: 7f7b 80bd 2988 0cbd 0722 e1bd 75fd 2ebd
00000300: 8200 823d 9112 c5bd fd5d c2bd 9ed7 023c
00000310: 81d5 77bd 9375 b4bd cd54 eebd d45f cabd
00000320: 7de9 0ebe 8a61 ddbb 848e 463d 9b88 663c
00000330: 9519 d53d af5e aabc b154 173d e948 92bd
00000340: 2081 c43c 2f23 ebbd e593 8e3d bb5b a73d
00000350: 209e 38bd 30a8 babd 4b4f 62bd 4529 553d
00000360: d970 21bd c01e 4d3d 3318 103d 6a96 743d
00000370: a803 913d e7b4 973d 6997 7abd 95da edbd
00000380: c71b 553d 6670 ddbd 8511 9ebd b037 313d
00000390: 2b60 993d 3446 c0bd 39be 6cbd eb6e ca3d
000003a0: 2dc9 6dbd db60 563d 54dc e4bc d57d a23c
000003b0: 18fa 863d c6e9 913b 0c56 863d 84c5 9f3d
000003c0: b638 e93d 1306 a5bc 535b 39bd 659a 08bc
000003d0: 7aca b33b 7cf1 253d 23ab 04bd 1d98 df3d
000003e0: a51f b8bc 8033 4ebd fc95 b0bd 840c bebd
000003f0: 751b 8a3d 5fcf 40bd f388 bdbd 7294 f9bc

functional_5_1/dense_11_1/Cast/ReadVariableOp:0 f4 [64, 2]
0.045699924 -0.091292396 -0.16962752 -0.14623104 -0.14713556 0.09003617 0.19415846 -0.04860479
0.2523717 0.23871513 0.043820694 -0.2593082 0.094710484 -0.21854292 0.09116273 0.20330805
0.055986524 -0.15459925 -0.114716254 -0.18050559 0.045337792 0.062342 0.112467766 0.13444862
0.19737306 0.20055112 -0.29189226 -0.2819212 -0.10693246 -0.14401287 0.0930379 -0.2574152
0.1860095 -0.17101893 -0.275856 -0.13626266 -0.14091225 0.14348625 0.243502 -0.2254688
0.23956461 -0.18389624 0.069261655 0.19331266 0.025211457 0.24741527 -0.08637633 0.10877065
0.1568018 -0.041042984 0.21429546 0.21580333 0.061196074 0.2299415 0.2268342 -0.25812984
-0.16429375 -0.22448887 0.034952097 0.0820459 -0.23012505 -0.29866263 -0.09340356 0.12830004
-0.23175465 -0.028679889 0.16346699 0.21214212 -0.2355109 0.22116898 -0.102231 0.21489668
0.12426692 0.19097221 0.2522553 0.24625285 -0.07223054 0.2234708 -0.2617992 0.1973458
-0.23506911 -0.20342468 -0.104057424 0.14157706 0.04175089 0.07366455 0.0038353575 0.087688945
0.2859039 0.21065593 0.1289728 0.014096494 0.03503255 0.2624691 0.21405752 0.08429025
0.08552828 -0.14572427 -0.24358465 -0.20833023 0.0133499745 0.2221832 0.23501481 0.1482576
-0.23528773 0.14529844 -0.23599556 -0.23999833 -0.048087705 -0.27352846 -0.1983893 0.14840502
-0.03308906 0.2154028 0.0004915023 0.0066944817 0.12174167 -0.14180863 0.07701593 0.2601407
-0.122971505 -0.20233093 -0.21413644 -0.17093039 -0.09529226 0.100768864 0.25885883 -0.18016832
00000000: d82f 3b3d 82f7 babd d6b2 2dbe 97bd 15be
00000010: b4aa 16be e264 b83d 7ad1 463e d115 47bd
00000020: dd36 813e bd71 743e 547d 333d 0bc4 84be
00000030: 92f7 c13d b7c9 5fbe 86b3 ba3d fc2f 503e
00000040: 2052 653d 444f 1ebe 5bf0 eabd 75d6 38be
00000050: 1fb4 393d 535a 7f3d 8055 e63d e6ac 093e
00000060: 2a1c 4a3e 465d 4d3e e772 95be fa57 90be
00000070: 68ff dabd 1c78 13be a88a be3d edcb 83be
00000080: 4679 3e3e 961f 2fbe ff3c 8dbe 7088 0bbe
00000090: 4d4b 10be 0fee 123e 9758 793e 4be1 66be
000000a0: 6d50 753e 4c4f 3cbe 0ed9 8d3d c1f3 453e
000000b0: 4288 ce3c 6e5a 7d3e 13e6 b0bd 26c3 de3d
000000c0: a790 203e b01c 28bd 4570 5b3e 8cfb 5c3e
000000d0: bca8 7a3d c975 6b3e 3947 683e 9829 84be
000000e0: 9f3c 28be 69e0 65be ee29 0f3d ae07 a83d
000000f0: e7a5 6bbe 4fea 98be 5e4a bfbd 1661 033e
00000100: 1751 6dbe 16f2 eabc e463 273e c93b 593e
00000110: c529 71be 1f7a 623e 7d5e d1bd e00d 5c3e
00000120: a87f fe3d 388e 433e 9b27 813e b529 7c3e
00000130: 9bed 93bd 88d5 643e 8b0a 86be 0415 4a3e
00000140: f5b5 70be 8f4e 50be 0f1c d5bd 94f9 103e
00000150: fb02 2b3d 71dd 963d 9f5a 7b3b 4396 b33d
00000160: ff61 923e 30b6 573e 7211 043e fbf4 663c
00000170: 4b7e 0f3d 5a62 863e e531 5b3e 5ea0 ac3d
00000180: 7329 af3d be38 15be 416e 79be 8554 55be
00000190: dab9 5a3c fe83 633e b9a7 703e d7d0 173e
000001a0: 44ef 70be 1dc9 143e d2a8 71be 1fc2 75be
000001b0: 9df7 44bd ec0b 8cbe 9126 4bbe 7cf7 173e
000001c0: 6588 07bd 8d92 5c3e 29d8 003a 625d db3b
000001d0: b253 f93d 4836 11be 87ba 9d3d 2931 853e
000001e0: 7cd8 fbbd d72f 4fbe 9546 5bbe 6008 2fbe
000001f0: 9728 c3bd e85f ce3d 2589 843e 0b7e 38be

functional_5_1/dense_11_1/BiasAdd/ReadVariableOp:0 f4 [2]
-0.0071521862 0.007152188
00000000: e35c eabb e75c ea3b

functional_5_1/dense_10_1/Cast/ReadVariableOp:0 f4 [64, 64]
0.16565433 -0.085693665 -0.03325812 -0.010578854 0.035403796 0.1811518 -0.15827411 0.025630547
-0.121072315 -0.028742503 0.20971102 -0.17407236 -0.19025669 -0.08777758 -0.0062400033 -0.18493263
-0.107999146 -0.07620287 -0.23582576 0.09256494 -0.03708408 -0.12930426 -0.03818189 0.18003911
0.06998309 -0.19893338 0.10540512 -0.07631594 0.094151355 -0.06459565 0.19942102 -0.07217915
0.01572 -0.07937394 0.08822509 -0.19606918 0.05208846 0.16008699 -0.09071896 0.14406179
0.0128301205 -0.07097958 -0.15370834 0.08995405 -0.07370064 -0.005734871 0.06684021 -0.21520299
-0.08686623 0.17117056 -0.058591045 -0.108647786 0.072271295 0.11925765 -0.19929214 -0.09353903
-0.12598686 0.005157002 0.21410695 -0.087097876 0.21014433 -0.19375272 0.1878652 0.19805835
-0.078401364 0.19411793 0.106979735 0.13466972 0.060736634 -0.13673413 -0.09970705 0.19244178
0.1566156 -0.0128181055 0.030830275 -0.01082092 0.0065264395 -0.21090636 -0.0047302516 -0.14099525
-0.12369324 0.1129687 -0.17640452 0.13379622 -0.18691222 0.13594869 -0.11301686 -0.08692221
-0.18016659 -0.048706643 0.06706885 0.000727962 -0.16530657 0.038568933 0.022722194 -0.1988695
0.013100733 0.20612036 -0.07715785 -0.14940827 -0.20340978 0.14718904 0.19776994 -0.009889265
-0.10857707 0.17087032 0.11922343 0.05064318 -0.06774112 0.14638415 0.012043463 0.06270087
-0.085668385 -0.12277715 -0.06733068 0.062954016 -0.060999766 0.13309073 0.1524884 -0.0010338976
0.0627123 -0.0058836793 0.033146963 -0.047305577 0.143527 0.14069943 0.06307255 0.0830145
-0.049371675 -0.18915004 -0.04399779 0.03695835 0.097618036 0.21036626 0.08466956 0.090697
0.20490569 -0.07122415 0.0640793 -0.13699722 0.24914159 -0.024362763 -0.05869649 -0.073562816
0.105080314 0.21683015 0.08410367 -0.12483864 0.09773448 0.0034012478 -0.007831313 0.09660447
0.12064893 -0.019773614 0.09033514 0.15066484 0.03797072 0.0054893172 -0.11454861 0.19934484
-0.17969716 0.08212184 -0.13088007 0.112516634 -0.09541973 0.13480093 0.10204737 -0.0018853471
-0.06558801 -0.05596484 0.045023486 0.2271062 0.08266773 -0.116776414 0.18722934 0.16448663
0.1963976 -0.1429486 -0.03773247 0.13385196 -0.103410244 -0.027546627 -0.060988445 0.08717134
0.15413967 0.053355686 -0.16416542 0.12459195 -0.06841514 -0.1433797 0.1165017 -0.04379385
0.060802367 -0.12642595 0.18013012 0.014105541 0.05932254 -0.11695909 0.15968274 0.060068037
0.08856051 0.126554 -0.16912892 0.13036466 0.0990834 0.24346097 -0.098110445 -0.20282826
0.073300995 -0.008721729 -0.12719409 -0.083083056 0.1430121 -0.086022414 -0.022763656 0.06144529
-0.17404848 0.23709789 0.12302112 -0.0051517054 -0.14100716 0.1847709 -0.03734847 -0.1738088
-0.07001195 0.020124312 -0.011236113 -0.16940485 0.18682264 0.051494714 -0.09334796 -0.15170264
0.21043192 -0.101291746 0.0053699915 0.122516766 -0.21501625 0.088571854 -0.02280509 0.108614154
0.08622665 0.14686911 0.15151931 -0.14067893 -0.12247496 -0.072375886 0.0589539 0.2003583
-0.17084178 0.05973245 -0.21184552 -0.04397192 -0.03011972 0.23022442 0.1674467 0.19977492
00000000: 4aa1 293e 2980 afbd ab39 08bd ee52 2dbc
00000010: 9203 113d dc7f 393e 9c12 22be 27f7 d13c
00000020: c3f4 f7bd 6675 ebbc 7cbe 563e 0640 32be
00000030: a6d2 42be bbc4 b3bd f178 ccbb fb5e 3dbe
00000040: a82e ddbd 4010 9cbd 4f7c 71be b092 bd3d
00000050: 7ae5 17bd 5668 04be 9d64 1cbd 2c5c 383e
00000060: 4b53 8f3d 31b5 4bbe a4de d73d 884b 9cbd
00000070: 6dd2 c03d b94a 84bd 0635 4c3e aad2 93bd
00000080: 3bc7 803c ce8e a2bd 5baf b43d 5cc6 48be
00000090: b65a 553d d8ed 233e ddca b9bd ef84 133e
000000a0: 6d35 523c be5d 91bd b865 1dbe d439 b83d
000000b0: 5cf0 96bd 96eb bbbb 85e3 883d 2c5e 5cbe
000000c0: ece6 b1bd 5647 2f3e 2afd 6fbd bb82 debd
000000d0: f902 943d 5b3d f43d 3d13 4cbe 6491 bfbd
000000e0: b302 01be 11fc a83b da3e 5b3e 5f60 b2bd
000000f0: 1330 573e 1d67 46be bc5f 403e cfcf 4a3e
00000100: e590 a0bd dac6 463e 3118 db3d dce6 093e
00000110: fac6 783d 0804 0cbe 3633 ccbd 750f 453e
00000120: d75f 203e 0803 52bc c68f fc3c 3a4a 31bc
00000130: bedb d53b d6f7 57be 3a00 9bbb 0f61 10be
00000140: e252 fdbd 225c e73d 63a3 34be e001 093e
00000150: eb65 3fbe 2236 0b3e 6275 e7bd 4604 b2bd
00000160: 977d 38be 9e80 47bd 655b 893d b4d4 3e3a
00000170: 2046 29be 75fa 1d3d e523 ba3c 72a4 4bbe
00000180: 75a4 563c 3711 533e ef04 9ebd 7bfe 18be
00000190: a74a 50be b9b8 163e 3484 4a3e 9506 22bc
000001a0: a85d debd a1f8 2e3e 6a2b f43d 396f 4f3d
000001b0: dbbb 8abd bae5 153e f251 453c 5069 803d
000001c0: e872 afbd 9672 fbbd abe4 89bd 09ee 803d
000001d0: e4da 79bd f048 083e eb25 1c3e d983 87ba
000001e0: 4e6f 803d e1cb c0bb 1cc5 073d 7ec3 41bd
000001f0: bef8 123e 8313 103e 2e2c 813d 8203 aa3d
00000200: f439 4abd 8cb0 41be 0737 34bd a461 173d
00000210: f7eb c73d 416a 573e 3c67 ad3d 59bf b93d
00000220: ccd2 513e f8dd 91bd 023c 833d 0049 0cbe
00000230: f91e 7f3e 6b94 c7bc bb6b 70bd 1aa8 96bd
00000240: 5934 d73d b908 5e3e 8c3e ac3d 67ab ffbd
00000250: 0429 c83d 78e7 5e3b e84e 00bc 90d8 c53d
00000260: c916 f73d 46fc a1bc a101 b93d e247 1a3e
00000270: 3087 1b3d bbdf b33b 7698 eabd 0e21 4c3e
00000280: 8802 38be 7f2f a83d 6d05 06be 1f6f e63d
00000290: 6b6b c3bd 4109 0a3e 36fe d03d c01d f7ba
000002a0: 0253 86bd 633b 65bd 8c6a 383d 878e 683e
000002b0: b34d a93d 7928 efbd 0cb9 3f3e 2f6f 283e
000002c0: 741c 493e 1e61 12be 5d8d 1abd 7d10 093e
000002d0: c0c8 d3bd 77a9 e1bc 05cf 79bd e386 b23d
000002e0: cad6 1d3e 7e8b 5a3d fb1a 28be 102a ff3d
000002f0: 3d1d 8cbd 21d2 12be 7198 ee3d 2e61 33bd
00000300: e70b 793d ce75 01be 0874 383e ed1a 673c
00000310: 31fc 723d 3f88 efbd df83 233e e709 763d
00000320: 365f b53d 5f97 013e 2230 2dbe 507e 053e
00000330: 3dec ca3d d54d 793e 21ee c8bd 36b2 4fbe
00000340: d51e 963d 95e5 0ebc 2b3f 02be 7327 aabd
00000350: c471 123e 852c b0bd d97a babc 0eae 7b3d
00000360: c439 32be cac9 723e 7ff2 fb3d a3cf a8bb
00000370: 2e64 10be 9534 3d3e b6fa 18bd effa 31be
00000380: 6d62 8fbd bedb a43c ac17 38bc 7778 2dbe
00000390: 6f4e 3f3e 1fec 523d 372d bfbd f057 1bbe
000003a0: 777b 573e 0c72 cfbd c1f6 af3b 12ea fa3d
000003b0: 382d 5cbe 2965 b53d bdd1 babc 1971 de3d
000003c0: 9997 b03d db64 163e e127 1b3e 230e 10be
000003d0: 27d4 fabd cf39 94bd a579 713d ba2a 4d3e
000003e0: 26f1 2ebe 03aa 743d 08ee 58be e61b 34bd
000003f0: a2bd f6bc f3bf 6b3e 2677 2b3e cc91 4c3e

functional_5_1/dense_10_1/BiasAdd/ReadVariableOp:0 f4 [64]
0.0065570083 -0.021644244 -0.015538775 0.013361286 -0.007347696 -0.009901817 -0.0141886575 -0.019518038
0.0013614896 -0.013648083 -0.018872906 -0.003278861 -0.02974588 -0.031422406 -0.00042571244 -0.005796823
-0.008223028 0.003482657 -0.0040798336 -0.0052932836 -0.030565046 -0.0011264414 -0.005280927 -0.016827676
0.0071665626 -0.020323439 -0.026262224 -0.013571667 -0.033365935 -0.010685501 0.00090555655 -0.020248994
0.0011113287 -0.018115649 -0.012721076 -0.008353183 -0.018569665 -0.0037024945 -0.0073782983 -0.024903256
-0.025992863 -0.014502476 0.015145958 -0.0360043 0.013182232 -0.010224365 -0.011594429 0.026419602
-0.015620171 -0.026819555 -0.0039690523 -0.0005269506 -0.0010344014 -0.012141535 -0.018127656 -0.036885027
-0.016955316 -0.036189336 0.005236629 -0.031762432 -0.011871169 -0.028679052 -0.02888476 -0.02275239
00000000: 2cdc d63b 454f b1bc 5996 7ebc 4ce9 5a3c
00000010: f1c4 f0bb 3b3b 22bc 8b77 68bc 4be4 9fbc
00000020: 0374 b23a 369c 5fbc 5a9b 9abc 29e2 56bb
00000030: a2ad f3bc c8b4 00bd 2832 dfb9 47f3 bdbb
00000040: e1b9 06bc 4a3d 643b 20b0 85bb 4873 adbb
00000050: 8c63 fabc 1aa5 93ba a00b adbb 32da 89bc
00000060: 7cd5 ea3b 577d a6bc e023 d7bc b25b 5ebc
00000070: b8aa 08bd 3d12 2fbc df62 6d3a 38e1 a5bc
00000080: 01aa 913a 4567 94bc 0f6c 50bc cadb 08bc
00000090: 691f 98bc 8da5 72bb a7c5 f1bb ea01 ccbc
000000a0: fcee d4bc cb9b 6dbc c126 783c 3f79 13bd
000000b0: 4afa 573c 1884 27bc 8ff6 3dbc ec6d d83c
000000c0: bfeb 7fbc afb4 dbbc d30e 82bb 0e23 0aba
000000d0: c094 87ba 4aed 46bc 7380 94bc c114 17bd
000000e0: e0e5 8abc 453b 14bd 0798 ab3b 5319 02bd
000000f0: 4b7f 42bc 55f0 eabc bb9f ecbc 3863 babc
