model12112(best).onnx (onnx, 609182 bytes, 18 tensors)

functional_3_1/gru_7_1/gru_cell_1/split/ReadVariableOp/resource:0 f4 [2, 192]
-0.017947657 0.05331196 -0.028253833 -0.022788841 -0.012824506 -0.0028232816 0.0043616043 0.012736451
0.025917765 0.05804483 0.012054773 0.024940668 0.05874019 -0.034037698 0.00616135 0.022858197
0.003112469 0.036230743 0.014245068 0.009570474 0.053526748 0.016990198 0.045408662 0.04594119
0.044622537 0.042372677 0.06208641 0.078032665 -0.011952186 0.03557492 0.013151841 0.015463528
-0.000380635 0.03749465 0.034943413 0.031235714 0.0599301 0.017239425 0.013301965 0.04427907
0.047764953 0.022990597 0.04992534 0.0555036 -0.05751455 0.022385022 0.021141982 0.024219474
0.030886643 0.06121434 0.021923617 0.02337469 0.0037653053 0.03495821 0.003616206 -0.00045872596
0.023656197 0.031381678 0.039033737 0.03925937 0.05162842 -0.003256959 -0.0067778206 -0.050883867
-0.0052298587 -0.001466455 -0.07304948 -0.02070672 -0.044865176 -0.024560502 -0.0007659708 -0.07258306
-0.006000435 -0.0651056 -0.016198475 -0.051668286 0.0042058104 -0.016894788 -0.018858908 -0.0033042282
0.0357512 -0.030423407 -0.030852167 0.013797656 -0.043105766 -0.027508873 -0.03338705 -0.0220459
-0.0028529982 -0.0442506 -0.05226915 -0.05961382 3.4361146e-05 0.010546943 -0.0283015 0.0047477786
-0.008820063 -0.044253763 0.00042536715 -0.015032816 -0.041517247 -0.023238108 -0.049898583 -0.027461577
-0.019788474 0.022405649 -0.027722219 -0.050534494 0.057898846 -0.08625064 -0.009449589 -0.036114834
-0.015036676 -0.046576712 -0.026905118 -0.046529636 -0.038850244 -0.029415347 -0.03856286 -0.058281705
-0.005622704 0.03236329 -0.031275127 0.024663873 -0.0010736106 -0.07555314 -0.010498622 -0.023454975
0.036728825 0.036348384 0.015169549 0.033068683 -0.0352878 0.020798722 -0.021999938 0.011230909
0.020910816 0.007229263 -0.022225706 0.005500098 -0.009585239 -0.011359414 0.017333722 0.022100905
0.0014790322 0.02242999 -0.009552116 0.011316697 -0.03245323 0.025522381 0.01939838 0.004178478
-0.0232301 0.0017584005 0.007593966 0.00067080976 0.0021529743 0.011518531 -0.026035644 -0.018036533
-0.017471045 0.00065248925 -0.010036939 -0.008540494 -0.010282087 -0.022181539 0.0052385856 -0.015081876
0.00676974 0.0177805 0.02102329 -0.019869052 0.01870745 -0.012418239 0.021122204 -0.0007124387
-0.013726499 0.013052452 -0.008390453 0.0010635088 -0.0143528255 0.0065636076 0.027748797 0.0026470968
0.014681703 -0.017829504 -0.021999663 -0.00325754 -0.016226647 -0.012854884 0.00059797923 -0.030211458
-0.017947657 0.05331196 -0.028253833 -0.022788841 -0.012824506 -0.0028232816 0.0043616043 0.012736451
0.025917765 0.05804483 0.012054773 0.024940668 0.05874019 -0.034037698 0.00616135 0.022858197
0.003112469 0.036230743 0.014245068 0.009570474 0.053526748 0.016990198 0.045408662 0.04594119
0.044622537 0.042372677 0.06208641 0.078032665 -0.011952186 0.03557492 0.013151841 0.015463528
-0.000380635 0.03749465 0.034943413 0.031235714 0.0599301 0.017239425 0.013301965 0.04427907
0.047764953 0.022990597 0.04992534 0.0555036 -0.05751455 0.022385022 0.021141982 0.024219474
0.030886643 0.06121434 0.021923617 0.02337469 0.0037653053 0.03495821 0.003616206 -0.00045872596
0.023656197 0.031381678 0.039033737 0.03925937 0.05162842 -0.003256959 -0.0067778206 -0.050883867
00000000: f706 93bc a45d 5a3d 9574 e7bc aaaf babc
00000010: e01d 52bc ce06 39bb caeb 8e3b 8cac 503c
00000020: 7e51 d43c 6ac0 6d3d 6281 453c 5f50 cc3c
00000030: 8e99 703d 1d6b 0bbd 26e5 c93b 1d41 bb3c
00000040: 91fa 4b3b b066 143d 2564 693c 7acd 1c3c
00000050: dd3e 5b3d 072f 8b3c 6ffe 393d d42c 3c3d
00000060: 1fc6 363d f98e 2d3d 524e 7e3d 97cf 9f3d
00000070: 1ad3 43bc 02b7 113d d27a 573c bd5a 7d3c
00000080: f78f c7b9 fd93 193d d320 0f3d 0ae2 ff3c
00000090: 4479 753d b239 8d3c 7cf0 593c f85d 353d
000000a0: 2fa5 433d c756 bc3c 837e 4c3d be57 633d
000000b0: 6094 6bbd cb60 b73c f331 ad3c eb67 c63c
000000c0: fc05 fd3c e3bb 7a3d 2899 b33c 477c bf3c
000000d0: 57c3 763b 5730 0f3d dffd 6c3b 2881 f0b9
000000e0: a4ca c13c 138a 003d d7e1 1f3d 6fce 203d
000000f0: 5278 533d b472 55bb 7b18 debb 9a6b 50bd
00000100: 3c5f abbb 1136 c0ba f79a 95bd 24a1 a9bc
00000110: 8cc4 37bd 1b33 c9bc 6ecb 48ba 6da6 94bd
00000120: 4c9f c4bb 1656 85bd aab2 84bc 20a2 53bd
00000130: e5d0 893b f066 8abc ff7d 9abc c08b 58bb
00000140: da6f 123d 823a f9bc afbd fcbc 900f 623c
00000150: ac8f 30bd 4a5a e1bc dcc0 08bd 9a99 b4bc
00000160: 5ef9 3abb 1e40 35bd 2d18 56bd 9f2d 74bd
00000170: 001f 1038 16cd 2c3c 8cd8 e7bc 4193 9b3b
00000180: 0782 10bc 6f43 35bd d003 df39 334c 76bc
00000190: fd0d 2abd d85d bebc 7562 4cbd 1af7 e0bc
000001a0: 701b a2bc 0d8c b73c b519 e3bc 42fd 4ebd
000001b0: 5727 6d3d 2da4 b0bd 73d2 1abc 26ed 13bd
000001c0: 645c 76bc 39c7 3ebd 1f68 dcbc dc95 3ebd
000001d0: 6f21 1fbd 74f8 f0bc 17f4 1dbd ccb8 6ebd
000001e0: a93e b8bb 5f8f 043d 591a 00bd e40b ca3c
000001f0: 65b8 8cba 9bbb 9abd 6a02 2cbc a624 c0bc
00000200: f770 163d 0be2 143d b389 783c 0773 073d
00000210: f189 10bd 1562 aa3c 3739 b4bc d901 383c
00000220: 294d ab3c 74e3 ec3b af12 b6bc 2b3a b43b
00000230: 680b 1dbc d61c 3abc 73ff 8d3c f50c b53c
00000240: 16dc c13a 19bf b73c 7a80 1cbc ab69 393c
00000250: aeed 04bd 5014 d13c 5ae9 9e3c 9deb 883b
00000260: 0d4d bebc 217a e63a ced6 f83b 48d9 2f3a
00000270: ea18 0d3b 38b8 3c3c b448 d5bc 5ac1 93bc
00000280: 701f 8fbc d00b 2b3a f971 24bc 6eed 0bbc
00000290: 3376 28bc 0fb6 b5bc 71a8 ab3b f919 77bc
000002a0: b2d4 dd3b 69a8 913c 0939 ac3c 6cc4 a2bc
000002b0: 5e40 993c df75 4bbc 7908 ad3c f4c2 3aba
000002c0: 1ce5 60bc f4d9 553c 1c78 09bc 6f65 8b3a
000002d0: 1d28 6bbc 8813 d73b 7251 e33c ea7a 2d3b
000002e0: 878b 703c 2e0f 92bc a338 b4bc 747c 55bb
000002f0: bfed 84bc 4b9d 52bc b5c1 1c3a 057e f7bc
00000300: f706 93bc a45d 5a3d 9574 e7bc aaaf babc
00000310: e01d 52bc ce06 39bb caeb 8e3b 8cac 503c
00000320: 7e51 d43c 6ac0 6d3d 6281 453c 5f50 cc3c
00000330: 8e99 703d 1d6b 0bbd 26e5 c93b 1d41 bb3c
00000340: 91fa 4b3b b066 143d 2564 693c 7acd 1c3c
00000350: dd3e 5b3d 072f 8b3c 6ffe 393d d42c 3c3d
00000360: 1fc6 363d f98e 2d3d 524e 7e3d 97cf 9f3d
00000370: 1ad3 43bc 02b7 113d d27a 573c bd5a 7d3c
00000380: f78f c7b9 fd93 193d d320 0f3d 0ae2 ff3c
00000390: 4479 753d b239 8d3c 7cf0 593c f85d 353d
000003a0: 2fa5 433d c756 bc3c 837e 4c3d be57 633d
000003b0: 6094 6bbd cb60 b73c f331 ad3c eb67 c63c
000003c0: fc05 fd3c e3bb 7a3d 2899 b33c 477c bf3c
000003d0: 57c3 763b 5730 0f3d dffd 6c3b 2881 f0b9
000003e0: a4ca c13c 138a 003d d7e1 1f3d 6fce 203d
000003f0: 5278 533d b472 55bb 7b18 debb 9a6b 50bd

functional_3_1/gru_7_1/gru_cell_1/Cast_1/ReadVariableOp/resource:0 f4 [64, 192]
-0.054348167 0.12593354 -0.019400628 0.010649835 0.053265795 -0.066589296 -0.028291784 -0.08241552
-0.0355897 -0.14471899 -0.11980624 0.12105643 0.103979126 0.069055356 -0.115738325 -0.05782023
-0.0190106 -0.022354014 0.063754424 -0.12065276 0.063821964 0.026134022 0.030503962 -0.048105326
-0.08791545 0.04288766 0.022565195 0.01822738 -5.284112e-05 0.042977653 -0.046691034 0.041536704
-0.10276456 -0.11460168 0.12950203 0.19512129 0.042234425 -0.0055972156 0.039470274 0.07141822
0.034731124 -0.025018275 0.08188349 0.05150618 0.14800243 0.12608325 0.07397364 0.050703984
0.036370266 0.0953259 0.0006719682 -0.053383026 -0.056890152 -0.06827026 0.014004995 -0.15003888
-0.041135557 0.07173655 -0.036731597 0.030409547 -0.009159827 -0.17696257 -0.11003325 -0.018338619
0.021240072 -0.04877011 -0.058657117 -0.05612307 0.051025495 -0.07249583 -0.0643494 0.068056606
-0.07820014 0.022145532 0.02929739 0.019368052 0.008878304 -0.0004969976 0.0070569306 -0.03735008
-0.13389058 -0.10272328 -0.0018550302 0.1114076 -0.022069354 0.083403714 0.051439814 -0.16985908
-0.016826542 -0.09740469 0.0757892 -0.06661199 0.14320518 0.03607364 -0.038478192 -0.22503957
-0.00471808 0.040609248 -0.17661563 -0.1066836 -0.005078474 0.008781152 -0.0063904016 -0.056799304
0.06451737 -0.0025245866 0.04131384 0.01102487 -0.043766953 -0.0013701748 -0.0009480122 -0.04973599
0.058859963 -0.019854369 -0.09382654 -0.04095145 -0.10167692 -0.026809242 -0.09363642 -0.13689008
-0.015330914 -0.039900474 -0.05464936 -0.02222541 -0.07108213 -0.06684884 -0.0682545 0.02280962
0.03236654 -0.15776207 0.09322406 -0.10209199 0.0067576724 0.0041876594 -0.009394228 0.044435304
-0.05191816 0.08222329 -0.0043533253 -0.08695985 0.086609334 -0.005008904 0.04970569 0.08725384
0.07148324 0.0060802265 0.09129998 0.14104098 -0.07549714 -0.13803735 -0.038552254 -0.040226292
0.11595406 -0.15871106 0.0622294 -0.0047308747 -0.026601717 0.07870566 -0.06800232 -0.20298383
0.038910914 -0.12110461 -0.04077692 0.01998345 -0.032991286 -0.0153704975 -0.11040647 0.12168052
-0.013714442 -0.01235853 -0.026057182 0.01357039 0.014610814 -0.08712238 0.05384047 -0.009385521
0.051946465 0.044658706 -0.053423118 0.002850325 0.049241915 -0.01092382 -0.04493064 0.08576092
0.14436176 0.15358923 -0.008469696 0.042993262 0.09151239 0.10233359 0.15123034 0.036814727
-0.074880205 -0.03830351 -0.030075328 0.055486787 -0.080089144 -0.055173688 -0.17558555 -0.08148908
0.016593777 0.118922524 0.0774414 -0.04004582 0.17734696 -0.05557753 -0.057895426 0.06440762
0.080617756 0.13427028 0.074558854 0.1199652 0.15042871 0.0023910988 0.07718156 -0.014732928
0.069767855 0.039633546 -0.07607597 0.11768589 -0.041280672 -0.053542625 -0.15869744 -0.054615635
0.029817013 -0.10420468 -0.12234225 0.08237104 0.1972485 0.10062585 0.057263304 0.13719395
-0.04879659 0.10820176 0.06361195 -0.02138892 0.10962768 -0.059921164 0.06759794 0.028430654
0.05913266 0.011862275 -0.056734446 -0.07920568 0.014223811 -0.025985654 0.08256761 0.016478376
-0.0020583088 -0.10268675 0.06170397 0.024989588 0.078795716 -0.08726373 0.034318104 0.17062859
00000000: 2f9c 5ebd b9f4 003e 11ee 9ebc a57c 2e3c
00000010: 3c2d 5a3d f85f 88bd 2cc4 e7bc 78c9 a8bd
00000020: 81c6 11bd 3731 14be f95c f5bd 6fec f73d
00000030: 02f3 d43d e56c 8d3d 3708 edbd e8d4 6cbd
00000040: 1ebc 9bbc c41f b7bc ae91 823d cb18 f7bd
00000050: 17b5 823d 0417 d63c 72e3 f93c 170a 45bd
00000060: 040d b4bd f9aa 2f3d a5da b83c 9651 953c
00000070: b8a1 5db8 5609 303d 193f 3fbd 6422 2a3d
00000080: 3a76 d2bd 49b4 eabd 2e9c 043e e0cd 473e
00000090: 01fe 2c3d d968 b7bb 95ab 213d b743 923d
000000a0: 3942 0e3d 20f3 ccbc 88b2 a73d 25f8 523d
000000b0: f38d 173e f81b 013e 7e7f 973d fbae 4f3d
000000c0: fdf8 143d 3a3a c33d 0627 303a 29a8 5abd
000000d0: a605 69bd 47d1 8bbd 3575 653c cba3 19be
000000e0: c27d 28bd 9dea 923d df73 16bd 711d f93c
000000f0: 1913 16bc ad35 35be 1d59 e1bd df3a 96bc
00000100: a9ff ad3c 2bc3 47bd 7242 70bd 4ee1 65bd
00000110: 1c00 513d b278 94bd 9ec9 83bd 4361 8b3d
00000120: 6527 a0bd 8c6a b53c 1401 f03c c0a9 9e3c
00000130: 4e76 113c f248 02ba d33d e73b 66fc 18bd
00000140: 9d1a 09be 9560 d2bd 7c24 f3ba ab29 e43d
00000150: caca b4bc 91cf aa3d 8eb2 523d 8aef 2dbe
00000160: d1d7 89bc 1c7c c7bd 5e37 9b3d de6b 88bd
00000170: 61a4 123e f4c1 133d 4f9b 1dbd c670 66be
00000180: 209a 9abb e255 263d bada 34be ee7c dabd
00000190: 5469 a6bb d2de 0f3c 9366 d1bb 63a6 68bd
000001a0: af21 843d 8973 25bb b338 293d a8a1 343c
000001b0: fa44 33bd 7097 b3ba 0684 78ba f7b7 4bbd
000001c0: 2517 713d a1a5 a2bc 2128 c0bd b5bc 27bd
000001d0: fd3b d0bd 0e9f dbbc 74c4 bfbd ea2c 0cbe
000001e0: 842e 7bbc ae6e 23bd 02d8 5fbd 1012 b6bc
000001f0: 8293 91bd 0be8 88bd 04c9 8bbd 3ddb ba3c
00000200: c792 043d 618c 21be 42ec be3d 9b15 d1bd
00000210: 776f dd3b a238 893b 40ea 19bc cb01 363d
00000220: 23a8 54bd af64 a83d 57a6 8ebb 0118 b2bd
00000230: 3c60 b13d bb21 a4bb 3298 4b3d 24b2 b23d
00000240: ce65 923d a33c c73b 7cfb ba3d 0c6d 103e
00000250: 3f9e 9abd aa59 0dbe f8e8 1dbd 53c4 24bd
00000260: 5279 ed3d 2785 22be 41e4 7e3d 7405 9bbb
00000270: d8eb d9bc 6f30 a13d cd44 8bbd feda 4fbe
00000280: 0d61 1f3d b205 f8bd b305 27bd 55b4 a33c
00000290: df21 07bd 8ad4 7bbc ca1c e2bd a333 f93d
000002a0: 8ab2 60bc 6f7b 4abc df75 d5bc 5756 5e3c
000002b0: 3262 6f3c 386d b2bd d387 5c3d bac5 19bc
000002c0: d1c5 543d 0cec 363d 33d2 5abd 85cc 3a3b
000002d0: e4b1 493d d2f9 32bc 3109 38bd 6ca3 af3d
000002e0: 92d3 133e 7f46 1d3e 7bc4 0abc b419 303d
000002f0: d96a bb3d 4694 d13d 20dc 1a3e 0acb 163d
00000300: cb5a 99bd 24e4 1cbd 8960 f6bc 1d46 633d
00000310: c705 a4bd cefd 61bd b3cc 33be bfe3 a6bd
00000320: acef 873c a78d f33d 9999 9e3d 1607 24bd
00000330: 719a 353e 44a5 63bd c123 6dbd 24e8 833d
00000340: ec1a a53d 267e 093e 50b2 983d 51b0 f53d
00000350: fc09 1a3e fbb3 1c3b 5e11 9e3d 6162 71bc
00000360: 73e2 8e3d c956 223d b8cd 9bbd 4d05 f13d
00000370: ec15 29bd 834f 5bbd 9581 22be a5b4 5fbd
00000380: cf42 f43c 4369 d5bd 938e fabd 26b2 a83d
00000390: 83fb 493e ed14 ce3d ed8c 6a3d 927c 0c3e
000003a0: efde 47bd e298 dd3d fb46 823d d137 afbc
000003b0: 7a84 e03d e56f 75bd ca70 8a3d 67e7 e83c
000003c0: 1735 723d fd59 423c 6162 68bd 9636 a2bd
000003d0: fd0a 693c dedf d4bc 3519 a93d a9fd 863c
000003e0: b1e4 06bb 6e4d d2bd 4dbd 7c3d f7b6 cc3c
000003f0: a65f a13d 54b7 b2bd 2491 0c3d 43b9 2e3e

functional_3_1/gru_7_1/gru_cell_1/Cast/ReadVariableOp/resource:0 f4 [128, 192]
-0.0346023 0.057615872 -0.051727436 0.03353981 0.12645005 0.06816334 -0.11642866 0.13837275
0.1152405 -0.04832903 -0.05603827 -0.047749322 0.036827013 -0.05232825 -0.12953962 -0.0019628336
0.08608432 0.083991185 -0.11210624 -0.008283355 0.03331532 0.05859373 0.0072778906 -0.09312884
-0.16489704 -0.10096448 -0.13867168 -0.10931131 0.099351056 0.07885759 0.08107246 0.109819636
-0.08106184 -0.09024097 0.009262902 0.09847811 0.07452877 -0.106906086 0.13820626 -0.04617727
-0.033507943 -0.032721527 -0.09019371 -0.096567124 0.093835086 -0.00020736223 0.063943885 -0.014423209
-0.034896698 0.013752127 -0.061522 0.13929705 -0.035301898 -0.007566081 -0.13467017 0.021149952
-0.08151273 -0.004130444 -0.01680661 0.023410624 -0.057677932 0.121454045 0.08268285 0.023171593
-0.004503438 0.079997316 -0.07826643 0.17119488 0.02508079 -0.1456404 -0.13795364 -0.054592952
0.08253824 0.15464324 0.053046554 -0.10326267 0.019580143 0.14518504 0.06216297 -0.039859746
-0.075665146 -0.06620633 -0.00491872 0.12951414 0.085039616 0.049510434 0.04542418 0.054973368
-0.00051882945 0.10681587 0.044521037 -0.07208727 0.1293409 0.0346324 -0.022564493 -0.052096024
0.055449236 -0.040878266 -0.05713627 -0.017027888 0.18227471 0.045193966 0.09704587 -0.12254385
-0.08025581 0.017026285 0.13466576 0.119410016 0.13357541 -0.07139078 -0.075411655 0.08405487
0.11805485 0.076867096 0.13205013 0.04790236 0.011245465 -0.058807258 -0.038723517 0.090620026
-0.079943284 -0.05711477 0.100787714 -0.1368538 0.07374725 -0.0365474 -0.0233442 -0.021048365
0.06860908 0.05741734 -0.10848661 0.026446665 0.06038213 -0.001611069 0.024919469 0.111432076
0.09678846 0.059018716 -0.028815016 0.036688037 0.013854542 0.04112125 0.12335293 -0.08463335
0.06340946 -0.14515091 -0.11271005 -0.13950038 0.04824036 -0.023709562 0.05425417 0.112105705
0.1303861 -0.04624338 0.06826678 0.04745394 0.02863417 -0.105938345 0.08757632 -0.072535016
0.08468622 0.04955152 0.00020746609 -0.14484093 -0.0061841756 0.08348719 -0.0010101589 0.07025127
0.06196441 0.007631899 0.02493017 -0.10185294 -0.058602232 0.09203615 -0.080256425 -0.080215216
-0.047920026 -0.108841434 0.11738489 0.119875066 0.09297173 0.10686731 -0.010220588 0.011859807
0.1263804 -0.022989433 0.021980926 -0.05539353 0.16146556 0.12832022 0.059787273 0.05878418
0.028555308 0.08128193 -0.068185575 0.001144637 -0.11229264 0.017792342 0.12585989 -0.13719228
0.09240405 -0.034762327 0.07811878 0.02763632 0.08273557 0.055099376 0.027547829 0.009298493
-0.14535357 -0.07071522 0.08986441 -0.01886711 0.09725106 0.00046123448 0.061977874 -0.04903042
-0.093577296 -0.023405392 -0.06444174 -0.092303015 0.027766306 0.13155432 -0.041444022 0.04765816
-0.094538964 0.17633662 0.12791726 -0.022659857 0.040654328 0.05442797 -0.008043579 0.06300957
0.12124187 -0.14952257 -0.10252413 -0.072011344 -0.14823228 -0.029361485 0.0744799 0.038502023
-0.11369802 0.13747288 -0.09484491 0.14328817 0.09364402 -0.023974814 0.003977913 -0.098011576
0.08180708 0.024605844 0.071578085 0.15814736 0.017526345 0.11703125 0.088303775 -0.14995699
00000000: 24bb 0dbd 9ffe 6b3d 26e0 53bd 0a61 093d
00000010: 1f7c 013e 3999 8b3d 2672 eebd 96b1 0d3e
00000020: 3603 ec3d a9f4 45bd 6388 65bd cb94 43bd
00000030: ecd7 163d 2656 56bd 09a6 04be e2a2 00bb
00000040: fa4c b03d 9203 ac3d f597 e5bd e9b6 07bc
00000050: a575 083d fbff 6f3d 5f7b ee3b 55ba bebd
00000060: c5da 28be 77c6 cebd f3ff 0dbe 9cde dfbd
00000070: 9178 cb3d 1780 a13d 5109 a63d 1ee9 e03d
00000080: c003 a6bd 42d0 b8bd 6dc3 173c e4ae c93d
00000090: 8aa2 983d 94f1 dabd f185 0d3e 6124 3dbd
000000a0: a03f 09bd 0207 06bd 7bb7 b8bd fcc4 c5bd
000000b0: 9c2c c03d 606f 59b9 03f5 823d 534f 6cbc
000000c0: d7ef 0ebd 9a50 613c 7efe 7bbd e3a3 0e3e
000000d0: b998 10bd e3ec f7bb fae6 09be aa42 ad3c
000000e0: 25f0 a6bd ad58 87bb 04ae 89bc a3c7 bf3c
000000f0: b23f 6cbd e6bc f83d a055 a93d 5ad2 bd3c
00000100: 9391 93bb a2d5 a33d 264a a0bd b64d 2f3e
00000110: 3b76 cd3c c222 15be b843 0dbe dc9c 5fbd
00000120: cf09 a93d cc5a 1e3e 5847 593d 617b d3bd
00000130: 8966 a03c 63ab 143e 999e 7e3d f943 23bd
00000140: 54f6 9abd 2f97 87bd 372d a1bb 5b9f 043e
00000150: 4029 ae3d 74cb 4a3d b40e 3a3d c12b 613d
00000160: 0e02 08ba 47c2 da3d b15b 363d 7ea2 93bd
00000170: f171 043e b4da 0d3d 2cd9 b8bc a462 55bd
00000180: bd1e 633d f86f 27bd b907 6abd 127e 8bbc
00000190: 39a6 3a3e 4f1d 393d fcbf c63d 45f8 fabd
000001a0: 285d a4bd b57a 8b3c d2e5 093e 3d8d f43d
000001b0: fec7 083e 5435 92bd 6d71 9abd f624 ac3d
000001c0: bec6 f13d 7f6c 9d3d 2638 073e 4435 443d
000001d0: e63e 383c e1df 70bd 8d9c 1ebd fe96 b93d
000001e0: 4eb9 a3bd 2df1 69bd ca69 ce3d 6723 0cbe
000001f0: cc08 973d bab2 15bd 563c bfbc 9f6d acbc
00000200: eb82 8c3d 722e 6b3d 3a2e debd ada6 d83c
00000210: 4153 773d 812a d3ba ea23 cc3c 8036 e43d
00000220: 0739 c63d 9cbd 713d 780d ecbc 3246 163d
00000230: 29fe 623c c16e 283d 76a0 fc3d 4054 adbd
00000240: d2dc 813d 71a2 14be 87d4 e6bd 30d9 0ebe
00000250: af97 453d 8e3a c2bc 9f39 5e3d ad97 e53d
00000260: ef83 053e b369 3dbd 74cf 8b3d 105f 423d
00000270: 3592 ea3c 34f6 d8bd 375b b33d 3d8d 94bd
00000280: f86f ad3d 89f6 4a3d 418b 5939 2e51 14be
00000290: a0a4 cabb 55fb aa3d 4f67 84ba e6df 8f3d
000002a0: 65ce 7d3d 0215 fa3b 5b3a cc3c 4698 d0bd
000002b0: e508 70bd 737d bc3d 7b5d a4bd e047 a4bd
000002c0: ca47 44bd 42e8 debd 7d67 f03d 0f81 f53d
000002d0: f667 be3d 40dd da3d 4174 27bc a34f 423c
000002e0: dd69 013e 5654 bcbc 5811 b43c 53e4 62bd
000002f0: 3a57 253e 6066 033e 80e3 743d aec7 703d
00000300: d2ec e93c 2477 a63d e1a4 8bbd a507 963a
00000310: aff9 e5bd 3fc1 913c 6ae1 003e 227c 0cbe
00000320: 563e bd3d f162 0ebd bdfc 9f3d 9065 e23c
00000330: 4471 a93d e2af 613d fcab e13c b558 183c
00000340: 91d7 14be 24d3 90bd d50a b83d 338f 9abc
00000350: 902b c73d d8d1 f139 83dc 7d3d 1fd4 48bd
00000360: 74a5 bfbd aabc bfbc 08fa 83bd 5d09 bdbd
00000370: 2a76 e33c 2db6 063e 35c1 29bd 3435 433d
00000380: a59d c1bd 9691 343e befc 023e 2aa1 b9bc
00000390: 2785 263d ddef 5e3d 37c9 03bc 290b 813d
000003a0: a84d f83d 721c 19be 2cf8 d1bd af7a 93bd
000003b0: 34ca 17be 7f87 f0bc eb88 983d 4cb4 1d3d
000003c0: 82da e8bd b1c5 0c3e 0c3e c2bd 22ba 123e
000003d0: 70c8 bf3d d466 c4bc 2759 823b 4bba c8bd
000003e0: 788a a73d 3292 c93c 8897 923d 62f1 213e
000003f0: 6993 8f3c 14ae ef3d 9cd8 b43d 538e 19be

functional_3_1/gru_6_1/gru_cell_1/split/ReadVariableOp/resource:0 f4 [2, 384]
0.031016046 -0.015697425 -0.0504472 0.0018093835 0.0066459514 -0.017498707 0.0077911504 -0.03323546
0.027426796 0.019548189 -0.032950103 -0.018469524 -0.029563362 0.014456645 -0.0025177212 0.0065978575
-0.0037377488 -0.010449656 -0.026437173 -0.0039995555 -0.014994713 -0.036028005 -0.003068987 -0.010887771
-0.03187534 0.041016 0.03268918 0.007585616 -0.005691757 -0.005987345 -0.019826282 0.0796979
-0.040347688 -0.029253192 -0.016557073 0.009048574 0.009231092 0.0020943042 -0.007434857 -0.00016951552
-0.00991326 0.041785456 0.020758118 0.0030128392 0.02141291 0.018132184 -0.015269025 0.038530946
-0.0040029115 0.013059938 0.012986301 -0.075864 0.003479845 -0.024482602 0.0068460316 0.02180331
-0.029878693 -0.009844734 0.029223356 0.03881054 0.020490108 0.034140307 -0.008825761 -0.0009476525
-0.01880162 0.0029356522 0.011213976 -0.014069852 -0.024756832 0.0427744 -0.006943507 0.034597497
-0.044671945 -0.057135575 -0.03279937 -0.019630125 0.010131447 0.008557818 -5.1337018e-05 0.035524607
0.020101994 0.030139906 -0.0058970167 -0.016665995 -0.013058905 0.015180994 0.031988364 0.007876878
0.014414096 -0.006968672 -0.029448675 0.053362936 0.010161552 0.021711588 -0.06005973 -0.026949286
0.0010634807 -0.0201772 0.006270399 -0.001810769 0.007651544 -0.004999034 0.033758327 -0.027733587
0.04296776 -0.0067295427 0.0016132845 -0.017635299 -0.057357132 0.016660864 -0.05160136 -0.027735097
0.0432381 0.033123173 -0.017424254 0.034241885 0.035443496 -0.027217954 -0.038791247 -0.027934596
0.013327072 0.025616422 0.018923193 0.0069068563 -0.017314905 0.0048886132 0.0017581244 0.013523803
-0.038707905 -0.084326774 0.07283105 -0.0028930875 -0.015959384 -0.055274088 -0.046910807 -0.08282892
-0.0077625606 -0.043891665 -0.0052773817 -0.02085871 0.004300838 0.02233676 -0.028082395 -0.0055207885
0.021706318 -0.021035664 -0.061897375 -0.018048376 -0.006609865 -0.034382705 -0.04535944 -0.04528035
-0.072998784 0.02510326 -0.022036396 -0.023057451 -0.043871045 -0.021177 -0.07102592 -0.03454198
-0.06841472 0.037945986 -0.00102501 -0.037220664 -0.025929451 -0.052282773 -0.017110813 -0.08846442
-0.023157699 -0.018851448 -0.020708324 -0.04556472 -0.023900716 0.04264008 0.036545422 0.0055413204
-0.037302386 -0.03960153 -0.04067589 -0.050532527 -0.030247625 0.02581255 -0.022066396 -0.034317013
-0.004746076 -0.07747916 -0.0061273444 -0.022310277 0.01969871 0.016086927 -0.06812257 -0.029095542
-0.0132757835 -0.05537546 -0.05250417 0.00031580904 -0.053296033 0.011024913 0.0020187742 -0.06647773
-0.02237174 -0.038411275 0.00999277 -0.018362012 -0.06343403 -0.0554459 -0.015614994 -0.0077346326
-0.03275598 -0.0013597106 -0.04834158 0.00876985 -0.02455382 0.000591661 -0.032063883 -0.013979967
-0.07712214 -0.038540844 -0.06555402 -0.04840364 -0.040176813 -0.02797737 -0.021763338 -0.048336312
-0.04145359 -0.035950042 -0.023977045 -0.08679278 -0.015917283 0.008165649 -0.020568404 -0.0010327041
-0.07075943 -0.020895086 -0.015990453 -0.050516255 -0.03221665 0.015715452 -0.0038156223 -0.033604883
-0.0062930747 -0.021773815 -0.05526671 -0.011092942 -0.049780417 -0.014938909 0.0020345196 -0.03506337
-0.035545696 -0.048335597 -0.017671304 -0.0746442 -0.057204112 -0.06728921 0.005801014 -0.019514728
00000000: 5d15 fe3c e397 80bc b9a1 4ebd d628 ed3a
00000010: 48c6 d93b 7359 8fbc e84c ff3b e821 08bd
00000020: 29ae e03c 8623 a03c b0f6 06bd 664d 97bc
00000030: dd2e f2bc 90db 6c3c 5a00 25bb d732 d83b
00000040: 05f5 74bb 0935 2bbc c592 d8bc b40e 83bb
00000050: 62ac 75bc 1a92 13bd 0f21 49bb 9f62 32bc
00000060: b78f 02bd 6500 283d 17e5 053d c290 f83b
00000070: eb81 babb 7d31 c4bb ba6a a2bc a738 a33d
00000080: 9e43 25bd 64a4 efbc b3a2 87bc 7840 143c
00000090: 023e 173c 9840 093b 1aa0 f3bb fabf 31b9
000000a0: 3a6b 22bc 3a27 2b3d ee0c aa3c 0e73 453b
000000b0: 216a af3c f289 943c ef2a 7abc a0d2 1d3d
000000c0: db2a 83bb 5af9 553c 7fc4 543c 965e 9bbd
000000d0: 1c0e 643b bd8f c8bc ad54 e03b db9c b23c
000000e0: 29c4 f4bc cf4b 21bc d265 ef3c cdf7 1e3d
000000f0: dfda a73c b5d6 0b3d ed99 10bc e26b 78ba
00000100: db05 9abc 1264 403b d3ba 373c 3d85 66bc
00000110: d7ce cabc 3634 2f3d 5c86 e3bb 1bb6 0d3d
00000120: eef9 36bd fe06 6abd a258 06bd 5bcf a0bc
00000130: 5efe 253c 1736 0c3c b452 57b8 4082 113d
00000140: f0ac a43c f7e7 f63c c33b c1bb 2087 88bc
00000150: 04f5 55bc b4b9 783c 3b06 033d 050e 013c
00000160: 1a29 6c3c 7559 e4bb 593e f1bc 1893 5a3d
00000170: a37c 263c 80dc b13c 3101 76bd c0c4 dcbc
00000180: 7e64 8b3a a84a a5bc eb77 cd3b 5357 edba
00000190: ceb9 fa3b f0ce a3bb 2c46 0a3d 8c31 e3bc
000001a0: f6fe 2f3d 7f83 dcbb d874 d33a e777 90bc
000001b0: 50ef 6abd 5d7c 883c f35b 53bd b734 e3bc
000001c0: 6f1a 313d 2aac 073d 4fbd 8ebc 3841 0c3d
000001d0: 332d 113d 30f8 debc 92e3 1ebd 18d7 e4bc
000001e0: cb59 5a3c 88d9 d13c d004 9b3c e952 e23b
000001f0: fdd7 8dbc a930 a03b de70 e63a f192 5d3c
00000200: 2e8c 1ebd 84b3 acbd 7228 953d f499 3dbb
00000210: 41bd 82bc 1567 62bd 8c25 40bd 35a2 a9bd
00000220: 145d febb bfc7 33bd e3ed acbb e3df aabc
00000230: 0bee 8c3b 95fb b63c 0d0d e6bc bbe7 b4bb
00000240: 73d1 b13c fc52 acbc 1a88 7dbd 30da 93bc
00000250: 9197 d8bb e1d4 0cbd d2ca 39bd e377 39bd
00000260: 6380 95bd 5aa5 cd3c ac85 b4bc fbe2 bcbc
00000270: 20b2 33bd 637b adbc 0a76 91bd e47b 0dbd
00000280: 041d 8cbd 406d 1b3d a159 86ba b274 18bd
00000290: 006a d4bc 7626 56bd fa2b 8cbc d52c b5bd
000002a0: 37b5 bdbc 5a6e 9abc 81a4 a9bc 12a2 3abd
000002b0: 6fcb c3bc 5da7 2e3d a7b0 153d f793 b53b
000002c0: 63ca 18bd 3735 22bd c39b 26bd 32fb 4ebd
000002d0: dec9 f7bc d774 d33c 96c4 b4bc ff8f 0cbd
000002e0: f984 9bbb 65ad 9ebd e4c7 c8bb 0bc4 b6bc
000002f0: 305f a13c bbc8 833c d983 8bbd c659 eebc
00000300: ac82 59bc 61d1 62bd 9d0e 57bd 2c93 a539
00000310: f14c 5abd d6a1 343c 694d 043b 7a25 88bd
00000320: f044 b7bc 2455 1dbd b7b8 233c ee6b 96bc
00000330: b3e9 81bd 3d1b 63bd 08d6 7fbc cd72 fdbb
00000340: 222b 06bd 5138 b2ba d201 46bd 6baf 0f3c
00000350: 1825 c9bc b319 1b3a 6b55 03bd 3b0c 65bc
00000360: 36f2 9dbd 01dd 1dbd 3041 86bd e542 46bd
00000370: 7190 24bd cc30 e5bc 0749 b2bc 4cfc 45bd
00000380: 3dcb 29bd 5a40 13bd 826b c4bc 6ac0 b1bd
00000390: f664 82bc 37c9 053c 127f a8bc cd5b 87ba
000003a0: 52ea 90bd 2c2c abbc 69fe 82bc 22ea 4ebd
000003b0: 9bf5 03bd b1bd 803c 850f 7abb 46a5 09bd
000003c0: 2336 cebb 005f b2bc 595f 62bd 2cbf 35bc
000003d0: 8de6 4bbd 53c2 74bc 9355 053b 9c9e 0fbd
000003e0: 5d98 11bd 8cfb 45bd 69c3 90bc 0fdf 98bd
000003f0: dc4e 6abd edce 89bd 6f16 be3b 5add 9fbc

functional_3_1/gru_6_1/gru_cell_1/Cast_1/ReadVariableOp/resource:0 f4 [128, 384]
-0.08912583 -0.08141732 -0.04988335 -0.022140678 0.045526102 -0.09383478 0.12285894 0.056362107
0.026768822 -0.0661768 0.026565878 0.05376765 0.010894699 -0.11147333 -0.05262145 0.040595897
0.044694997 0.038312178 -0.05919659 0.035228375 0.015977953 0.005280984 -0.08086962 -0.029384084
0.0001463583 -0.007427372 0.042994644 -0.038226385 0.016711976 0.05058428 -0.0472809 -0.15891534
-0.054732524 -0.06676329 0.015203655 -0.020622944 0.028245341 -0.035805255 -0.045843992 -0.0038569248
0.014017609 0.018103624 0.032666925 0.097860724 -0.02395188 0.01164829 -0.061106544 0.04720131
0.026034793 0.009307218 0.0034741445 0.0684235 -0.060724676 -0.03344803 -0.08820557 -0.060345363
-0.010332077 -0.065886155 0.023636315 -0.0054112603 -0.028777966 -0.010128342 -0.00793466 -0.052273635
-0.0635329 -0.060943097 -0.0026405365 0.101874255 -0.029769676 -0.025941398 -0.07557123 -0.03626816
-0.009036918 0.042384584 0.073672354 -0.010998609 -0.058916286 -0.019229194 0.056408893 0.010371553
0.036013808 -0.028820442 0.03851764 0.028308699 0.05058093 0.04846423 -0.024248885 0.067293316
-0.025927233 -0.06640537 0.07165223 -0.096081264 0.028217226 0.031095153 -0.04509472 -0.09541995
-0.13344173 -0.03043297 -0.0040269247 -0.028313093 -0.030223174 -0.013894976 0.039241124 -0.05017243
0.053214204 0.011006435 -0.08781415 0.10844914 -0.0034162719 -0.015563865 -0.015681738 -0.0037733405
0.027624363 0.087026425 0.055721223 0.033357855 0.0012857508 0.082434244 0.072405614 0.012159517
-0.0026479166 0.034886356 0.010495977 0.0023143592 -0.09898766 0.12133129 0.017378215 -0.0257627
0.044020005 -0.05050917 0.070295386 -0.052581914 0.036280394 0.16702332 0.022503685 0.0075911107
-0.057033174 0.033070087 0.009231193 0.051823135 0.08247272 0.09601298 -0.031009752 0.035984002
-0.004682425 -0.031389173 0.023944143 0.027756035 -0.033811368 -0.055713512 -0.11359914 -0.044930693
0.028506208 -0.14756514 -0.082230814 0.019483821 -0.014500141 0.036629345 -0.017514115 -0.0045794956
0.055083025 0.026136411 -0.017742066 0.0014142809 0.04518628 -0.04873545 -0.05363991 -0.024882138
0.051821046 -0.0808237 -0.04217431 0.061600313 0.053444766 -0.055241108 -0.018927723 -0.09121119
0.026529301 -0.04955208 -0.10811691 0.046705928 0.049601514 -0.05651952 0.029509751 0.03051134
0.036874264 0.07313174 0.06418841 0.014893472 -0.08593707 -0.039437905 0.021758694 -0.02940192
-0.015566836 0.051012713 0.020592215 0.064420864 -0.06383561 0.004565884 -0.07126284 0.012054193
0.030637821 0.027411679 0.023617446 -0.04057198 -0.04876252 -0.07680085 0.043915167 -0.040201217
0.06654062 -0.075288184 0.07328157 -0.019035578 0.07456151 -0.040250476 0.05264471 0.07238166
-0.06213264 0.045128696 -0.06512249 0.07615153 0.059115607 -0.004773779 0.03078259 0.068436556
-0.050249532 -0.045844167 0.07597251 0.095101014 -0.0939002 0.11342744 -0.05114959 -0.0519081
0.022975719 -0.07769828 -0.05686139 -0.0074440404 0.039396092 0.0065483986 0.03238216 0.008412399
-0.021312078 0.027667828 0.016341131 -0.09217583 -0.13741404 0.01706957 0.043033183 -0.059288293
0.0012986299 -0.005381248 0.020908743 -0.068881445 -0.052573554 0.058393173 -0.087299995 -0.05992638
00000000: 9a87 b6bd 20be a6bd 7c52 4cbd 5e60 b5bc
00000010: 9479 3a3d 732c c0bd 789d fb3d f4db 663d
00000020: 4a4a db3c b487 87bd afa0 d93c 783b 5c3d
00000030: ae7f 323c 214c e4bd 9789 57bd e247 263d
00000040: 1a12 373d 3bed 1c3d 2078 72bd a14b 103d
00000050: 32e4 823c 1b0c ad3b f99e a5bd e4b6 f0bc
00000060: c277 1939 5061 f3bb 271b 303d 4593 1cbd
00000070: 8ee7 883c 7631 4f3d 9ea9 41bd b4ba 22be
00000080: 362f 60bd 31bb 88bd c018 793c 73f1 a8bc
00000090: c662 e73c 88a8 12bd e9c6 3bbd 76c4 7cbb
000000a0: 1daa 653c 0d4e 943c c1cd 053d 346b c83d
000000b0: bc36 c4bc 78d8 3e3c db4a 7abd 2956 413d
000000c0: eb46 d53c 4d7d 183c 79ae 633b 9f21 8c3d
000000d0: 70ba 78bd cd00 09bd 1fa5 b4bd b32c 77bd
000000e0: df47 29bc 52ef 86bd f2a0 c13c f150 b1bb
000000f0: c5bf ebbc 58f1 25bc 6000 02bc e11c 56bd
00000100: 891d 82bd 789f 79bd da0c 2dbb 73a3 d03d
00000110: 89df f3bc 0e83 d4bc 17c5 9abd ec8d 14bd
00000120: 950f 14bc 759b 2d3d 88e1 963d 8233 34bc
00000130: 3452 71bd 8b86 9dbc 030d 673d 72ed 293c
00000140: 3783 133d d918 ecbc acc4 1d3d a5e7 e73c
00000150: f32d 4f3d 6e82 463d 99a5 c6bc 14d1 893d
00000160: 5965 d4bc 8aff 87bd 68be 923d 41c6 c4bd
00000170: d027 e73c 43bb fe3c 3eb5 38bd 896b c3bd
00000180: f3a4 08be 904e f9bc 4bf4 83bb dcf0 e7bc
00000190: 9796 f7bc c1a7 63bc 4dbb 203d 9b81 4dbd
000001a0: 23f7 593d 5654 343c e8d7 b3bd 951a de3d
000001b0: 88e3 5fbb 95ff 7ebc fd76 80bc 264a 77bb
000001c0: 7d4c e23c e93a b23d f03b 643d 3fa2 083d
000001d0: a386 a83a 49d3 a83d 6549 943d b638 473c
000001e0: ab88 2dbb ffe4 0e3d 51f7 2b3c 81ac 173b
000001f0: 0bba cabd 8a7c f83d c25c 8e3c 4c0c d3bc
00000200: 524e 343d b4e2 4ebd 07f7 8f3d 2260 57bd
00000210: c09a 143d 2908 2b3e a659 b83c dabe f83b
00000220: 9e9b 69bd 8074 073d 6e3e 173c 7f44 543d
00000230: 75e7 a83d 74a2 c43d 2a08 febc f663 133d
00000240: 076f 99bb ef91 00bd 8226 c43c a060 e33c
00000250: ca7d 0abd da33 64bd aaa6 e8bd 3f09 38bd
00000260: da85 e93c 511b 17be a168 a8bd 899c 9f3c
00000270: 0092 6dbc a708 163d c379 8fbc 980f 96bb
00000280: bd9e 613d 071c d63c cf57 91bc 645f b93a
00000290: 4015 393d d39e 47bd 86b5 5bbd a0d5 cbbc
000002a0: 4e42 543d e586 a5bd f8be 2cbd 9c50 7c3d
000002b0: e6e8 5a3d 8044 62bd 500e 9bbc efcc babd
000002c0: fa53 d93c 1ff7 4abd 666c ddbd b74e 3f3d
000002d0: f52a 4b3d 0381 67bd 6fbe f13c ebf2 f93c
000002e0: 7809 173d 18c6 953d 3775 833d c003 743c
000002f0: c6ff afbd a489 21bd 4a3f b23c 4cdc f0bc
00000300: 0b0c 7fbc b5f2 503d 01b1 a83c 16ef 833d
00000310: 3fbc 82bd 699d 953b 40f2 91bd f37e 453c
00000320: 2bfc fa3c 758e e03c 6079 c13c ce2e 26bd
00000330: 35bb 47bd c449 9dbd 64e0 333d 08aa 24bd
00000340: 7346 883d b130 9abd a614 963d 80f0 9bbc
00000350: b4b3 983d afdd 24bd fba1 573d d63c 943d
00000360: cc7e 7ebd ded8 383d f15e 85bd 55f5 9b3d
00000370: 3523 723d 5c6d 9cbb c52b fc3c 7728 8c3d
00000380: 74d2 4dbd 18c7 3bbd 7a97 9b3d 52c4 c23d
00000390: c04e c0bd a54c e83d 3c82 51bd 969d 54bd
000003a0: 9337 bc3c 4720 9fbd 7de7 68bd 23ed f3bb
000003b0: cc5d 213d f393 d63b 28a3 043d 29d4 093c
000003c0: ab96 aebc a4a7 e23c d6dd 853c aec6 bcbd
000003d0: 44b6 0cbe 7cd5 8b3c 9043 303d 48d8 72bd
000003e0: ca36 aa3a 2e55 b0bb d048 ab3c b711 8dbd
000003f0: 5e57 57bd ae2d 6f3d 57ca b2bd 5d75 75bd

functional_3_1/gru_6_1/gru_cell_1/Cast/ReadVariableOp/resource:0 f4 [64, 384]
0.00050433766 -0.045294497 0.070846446 -0.062074464 -0.048841573 -0.0026054806 0.049529128 -0.054062895
-0.0361433 0.06250751 -0.040891334 -0.10379015 0.059575897 -0.074299574 0.01741619 -0.00791335
0.007962318 -0.060307633 0.017185448 -0.08496127 -0.15340568 -0.06710443 -0.054404948 -0.049699936
0.04169016 -0.09311686 -0.046420258 0.008079632 0.07368266 0.049528286 -0.018154744 0.05549925
0.13477534 0.06574846 -0.03176502 0.081091955 0.08994048 -0.0021136394 -0.093404435 0.08601919
-0.06098211 0.021094132 0.035211027 -0.06519123 0.10143349 0.008784482 -0.0013329542 -0.087474056
-0.07980235 -0.13808052 0.07079759 -0.058536224 0.09235869 -0.086036935 -0.072533585 -0.056308728
0.047632143 -0.098562896 0.03722739 -0.09516182 -0.0994798 -0.0589068 -0.008265377 -0.002863933
0.04970162 0.06659503 -0.009224731 0.021099417 0.097011946 0.10026953 0.07605241 0.06398317
-0.05884625 0.12870139 0.044021107 0.0044124634 0.04563493 -0.0066976324 0.05964444 -0.121176705
0.13452531 0.055389166 0.004778048 -0.10096504 0.032488614 -0.08546114 -0.08050094 0.032971032
0.030105013 0.01432239 -0.032247767 -0.08731963 0.059823398 -0.052997798 -0.0072368598 0.08037442
-0.08828134 0.0122214835 0.04497344 -0.003642325 -0.09156777 0.08101555 0.09147777 0.08699748
-0.06012784 -0.01902222 0.016843488 0.102303185 0.03001904 0.030974329 0.105485454 0.11845779
-0.0019801045 -0.050788295 0.06082054 0.04914284 0.08521092 0.14833567 -0.091806956 0.051903255
-0.11710011 -0.076565936 -0.018471705 -0.04124276 -0.00048119342 -0.0102500515 0.11865848 -0.036607977
-0.0074174097 0.036826458 -0.050447084 0.08679064 -0.100292265 0.021908415 0.09838325 -0.049572803
-0.09631492 -0.09382201 0.11757457 0.08410623 0.043000333 -0.018707413 0.07254383 0.10920344
0.074336 -0.01095929 -0.0650722 -0.008508834 0.014742479 0.08623945 -0.007918492 0.113077514
-0.087653786 0.09554298 0.026518002 0.11864161 0.0805678 0.09471071 -0.086426795 -0.037856974
-0.026738321 -0.14822109 -0.036738634 -0.019076414 -0.061709844 -0.037031885 -0.09678146 0.011894723
0.18041024 0.08852317 0.07654513 -0.003553405 0.10067318 -0.06448147 0.07329468 -0.09817404
-0.04529047 0.12914816 0.03817294 0.08756311 0.05405179 0.09828391 0.051882144 0.037913807
-0.007230836 0.09716873 0.00020444102 -0.020489095 -0.096731775 -0.101587236 0.10305279 0.025452254
0.03466254 0.069725126 -0.014049298 -0.099103235 -0.12797822 -0.08131176 0.091790095 -0.101041526
-0.038400695 0.041873187 -0.019955417 -0.06990695 0.07363138 0.036551006 -0.011451762 0.058393754
-0.102795616 0.020762108 -0.11316369 -0.13490692 -0.048010327 0.037885077 -0.04967521 -0.0646946
0.054774847 -0.05989408 0.008765338 0.0749646 0.05754262 -0.13977066 -0.11800518 0.092545286
0.0897689 -0.06605674 0.093592666 -0.019227883 0.012060678 0.107984364 -0.0064331167 0.057972327
0.054887388 0.10693672 -0.06358972 -0.0629846 0.03595395 0.055350676 0.09398884 -0.062708214
0.048897617 -0.01738485 -0.025030538 0.10227397 -0.06904822 0.035991292 -0.07744978 -0.12251146
0.11440922 -0.035662126 -0.12190786 0.12133341 0.05859949 0.077033184 -0.07054973 -0.07381895
00000000: 8735 043a b986 39bd f117 913d cb41 7ebd
00000010: 1a0e 48bd b6c0 2abb 0edf 4a3d 0e71 5dbd
00000020: ff0a 14bd f003 803d ac7d 27bd ee8f d4bd
00000030: db05 743d 602a 98bd 66ac 8e3c ffa6 01bc
00000040: 6274 023c 2305 77bd 7fc8 8c3c 2d00 aebd
00000050: 6116 1dbe 0c6e 89bd b9d7 5ebd 2992 4bbd
00000060: 4dc3 2a3d 0db4 bebd 2b23 3ebd 6f60 043c
00000070: efe6 963d 2cde 4a3d 42b9 94bc 2e53 633d
00000080: 8c02 0a3e 21a7 863d 0a1c 02bd 8a13 a63d
00000090: b732 b83d fc84 0abb d34a bfbd d42a b03d
000000a0: 61c8 79bd 9acd ac3c 7039 103d fb82 85bd
000000b0: 5dbc cf3d caec 0f3c 85b6 aeba 9925 b3bd
000000c0: 6a6f a3bd fb64 0dbe 54fe 903d aec3 6fbd
000000d0: 8e26 bd3d 2234 b0bd 7d8c 94bd fba3 66bd
000000e0: ec19 433d 58db c9bd bf7b 183d 33e4 c2bd
000000f0: 11bc cbbd 4248 71bd 816b 07bc d3b0 3bbb
00000100: ed93 4b3d fa62 883d 5323 17bc afd8 ac3c
00000110: 33ae c63d 1d5a cd3d 5ec1 9b3d 9c09 833d
00000120: c408 71bd 4cca 033e 7a4f 343d 6d96 903b
00000130: b1eb 3a3d d077 dbbb ba4d 743d 7e2b f8bd
00000140: 01c1 093e c0df 623d 2c91 9c3b c2c6 cebd
00000150: c812 053d 4006 afbd addd a4bd a20c 073d
00000160: ca9e f63c 75a8 6a3c 3c16 04bd a2d4 b2bd
00000170: 6109 753d 3814 59bd 2e23 edbb 589b a43d
00000180: d9cc b4bd 9e3c 483c 1236 383d 13b4 6ebb
00000190: e287 bbbd 7beb a53d b258 bb3d bc2b b23d
000001a0: 9c48 76bd 7dd4 9bbc 5bfb 893c 5584 d13d
000001b0: 7dea f53c e0bd fd3c c208 d83d ff99 f23d
000001c0: a4c4 01bb 6307 50bd f51e 793d 014a 493d
000001d0: 1083 ae3d 4ee5 173e 4905 bcbd 8298 543d
000001e0: 2fd2 efbd 9ace 9cbd f951 97bc 2bee 28bd
000001f0: b048 fcb9 d5ef 27bc 3803 f33d 3ff2 15bd
00000200: be0d f3bb 57d7 163d 9aa1 4ebd 4bbf b13d
00000210: 0866 cdbd 4779 b33c 287d c93d da0c 4bbd
00000220: c240 c5bd c125 c0bd f0ca f03d e33f ac3d
00000230: 1e21 303d 4a40 99bc dc91 943d 0ea6 df3d
00000240: 793d 983d 988e 33bc 9344 85bd a368 0bbc
00000250: 708a 713c 4f9e b03d 90bc 01bc 2f95 e73d
00000260: d483 b3bd 0aac c33d 483c d93c 5ffa f23d
00000270: bb00 a53d b0f7 c13d 8800 b1bd ea0f 1bbd
00000280: 530a dbbc 45c7 17be 407b 16bd 2446 9cbc
00000290: 76c3 7cbd bfae 17bd 5c35 c6bd 16e2 423c
000002a0: 76bd 383e a34b b53d b1c3 9c3d 3ee0 68bb
000002b0: bd2d ce3d dc0e 84bd 851b 963d 790f c9bd
000002c0: 8082 39bd 6a3f 043e 3b5b 1c3d 4a54 b33d
000002d0: 6965 5d3d 1349 c93d 5f82 543d 824b 1b3d
000002e0: a6f0 ecbb 6600 c73d 385f 5639 bfd8 a7bc
000002f0: 4f1b c6bd f80c d0bd 570d d33d 3f81 d03c
00000300: 4ffa 0d3d 0ccc 8e3d 072f 66bc a3f6 cabd
00000310: b90c 03be c886 a6bd 72fc bb3d dcee cebd
00000320: 0c4a 1dbd 3883 2b3d 8b79 a3bc 602b 8fbd
00000330: 0dcc 963d 82b6 153d 2ca0 3bbc 4a2e 6f3d
00000340: 8286 d2bd 4c15 aa3c 5dc2 e7bd 0a25 0abe
00000350: 7aa6 44bd 622d 1b3d 3c78 4bbd 9a7e 84bd
00000360: 975b 603d 7f53 75bd 7e9c 0f3c 0a87 993d
00000370: cfb1 6b3d 0a20 0fbe b3ac f1bd 6288 bd3d
00000380: c2d8 b73d c248 87bd 83ad bf3d cb83 9dbc
00000390: 269a 453c e826 dd3d e5cc d2bb 6474 6d3d
000003a0: 99d1 603d a401 db3d 543b 82bd 12fe 80bd
000003b0: 7344 133d 64b7 623d 397d c03d 2a6d 80bd
000003c0: de48 483d ac6a 8ebc d80c cdbc 0475 d13d
000003d0: 2769 8dbd 9b6b 133d fe9d 9ebd 4ae7 fabd
000003e0: 624f ea3d 7312 12bd d4aa f9bd a77d f83d
000003f0: 0506 703d 93c3 9d3d 607c 90bd 642e 97bd

functional_3_1/dense_7_1/Cast/ReadVariableOp:0 f4 [128, 2]
-0.15314119 -0.121802114 0.12827209 -0.1924464 -0.12335101 -0.13708203 -0.12867248 -0.027117942
-0.023175128 -0.06232358 0.093742855 0.091020636 0.12869877 0.15560712 0.12457614 0.11146061
0.1049908 -0.005579646 -0.18408704 -0.1855408 0.124201 0.069149874 0.12559669 0.04730194
-0.025361646 0.13596071 3.573254e-05 0.1566349 -0.065051734 -0.16030942 0.11144476 -0.15682699
-0.008831034 -0.10915037 0.1487623 -0.12157617 -0.08018742 0.09483305 -0.05756802 0.095262885
-0.06865155 0.14915977 0.0348021 -0.1093871 -0.16187447 -0.12376725 0.03610196 -0.12770963
-0.14673202 0.015071957 0.046660937 -0.120847516 -0.068952285 0.03030466 -0.18659006 -0.14438196
-0.008568695 -0.1140095 0.12510818 -0.059858702 0.08212288 -0.0074411645 -0.039328735 0.00352099
-0.010975019 0.09095843 0.11690793 0.122902885 -0.14342567 0.025223633 0.050476786 0.0921176
0.15003806 0.056916658 -0.0048991656 0.07025798 -0.15206462 0.06185731 -0.050803326 0.02381783
-0.18794392 -0.15702397 0.0022440369 -0.025253326 -0.06392487 0.11280364 -0.13116321 -0.08320294
-0.01274596 -0.13502456 -0.064174056 0.14302571 0.15509453 -0.061456706 0.022833847 -0.13011827
-0.12974651 -0.076887764 -0.017048126 -0.031159805 0.14603165 -0.12680429 -0.11560106 0.031974625
0.12516527 -0.1114697 -0.03405412 -0.1330069 -0.13546437 -0.11458628 -0.037150875 0.039179932
-0.042040333 0.08634126 0.16017269 0.14879932 -0.0023608387 -0.07527971 0.055088356 0.18266024
0.104130544 0.1069677 0.14185074 0.072112605 0.13096851 0.07210844 -0.1675965 -0.002825817
-0.022199228 0.12303756 0.092634395 0.005717305 0.12561117 0.13060679 0.09963823 0.11317552
-0.12509567 0.016966986 0.048697453 -0.09154633 0.05016263 -0.07285649 -0.138855 -0.17653695
0.09265829 0.12698986 -0.14460713 0.074291095 -0.16102009 -0.07883552 0.13324589 0.12713104
-0.10616972 0.069650345 -0.12610115 -0.18243639 0.12672397 0.0009855963 -0.18301675 -0.19384187
-0.019533593 0.11129836 0.053188637 -0.02662876 0.10077243 0.11369388 0.030412845 -0.118062615
-0.15650557 -0.19139588 -0.069818854 -0.071234666 -0.009161833 0.052589726 0.02979982 0.022289667
-0.062368765 -0.11060126 0.16348918 0.061932642 0.18202406 0.04198669 0.0079622585 0.08835483
0.16007419 0.009816526 -0.13553149 -0.18376541 0.11513564 0.11763909 0.14352997 -0.074281596
0.14268425 0.17969313 0.04389046 0.18007204 0.15801772 0.067047656 0.048085347 -0.06470488
-0.1552763 -0.14309108 0.08681022 -0.13307586 0.08201994 0.015061936 -0.010395182 0.006298912
-0.09870511 -0.12623021 -0.16137406 0.006089602 -0.003415612 -0.07543329 0.02591034 0.09143819
-0.07590693 -0.009124726 0.03203379 0.04344215 0.079314865 0.06034105 0.008429699 0.0074680434
-0.15891697 0.09712959 -0.17318168 -0.18089755 0.01185151 -0.14555523 -0.012140872 0.11869634
-0.0781026 -0.03326248 -0.14070149 -0.11537857 -0.19251487 -0.14313845 0.054940663 0.012304619
0.16968375 0.18679613 -0.04627841 0.0061866264 0.114779055 -0.0934988 0.17016122 0.10326625
-0.026976544 0.044063143 0.016050404 -0.050627057 0.17661901 0.19398136 -0.15942276 0.041205924
00000000: 0bd1 1cbe 6373 f9bd c259 033e ab10 45be
00000010: 749f fcbd 3b5f 0cbe b8c2 03be 7226 debc
00000020: c4d9 bdbc 0347 7fbd 41fc bf3d 0769 ba3d
00000030: 9cc9 033e 7957 1f3e c621 ff3d 7645 e43d
00000040: 6b05 d73d 77d5 b6bb 5081 3cbe 68fe 3dbe
00000050: 185d fe3d 739e 8d3d 6b9c 003e aebf 413d
00000060: 3ac3 cfbc 4939 0b3e 86df 1538 e664 203e
00000070: d839 85bd 2728 24be 263d e43d 4197 20be
00000080: 0bb0 10bc 3b8a dfbd 2555 183e edfc f8bd
00000090: 4d39 a4bd d537 c23d 72cc 6bbd 3019 c33d
000000a0: 2f99 8cbd 57bd 183e a68c 0e3d 5806 e0bd
000000b0: 6cc2 25be af79 fdbd a6df 133d 50c6 02be
000000c0: eb40 16be 5ff0 763c 8a1f 3f3d e77e f7bd
000000d0: db36 8dbd 7a41 f83c 7711 3fbe ddd8 13be
000000e0: b663 0cbc d07d e9bd 5c1c 003e 662e 75bd
000000f0: 0a30 a83d 03d5 f3bb 2b17 21bd 69c0 663b
00000100: 91d0 33bc 6a48 ba3d 6d6d ef3d 82b4 fb3d
00000110: 2ede 12be cba1 ce3c bfc0 4e3d 27a8 bc3d
00000120: 94a3 193e 7121 693d 2e89 a0bb 6ae3 8f3d
00000130: d4b6 1bbe 175e 7d3d 2617 50bd 9c1d c33c
00000140: 5f74 40be e4ca 20be b110 133b 10e0 cebc
00000150: 0beb 82bd 9805 e73d a64f 06be 4e66 aabd
00000160: 6ed4 50bc e143 0abe b06d 83bd 5575 123e
00000170: 1ad1 1e3e 07ba 7bbd 0c0e bb3c b93d 05be
00000180: 45dc 04be 5577 9dbd 83a8 8bbc d942 ffbc
00000190: 5289 153e fcd8 01be 40c0 ecbd d3f7 023d
000001a0: 532b 003e 3a4a e4bd 557c 0bbd f632 08be
000001b0: 2cb7 0abe 36ac eabd 842b 18bd 237b 203d
000001c0: 7c32 2cbd b0d3 b03d 4f04 243e d95e 183e
000001d0: 4db8 1abb 402c 9abd 54a4 613d 490b 3b3e
000001e0: 6542 d53d e211 db3d 5241 113e c6af 933d
000001f0: 9c1c 063e 97ad 933d 6b9e 2bbe 5831 39bb
00000200: 28db b5bc 1efb fb3d 1ab7 bd3d 3b58 bb3b
00000210: 37a0 003e c9bd 053e 210f cc3d 91c8 e73d
00000220: 1419 00be 59fe 8a3c fb76 473d a47c bbbd
00000230: 5477 4d3d c935 95bd 0130 0ebe 1ac6 34be
00000240: a1c3 bd3d a109 023e e413 14be ee25 983d
00000250: 73e2 24be 8474 a1bd 9c71 083e a42e 023e
00000260: 836f d9bd d7a4 8e3d a920 01be 9bd0 3abe
00000270: eec3 013e 202f 813a be68 3bbe 7c7e 46be
00000280: ea04 a0bc 65f0 e33d 54dc 593d 8f24 dabc
00000290: c761 ce3d 56d8 e83d 5c24 f93c d0ca f1bd
000002a0: ff42 20be 48fd 43be 30fd 8ebd 7be3 91bd
000002b0: 831b 16bc 5368 573d c11e f43c d298 b63c
000002c0: 6476 7fbd ea82 e2bd b569 273e 15ad 7d3d
000002d0: 8464 3a3e 3cfa 2b3d 2274 023c 61f3 b43d
000002e0: 7dea 233e 7fd5 203c c4c8 0abe 002d 3cbe
000002f0: 3ccc eb3d c3ec f03d 85f9 123e f320 98bd
00000300: d21b 123e 7a01 383e 7cc6 333d ce64 383e
00000310: 66cf 213e 4850 893d 24f5 443d fe83 84bd
00000320: c000 1fbe 7886 12be 8ec9 b13d 0a45 08be
00000330: 12fa a73d 57c6 763c 8e50 2abc 1b67 ce3b
00000340: e825 cabd 7e42 01be 3e3f 25be 498b c73b
00000350: 76d8 5fbb c57c 9abd ec41 d43c f243 bb3d
00000360: 1875 9bbd e07f 15bc dd35 033d 65f0 313d
00000370: d56f a23d 2d28 773d b81c 0a3c 7db6 f43b
00000380: 21bb 22be e1eb c63d 8a56 31be 353d 39be
00000390: d62c 423c 6e0c 15be 82ea 46bc 1117 f33d
000003a0: 42f4 9fbd 3d3e 08bd 0d14 10be 9a4b ecbd
000003b0: 9e22 45be e392 12be 7609 613d 5099 493c
000003c0: 94c1 2d3e 7c47 3f3e 6e8e 3dbd 2fb9 ca3b
000003d0: 4811 eb3d 4d7c bfbd be3e 2e3e 417d d33d
000003e0: eafd dcbc 8e7b 343d 237c 833c 515e 4fbd
000003f0: 9ddb 343e 0da3 463e b83f 23be 8bc7 283d

functional_3_1/dense_7_1/BiasAdd/ReadVariableOp:0 f4 [2]
0.008150635 -0.008150641
00000000: 3e8a 053c 448a 05bc
