model112.onnx (onnx, 609745 bytes, 18 tensors)

functional_1_1/gru_3_1/gru_cell_1/split/ReadVariableOp/resource:0 f4 [2, 192]
0.019929547 0.028473347 0.058079377 0.051035155 0.1391031 0.1691695 0.1273284 0.05344503
0.014062899 0.09286042 0.0875417 -0.020237612 0.06923845 0.01504359 0.007228134 0.11232615
0.02873757 0.1297778 0.011629958 0.14501433 0.016975163 0.010802584 0.072659604 0.1357037
0.08678488 0.09641534 0.09646138 0.14761584 -0.00087460846 -0.011234228 0.059705522 0.09451569
0.1331108 -0.010447554 0.036226537 0.06853338 0.034405567 0.00760546 0.04385289 0.10444652
0.06681884 -0.033882253 0.107979015 0.04696871 0.10154226 0.032911863 0.005808081 0.09658438
0.05600635 0.07822115 0.056153305 0.07402046 0.100496635 -0.059123352 -0.097298004 -0.04684026
0.1012217 0.03504329 0.100512326 0.124790795 -0.112277426 0.11494198 0.06738104 0.0550731
-0.095869385 0.002549855 0.049707226 -0.0043598884 -0.029098963 -0.015166501 -0.12019824 -0.033079755
-0.011479269 -0.06964398 -0.04375277 0.009752059 -0.09837943 0.008852036 0.023578798 -0.09475872
-0.096545845 -0.08553088 -0.111143745 -0.04133465 -0.0045476593 -0.02068318 -0.08012555 -0.035870805
-0.03697179 -0.06734 -0.014426849 -0.08092115 -0.03548204 -0.04402316 -0.08633179 -0.070321746
0.009270017 -0.022879036 -0.06152897 -0.12458595 -0.050237607 -0.058017362 -0.03547386 -0.092744574
-0.008845446 -0.008567707 -0.050302304 -0.06313069 -0.12678002 -0.035598777 -0.039239224 -0.029813638
-0.06573705 -0.044957 -0.11997482 -0.108896315 -0.056141794 0.026355827 -0.054515906 0.026479434
-0.023251327 0.015528217 -0.06183414 -0.059164546 -0.032694627 -0.023897963 -0.042352725 -0.036133226
0.029244935 -0.0027497727 -0.017895237 0.00030861684 0.026228955 -0.030608159 0.02943501 -0.003658707
0.034762986 0.004307973 -0.03530089 0.026991569 0.027717162 0.024747612 -0.005242575 0.028577635
-0.01950015 -0.0019782835 0.03080675 -0.023409419 0.007276663 -0.026292846 -0.03883303 -0.034850545
-0.00941498 0.0002537886 0.046820562 -0.0006212891 -0.024198096 0.020125628 0.011244796 -0.019203413
-0.086246654 0.0896338 0.016031973 0.008789665 0.03224553 -0.0010477589 -0.008167517 0.015747003
0.031050423 -0.007571759 0.0076448238 0.011965982 -0.0060614883 0.056440126 0.021191472 -0.05533609
0.025649786 0.07007467 0.007476231 0.028057568 0.013808276 -0.06420177 0.008554036 -0.042764056
0.02979844 -0.03548331 0.025742345 0.039315384 -0.0186751 -0.032236144 -0.007817967 -0.04799841
0.019929547 0.028473347 0.058079377 0.051035155 0.1391031 0.1691695 0.1273284 0.05344503
0.014062899 0.09286042 0.0875417 -0.020237612 0.06923845 0.01504359 0.007228134 0.11232615
0.02873757 0.1297778 0.011629958 0.14501433 0.016975163 0.010802584 0.072659604 0.1357037
0.08678488 0.09641534 0.09646138 0.14761584 -0.00087460846 -0.011234228 0.059705522 0.09451569
0.1331108 -0.010447554 0.036226537 0.06853338 0.034405567 0.00760546 0.04385289 0.10444652
0.06681884 -0.033882253 0.107979015 0.04696871 0.10154226 0.032911863 0.005808081 0.09658438
0.05600635 0.07822115 0.056153305 0.07402046 0.100496635 -0.059123352 -0.097298004 -0.04684026
0.1012217 0.03504329 0.100512326 0.124790795 -0.112277426 0.11494198 0.06738104 0.0550731
00000000: 4a43 a33c f040 e93c a4e4 6d3d 3d0a 513d
00000010: 0b71 0e3e c53a 2d3e 6062 023e 2de9 5a3d
00000020: 1368 663c 9b2d be3d 1049 b33d 59c9 a5bc
00000030: e3cc 8d3d 6479 763c fcd9 ec3b 410b e63d
00000040: 0d6b eb3c 79e4 043e 948b 3e3c a37e 143e
00000050: 7f0f 8b3c 52fd 303c 8fce 943d e9f5 0a3e
00000060: 45bc b13d 6875 c53d 8b8d c53d 9b28 173e
00000070: fb45 65ba c40f 38bc c78d 743d 7191 c13d
00000080: 334e 083e 382c 2bbc 4762 143d 3b5b 8c3d
00000090: daec 0c3d 3937 f93b 179f 333d 0fe8 d53d
000000a0: 51d8 883d 1ec8 0abd 1a24 dd3d 4362 403d
000000b0: 63f5 cf3d 97ce 063d b751 be3b 08ce c53d
000000c0: ea66 653d 6932 a03d 0201 663d 0a98 973d
000000d0: 2ed1 cd3d 542b 72bd 2d44 c7bd 93db 3fbd
000000e0: 534d cf3d 8e89 0f3d 68d9 cd3d 5192 ff3d
000000f0: b5f1 e5bd b366 eb3d 12ff 893d 5594 613d
00000100: 2b57 c4bd 781b 273b ce99 4b3d 65dd 8ebb
00000110: f360 eebc ea7c 78bc 7f2a f6bd a37e 07bd
00000120: 8b13 3cbc 81a1 8ebd 1b36 33bd 1ac7 1f3c
00000130: 287b c9bd 2108 113c 5328 c13c dc10 c2bd
00000140: d4b9 c5bd d02a afbd 559f e3bd 864e 29bd
00000150: 8804 95bb c66f a9bc dd18 a4bd 44ed 12bd
00000160: bb6f 17bd 8ee9 89bd 975e 6cbc fdb9 a5bd
00000170: 9e55 11bd a151 34bd b9ce b0bd d904 90bd
00000180: 45e1 173c d16c bbbc cd05 7cbd eb26 ffbd
00000190: f3c5 4dbd 9da3 6dbd 0a4d 11bd def0 bdbd
000001a0: 7dec 10bc 915f 0cbc ca09 4ebd aa4a 81bd
000001b0: 9fd2 01be 06d0 11bd 4fb9 20bd bb3b f4bc
000001c0: 25a1 86bd d524 38bd 5cb5 f5bd 0805 dfbd
000001d0: f0f4 65bd 2de8 d73c 124c 5fbd 66eb d83c
000001e0: 9179 bebc 106a 7e3c cc45 7dbd 8656 72bd
000001f0: cdea 05bd a9c5 c3bc 0d7a 2dbd 6f00 14bd
00000200: 1393 ef3c 8835 34bb 0899 92bc dacd a139
00000210: 1bde d63c f6bd fabc b121 f13c ebc6 6fbb
00000220: a263 0e3d e629 8d3b ab97 10bd 6c1d dd3c
00000230: 1a0f e33c 81bb ca3c e8c9 abbb a51b ea3c
00000240: c7be 9fbc 17a6 01bb 705e fc3c 1cc5 bfbc
00000250: 1371 ee3b 1864 d7bc 620f 1fbd 72bf 0ebd
00000260: 4a41 1abc ee0e 8539 ebc6 3f3d 01de 22ba
00000270: 163b c6bc 80de a43c 183c 383c 7a50 9dbc
00000280: 16a2 b0bd ed91 b73d 7c55 833c 8702 103c
00000290: e413 043d f454 89ba 0dd1 05bc dcff 803c
000002a0: 755d fe3c 851c f8bb 6e81 fa3b f70c 443c
000002b0: 739f c6bb c32d 673d bd99 ad3c 19a8 62bd
000002c0: 801f d23c 4f83 8f3d 2cfb f43b fcd8 e53c
000002d0: 1b3c 623c 387c 83bd 3a26 0c3c 5d29 2fbd
000002e0: dc1b f43c f356 11bd 9ce1 d23c 2b09 213d
000002f0: 86fc 98bc 0c0a 04bd ee16 00bc fb99 44bd
00000300: 4a43 a33c f040 e93c a4e4 6d3d 3d0a 513d
00000310: 0b71 0e3e c53a 2d3e 6062 023e 2de9 5a3d
00000320: 1368 663c 9b2d be3d 1049 b33d 59c9 a5bc
00000330: e3cc 8d3d 6479 763c fcd9 ec3b 410b e63d
00000340: 0d6b eb3c 79e4 043e 948b 3e3c a37e 143e
00000350: 7f0f 8b3c 52fd 303c 8fce 943d e9f5 0a3e
00000360: 45bc b13d 6875 c53d 8b8d c53d 9b28 173e
00000370: fb45 65ba c40f 38bc c78d 743d 7191 c13d
00000380: 334e 083e 382c 2bbc 4762 143d 3b5b 8c3d
00000390: daec 0c3d 3937 f93b 179f 333d 0fe8 d53d
000003a0: 51d8 883d 1ec8 0abd 1a24 dd3d 4362 403d
000003b0: 63f5 cf3d 97ce 063d b751 be3b 08ce c53d
000003c0: ea66 653d 6932 a03d 0201 663d 0a98 973d
000003d0: 2ed1 cd3d 542b 72bd 2d44 c7bd 93db 3fbd
000003e0: 534d cf3d 8e89 0f3d 68d9 cd3d 5192 ff3d
000003f0: b5f1 e5bd b366 eb3d 12ff 893d 5594 613d

functional_1_1/gru_3_1/gru_cell_1/Cast_1/ReadVariableOp/resource:0 f4 [64, 192]
0.018321715 0.10800759 0.10867833 0.14504765 0.042917874 0.122921154 0.21164332 -0.008604765
-0.10109504 -0.17542213 0.101925865 -0.08334241 0.004703318 -0.05237247 0.058619164 -0.05733696
0.06371483 0.07424025 -0.06088117 -0.1497559 -0.1628647 -0.030577578 -0.06416142 0.22040862
-0.0009040908 -0.068178795 0.014699853 0.1150846 -0.011284639 -0.045643415 0.13717757 0.12020797
0.03659506 -0.017111145 0.018400379 -0.080148384 0.04971962 0.148399 0.17686346 0.13261487
0.12032845 0.15763819 0.07162826 -0.029707104 0.033239465 0.03229394 0.15928201 0.2508192
0.04294405 -0.024617502 0.037399646 0.1504243 0.082235225 0.02148438 -0.015455859 -0.005887079
-0.031928644 -0.13949963 0.084719785 0.15125775 -0.08052241 0.09442246 0.08252744 -0.06801737
-0.08798948 -0.086642385 0.009674684 -0.013558977 0.0630523 0.13590284 0.07219916 -0.04844279
-0.0012351689 -0.08894889 -0.049108572 -0.007684084 -0.038290087 -0.0758623 0.040840484 0.15331677
-0.09426708 0.069792405 -0.0747353 -0.0434915 0.16174336 0.021291485 -0.011175062 -0.08774229
-0.07179284 0.006847431 0.09919341 0.0023492523 0.030525025 -0.064949505 0.0045785247 -0.0061420402
-0.05576548 -0.063420005 0.06201936 0.055458333 -0.038407803 -0.11521467 -0.05689566 -0.018060084
-0.066156976 -0.19385111 0.0015737448 0.08334436 -0.1399442 0.16400428 -0.028607901 -0.07899123
-0.051182356 -0.18291877 -0.003524051 0.00023388006 -0.064930096 0.0800966 0.06462504 -0.07015518
0.027886596 -0.0045936904 0.004367314 -0.09401289 0.018584887 -0.025796548 -0.09426921 -0.13666132
-0.038633592 -0.055333238 0.0019078051 -0.03166424 -0.041556392 -0.06758515 -0.064872265 0.10364302
0.018255688 -0.016994102 -0.057753384 -0.011742257 -0.040344168 -0.13638902 -0.12102565 0.04097516
-0.07200408 0.14250594 0.13949138 -0.090602405 0.111145504 0.04716791 0.0783526 -0.019792952
-0.04289611 -0.10798527 0.121990435 0.055720456 0.05965922 0.0437369 0.042735867 -0.057149023
0.051915705 -0.045085404 -0.07848284 0.094113894 -0.023301065 -0.0030157464 0.08269105 -0.064927384
0.026916804 -0.0074783694 -0.14792475 0.045673534 0.08892465 0.09220824 -0.04236399 0.053854745
0.032190055 0.086655244 0.0044408944 -0.0072120703 0.055794567 -0.07113158 -0.016978377 0.091653384
0.029314095 -0.081997015 0.11040523 0.0132715795 0.035970647 0.02473186 0.28271502 0.027021304
0.10882882 -0.050626125 0.04508079 -0.039549608 -0.08259396 -0.037181012 -0.116285115 0.052219868
-0.00831742 0.02848857 -0.10810426 0.07641341 -0.03324998 -0.017960465 -0.011652756 -0.113806255
-0.07708519 0.024185566 -0.12946285 -0.07809093 0.066510424 0.031063545 0.14364567 -0.018238226
-0.052264106 0.032096744 -0.16175221 0.09267273 0.00017716584 0.0753662 -0.13333242 0.06460805
0.007549924 -0.12247669 -0.036763225 0.08491283 -0.1360501 -0.0167611 0.14509875 -0.08158731
-0.04044314 0.043887287 -0.10121387 0.06275817 -0.013114189 0.06449402 0.023928184 0.08741381
-0.0014610938 -0.061556257 0.010536596 -0.03679137 0.019161932 0.124226384 0.1445076 -0.0537257
-0.0006186363 0.020318203 -0.03303218 0.011915514 -0.00013768679 -0.03835966 -0.08210783 -0.14201403
00000000: 6c17 963c 1533 dd3d bf92 de3d 5f87 143e
00000010: a7ca 2f3d 16be fb3d 07b9 583e 00fb 0cbc
00000020: eb0a cfbd dca1 33be 82be d03d 6daf aabd
00000030: 4a1e 9a3b 8484 56bd a61a 703d 29da 6abd
00000040: ec7c 823d 460b 983d 895e 79bd 9c59 19be
00000050: 01c6 26be d47d fabc 1067 83bd ccb2 613e
00000060: 8200 6dba 53a1 8bbd a7d7 703c 7ab1 eb3d
00000070: 35e3 38bc 97f4 3abd 4778 0c3e 992f f63d
00000080: b4e4 153d ac2c 8cbc 64bc 963c d624 a4bd
00000090: cda6 4b3d e8f5 173e b21b 353e 31cc 073e
000000a0: c36e f63d e86b 213e d6b1 923d 505c f3bc
000000b0: 1b26 083d a746 043d d31a 233e 606b 803e
000000c0: 1ae6 2f3d a5aa c9bc 5f30 193d d408 1a3e
000000d0: f16a a83d 0300 b03c 923a 7dbc 66e8 c0bb
000000e0: 9cc7 02bd fed8 0ebe 9181 ad3d 50e3 1a3e
000000f0: efe8 a4bd 9060 c13d 2504 a93d b14c 8bbd
00000100: d433 b4bd 9071 b1bd 9182 1e3c 7926 5ebc
00000110: 9021 813d 1d2a 0b3e 27dd 933d f26b 46bd
00000120: 64e5 a1ba d62a b6bd 1226 49bd c5ca fbbb
00000130: 11d6 1cbd b25d 9bbd 5a48 273d 12ff 1c3e
00000140: 190f c1bd 52ef 8e3d d20e 99bd 2524 32bd
00000150: 0da0 253e 7b6b ae3c 9b17 37bc 3bb2 b3bd
00000160: 2008 93bd 6a60 e03b ea25 cb3d eaf5 193b
00000170: 9e0f fa3c 3f04 85bd 7307 963b 2b43 c9bb
00000180: 586a 64bd 59e2 81bd 0308 7e3d 4728 633d
00000190: 8051 1dbd abf5 ebbd 6c0b 69bd bef2 93bc
000001a0: 4f7d 87bd e880 46be 1d46 ce3a 73b0 aa3d
000001b0: 884d 0fbe bdf0 273e 1e5b eabc 27c6 a1bd
000001c0: 97a4 51bd 0f4f 3bbe c4f3 66bb b33d 7539
000001d0: 12fa 84bd b009 a43d 225a 843d 85ad 8fbd
000001e0: 6e72 e43c ab86 96bb af1b 8f3b d489 c0bd
000001f0: 553f 983c 4853 d3bc 3710 c1bd f2f0 0bbe
00000200: 423e 1ebd 1ba5 62bd 510f fa3a 5db2 01bd
00000210: 0937 2abd 156a 8abd c0db 84bd cb42 d43d
00000220: f48c 953c 3737 8bbc d08e 6cbd 9862 40bc
00000230: ed3f 25bd 90a9 0bbe 4cdc f7bd 92d5 273d
00000240: e076 93bd 14ed 113e d4d6 0e3e c18d b9bd
00000250: 41a0 e33d 2333 413d 5477 a03d d424 a2bc
00000260: d5b3 2fbd 6227 ddbd 1fd6 f93d 223b 643d
00000270: 3a5d 743d 7725 333d ce0b 2f3d 1815 6abd
00000280: 90a5 543d 79ab 38bd 9cbb a0bd c9be c03d
00000290: e0e1 bebc d4a3 45bb ed59 a93d a6f8 84bd
000002a0: a180 dc3c 1c0d f5bb 9679 17be 2c14 3b3d
000002b0: 201e b63d acd7 bc3d dd85 2dbd cb96 5c3d
000002c0: b8d9 033d 4e78 b13d ec84 913b 3b53 ecbb
000002d0: d888 643d 6fad 91bd 3d16 8bbc c5b4 bb3d
000002e0: 1d24 f03c 0dee a7bd 231c e23d 0a71 593c
000002f0: f555 133d 789a ca3c 06c0 903e c85b dd3c
00000300: a5e1 de3d 575d 4fbd a2a6 383d c5fe 21bd
00000310: 0627 a9bd 1e4b 18bd e426 eebd 80e4 553d
00000320: ca45 08bc dd60 e93c c465 ddbd a27e 9c3d
00000330: 2231 08bd d321 93bc 33eb 3ebc 4113 e9bd
00000340: d7de 9dbd cf20 c63c e991 04be 23ee 9fbd
00000350: 9e36 883d fa78 fe3c da17 133e 5568 95bc
00000360: e312 56bd e077 033d 5fa2 25be 33cb bd3d
00000370: 98c5 3939 9859 9a3d 4b88 08be 3a51 843d
00000380: 5a65 f73b 0fd5 fabd 0995 16bd c7e6 ad3d
00000390: b850 0bbe 934e 89bc c494 143e 3f17 a7bd
000003a0: b5a7 25bd 28c3 333d 3849 cfbd 5b87 803d
000003b0: e5dc 56bc 7115 843d 0a05 c43c 0306 b33d
000003c0: 2c82 bfba 6a22 7cbd b0a1 2c3c 8cb2 16bd
000003d0: 7cf9 9c3c 676a fe3d cdf9 133e 7b0f 5cbd
000003e0: fb2b 22ba 5c72 a63c c04c 07bd 4a39 433c
000003f0: 0460 10b9 051f 1dbd 2628 a8bd 206c 11be

functional_1_1/gru_3_1/gru_cell_1/Cast/ReadVariableOp/resource:0 f4 [128, 192]
-0.07747495 0.16351631 0.095329225 -0.057129387 -0.097858086 -0.14999439 0.18871842 -0.040925283
0.08580423 0.100467294 -0.08649875 0.11219371 -0.08122064 -0.08116464 -0.028031036 0.013085069
-0.0015253465 0.095027365 0.086343996 0.090253904 0.058479782 0.16916154 -0.18605961 0.14624779
-0.11853476 -0.1053882 0.08678766 -0.08421061 0.007033505 0.14349201 0.058435798 -0.11195904
0.113772646 0.112213075 0.14824152 -0.02150723 -0.02984811 0.05495683 0.03416053 0.109812595
0.025308004 -0.042831276 0.14856173 0.14859293 0.05580811 -0.26284927 0.18640684 -0.027600598
-0.06323919 -0.16161112 -0.043858595 -0.036171038 0.12525633 -0.07993236 -0.030758789 -0.024462178
-0.18485653 -0.075593136 -0.15649758 -0.028964369 -0.014448418 -0.16261539 0.047915164 0.057011396
-0.1481375 0.05040681 -0.09170632 -0.07241393 -0.07148119 0.11264021 -0.029415514 0.10894909
-0.06794359 0.119654514 0.16733521 -0.13112526 0.050305214 -0.055849012 0.18334697 0.1840172
-0.07565126 -0.03918909 0.025805071 -0.13010418 0.0826751 0.06285018 -0.031225292 0.085761465
0.11238797 0.057051994 -0.08121922 -0.122485496 -0.056438137 -0.08407047 0.049370334 0.073395126
-0.14015955 -0.038930297 -0.14039746 -0.052838076 0.07836163 -0.10359213 -0.114491254 0.077088855
-0.026473207 -0.10829327 0.0136336265 -0.02279422 -0.010011605 0.1572686 0.04798125 -0.076739185
0.0897593 0.10226751 0.08484966 -0.008468506 -0.02281917 0.05264821 0.1669255 -0.046800315
0.007684375 0.09153097 -0.13970697 0.18700272 -0.124289125 0.04761083 0.19699588 0.04327345
-0.041218366 -0.109056935 0.066386454 -0.06994107 -0.06284214 -0.09362237 0.047793567 -0.10642417
-0.0033563273 -0.07104515 0.050025288 -0.010160168 -0.082746014 -0.07227501 -0.012969948 -0.10530397
-0.020114463 0.08568397 -0.07066747 0.13584644 0.11100029 -0.018670937 -0.04317097 -0.10863122
0.025162892 0.073110156 0.020535579 0.00022984132 -0.011241571 -0.09483166 0.059490982 0.14057256
-0.10820476 -0.10257976 0.037667055 -0.03325547 -0.029641565 0.030536512 -0.0244303 -0.018701365
0.059981484 0.06524841 -0.10579647 0.07955738 -0.011830269 -0.0011966556 0.116040714 0.052474555
0.09384373 0.04876678 0.13588701 0.001835281 -0.078504436 -0.03472445 0.05135523 0.0933093
0.10611911 -0.006768584 0.0068285647 -0.13406073 0.12430076 -0.069589116 0.13428369 -0.05857837
-0.017207569 0.050079122 -0.09382964 0.0049241646 -0.06927519 0.031291924 -0.07478758 -0.18292382
-0.0392885 -0.09203427 -0.1538835 0.11013208 -0.18835633 -0.005528749 0.057911657 0.016539799
-0.090379044 -0.0992727 -0.0031164582 -0.16578162 0.10845689 -0.040664233 0.06580107 0.08937268
0.09957594 0.09813837 0.04217005 -0.08708034 0.15901726 -0.13146923 -0.16127238 -0.21589972
0.038791735 -0.085033655 0.05471444 -0.14705108 0.032820936 -0.0450942 -0.037277844 -0.12634963
-0.10407205 -0.104779504 0.09809918 -0.10576269 -0.06573218 -0.089881524 -0.10425396 0.037487324
0.0478149 0.1655843 0.029022776 0.22989409 0.05388606 -0.07263577 -0.08107008 -0.010649707
-0.043324534 0.11293456 -0.1735026 0.08438664 -0.20339508 -0.086607195 0.10210404 -0.03148676
00000000: 30ab 9ebd d270 273e f83b c33d 8100 6abd
00000010: d269 c8bd 2198 19be 673f 413e 45a1 27bd
00000020: 21ba af3d ccc1 cd3d 4226 b1bd d1c5 e53d
00000030: 0257 a6bd a639 a6bd 58a1 e5bc c262 563c
00000040: 23ee c7ba b59d c23d 1fd5 b03d 0ad7 b83d
00000050: 7f88 6f3d af38 2d3e 6986 3ebe fbc1 153e
00000060: 5ac2 f2bd c5d5 d7bd bbbd b13d 9d76 acbd
00000070: 5179 e63b 92ef 123e 605a 6f3d c84a e5bd
00000080: a201 e93d f8cf e53d a0cc 173e ee2f b0bc
00000090: 0684 f4bc 6a1a 613d e9eb 0b3d 6de5 e03d
000000a0: bb52 cf3c d96f 2fbd 9120 183e bf28 183e
000000b0: 0b97 643d 2e94 86be 6fe1 3e3e a61a e2bc
000000c0: 8c83 81bd 637d 25be 12a5 33bd 1528 14bd
000000d0: 3243 003e 94b3 a3bd dbf9 fbbc e864 c8bc
000000e0: 084b 3dbe 93d0 9abd e740 20be af46 edbc
000000f0: 0fb9 6cbc a684 26be b142 443d c884 693d
00000100: 5bb1 17be 5f77 4e3d 86d0 bbbd c14d 94bd
00000110: bb64 92bd e9af e63d cef8 f0bc b320 df3d
00000120: 0226 8bbd 6d0d f53d ec59 2b3e b345 06be
00000130: d70c 4e3d efc1 64bd 4fbf 3b3e 016f 3c3e
00000140: 0cef 9abd bd84 20bd 2865 d33c 083a 05be
00000150: 9051 a93d 98b7 803d 2fcc ffbc b5a3 af3d
00000160: aa2b e63d 5aaf 693d 4356 a6bd add9 fabd
00000170: ad2b 67bd 232d acbd 8c38 4a3d 2f50 963d
00000180: fc85 0fbe 6075 1fbd 5ac4 0fbe bd6c 58bd
00000190: 107c a03d 1c28 d4bd 647a eabd c3e0 9d3d
000001a0: 57de d8bc ddc8 ddbd 935f 5f3c f2ba babc
000001b0: b707 24bc 050b 213e fd87 443d 6f29 9dbd
000001c0: b9d3 b73d a171 d13d a9c5 ad3d 7dbf 0abc
000001d0: 45ef babc a6a5 573d 85ee 2a3e b0b1 3fbd
000001e0: 36cd fb3b 9774 bb3d 580f 0fbe a47d 3f3e
000001f0: 4c8b febd 9303 433d 4ab9 493e 803f 313d
00000200: 97d4 28bd 3e59 dfbd 9ff5 873d 443d 8fbd
00000210: 61b3 80bd 16bd bfbd 30c3 433d eaf4 d9bd
00000220: d4f5 5bbb 1f80 91bd 51e7 4c3d d576 26bc
00000230: be76 a9bd ec04 94bd e87f 54bc 9ca9 d7bd
00000240: 16c7 a4bc 147b af3d 1bba 90bd 541b 0b3e
00000250: 1f54 e33d cbf3 98bc 0bd4 30bd 0c7a debd
00000260: 6922 ce3c c7ba 953d 3b3a a83c 8f01 7139
00000270: 912e 38bc 1a37 c2bd d1ac 733d 41f2 0f3e
00000280: 759a ddbd 5615 d2bd c548 1a3d e336 08bd
00000290: ded2 f2bc b527 fa3c 0d22 c8bc 9b33 99bc
000002a0: 25af 753d f5a0 853d d2ab d8bd fbee a23d
000002b0: bfd3 41bc 19d9 9cba c1a6 ed3d 8fef 563d
000002c0: 2431 c03d adbf 473d f725 0b3e d08d f03a
000002d0: efc6 a0bd 3a3b 0ebd dd59 523d f218 bf3d
000002e0: fa54 d93d ffca ddbb 27c2 df3b 3747 09be
000002f0: 6691 fe3d bd84 8ebd aa81 093e dfef 6fbd
00000300: e3f6 8cbc c41f 4d3d c129 c0bd e35a a13b
00000310: 27e0 8dbd f62b 003d 3b2a 99bd 6250 3bbe
00000320: faec 20bd 777c bcbd a393 1dbe ee8c e13d
00000330: 7be0 40be 822a b5bb c634 6d3d 797e 873c
00000340: a618 b9bd 7c4f cbbd 7e3d 4cbb a8c2 29be
00000350: a51e de3d 8a8f 26bd b6c2 863d 0609 b73d
00000360: 78ee cb3d c5fc c83d 81ba 2c3d 2d57 b2bd
00000370: 6cd5 223e df9f 06be 9624 25be d114 5dbe
00000380: 15e4 1e3d 2026 aebd 401c 603d 8f94 16be
00000390: 3f6f 063d b2b4 38bd a7b0 18bd cc61 01be
000003a0: ba23 d5bd a396 d6bd 39e8 c83d 1c9a d8bd
000003b0: 989e 86bd ce13 b8bd 1a83 d5bd 4f8c 193d
000003c0: 8ed9 433d ee8e 293e 2cc1 ed3c 5b69 6b3e
000003d0: a1b7 5c3d 10c2 94bd 1208 a6bd 1c7c 2ebc
000003e0: 1175 31bd 3c4a e73d aaaa 31be e7d2 ac3d
000003f0: cd46 50be 1d5f b1bd ec1b d13d 43f8 00bd

functional_1_1/gru_2_1/gru_cell_1/split/ReadVariableOp/resource:0 f4 [2, 384]
-0.0077226637 0.0079736505 -0.018754216 -0.028369235 0.0016348711 -0.018539371 -0.0149406055 0.051477615
-0.038016368 -0.036204953 0.022767697 -0.035191238 -0.10946795 0.00807482 0.00010549975 0.02984036
0.039640643 0.04918147 0.050060414 -0.029637896 0.011588133 -0.081340216 -0.017606987 -0.029388849
0.018649824 -0.012102796 -0.02395661 0.017523741 -0.03018429 0.040278576 0.08525504 0.04234423
0.007458975 0.07357957 -0.07331957 0.003476052 -0.014438687 0.003629852 0.085190974 0.017971173
-0.09255181 0.022807518 0.056787007 -0.019062022 -0.0029282668 0.017204434 -0.06605081 0.020382635
0.041160066 0.050392427 -0.017594686 -0.0008151209 0.0027625682 0.052525975 -0.00020841266 -0.007889643
-0.026461372 0.10852472 -0.008562793 0.06914318 0.03157076 0.031651415 -0.008474375 -0.0014788014
-0.019027451 0.037912514 0.06490918 0.06406005 -0.014812621 0.022613646 0.032319248 0.057138678
0.011071953 0.06303375 0.0015319581 0.0010106192 -0.0044095344 -0.027462134 -0.006651187 0.0070230085
-0.053570732 -0.007722103 -0.032226734 -0.09233476 -0.034454893 -0.018842332 -0.018518321 0.0020020774
-0.046294726 0.02444822 -0.11715626 0.0063866586 -0.057304822 0.07131143 0.08112889 0.035022065
-0.013902372 -0.015528666 0.059778735 0.014244176 0.048877165 -0.046348024 -0.019114837 -0.045722533
0.04267519 -0.06894797 -0.0073960815 -0.06270082 -0.0069370745 -0.040689763 -0.059045266 0.025472699
-0.040303797 -0.09880523 -0.16179165 0.012724617 0.034877494 0.044476636 -0.049954224 -0.0065186
-0.039227977 -0.0035528126 -0.07987201 0.08394255 0.06002312 0.0059355693 0.021700138 -0.0058879824
-0.07112398 -0.027743237 -0.02456585 -0.10609861 -0.096624345 -0.081480734 -0.057797495 -0.045018964
-0.05545746 -0.01274048 -0.101351514 -0.100630246 0.01580827 -0.09305359 -0.048311308 -0.062094685
-0.03233837 -0.06287482 -0.123765856 -0.048924282 -0.10234495 -0.07681415 -0.10595489 -0.07924977
-0.10239752 -0.054475762 -0.0616427 -0.044750076 -0.054439493 -0.13200091 -0.11808939 -0.073454976
0.030031018 -0.087449245 -0.024747973 -0.046667647 -0.062531635 -0.08727963 -0.027514959 -0.054646604
-0.032766458 -0.06754028 -0.023031346 -0.050655536 -0.08953567 -0.08286962 0.007888059 -0.016753359
-0.09216097 -0.052396685 -0.10458631 -0.103508465 -0.10216168 -0.067146815 -0.116341166 -0.018818762
-0.029692503 -0.11514177 -0.0068367794 -0.11097527 0.007702274 -0.0770198 -0.12310305 -0.09631106
-0.07845674 -0.07296982 -0.045407344 -0.015120683 -0.08707901 -0.03519237 -0.093489856 -0.048123688
-0.11532956 -0.09787329 -0.07908867 -0.047171403 -0.0636802 -0.06264005 -0.06754169 -0.11749356
-0.06945653 -0.017443735 -0.07787468 -0.040552497 -0.07783667 -0.041671205 -0.028264271 -0.06677132
-0.049173385 -0.08866422 -0.05657443 -0.010488361 -0.012489551 -0.08828155 -0.08630421 -0.04102648
-0.038901575 -0.082891256 -0.103065215 -0.07430512 -0.08423459 -0.06637813 -0.090697594 -0.04862129
-0.032827172 -0.068762064 -0.1113208 -0.033910327 -0.07443971 -0.034925565 -0.08654066 -0.11396315
-0.0339423 -0.011229539 0.087609425 -0.067690276 -0.083879896 -0.067107655 -0.06758442 -0.056090575
-0.05705351 -0.027590774 -0.041240852 -0.061659545 -0.0752618 -0.05604991 -0.19251879 -0.062193085
00000000: 660e fdbb eaa3 023c 71a2 99bc 9966 e8bc
00000010: 2c49 d63a e1df 97bc 71c9 74bc 31da 523d
00000020: 0db7 1bbd a54b 14bd 5283 ba3c b024 10bd
00000030: bc30 e0bd 404c 043c bf3f dd38 c573 f43c
00000040: 3a5e 223d 8272 493d 260c 4d3d 2ccb f2bc
00000050: 27dc 3d3c b395 a6bd 873c 90bc e2c0 f0bc
00000060: 84c7 983c ce4a 46bc a740 c4bc f38d 8f3c
00000070: 0b45 f7bc 26fb 243d 329a ae3d 2571 2d3d
00000080: 6b6a f43b e3b0 963d 9228 96bd 7ace 633b
00000090: 3e90 6cbc d0e2 6d3b 9b78 ae3d 4838 933c
000000a0: ce8b bdbd d5d6 ba3c 7e99 683d f527 9cbc
000000b0: 2ae8 3fbb 50f0 8c3c a645 87bd 7cf9 a63c
000000c0: 7597 283d 4a68 4e3d bb22 90bc d6ad 55ba
000000d0: 340c 353b 7a25 573d 5989 5ab9 9043 01bc
000000e0: 85c5 d8bc 3542 de3d f54a 0cbc f19a 8d3d
000000f0: 5750 013d eaa4 013d 1bd8 0abc 57d4 c1ba
00000100: 75df 9bbc 274a 1b3d 1bef 843d ea31 833d
00000110: a3b0 72bc 4140 b93c 3061 043d 3f0a 6a3d
00000120: 2367 353c d717 813d fccb c83a c176 843a
00000130: db7d 90bb 45f8 e0bc 33f2 d9bb 4421 e63b
00000140: fc6c 5bbd b209 fdbb 2e00 04bd 021a bdbd
00000150: 9320 0dbd 3c5b 9abc bcb3 97bc 4935 033b
00000160: 8a9f 3dbd a247 c83c 9fef efbd 2d47 d13b
00000170: 76b8 6abd ba0b 923d e726 a63d 4c73 0f3d
00000180: c6c6 63bc f26b 7ebc 8cda 743d 6860 693c
00000190: 6c33 483d 6dd7 3dbd b896 9cbc 8d47 3bbd
000001a0: 2ecc 2e3d 9834 8dbd d45a f2bb 4a69 80bd
000001b0: 6650 e3bb 4faa 26bd 73d9 71bd 1fac d03c
000001c0: 9815 25bd 655a cabd b6ac 25be e97a 503c
000001d0: b4db 0e3d 222d 363d cd9c 4cbd fb99 d5bb
000001e0: 84ad 20bd 4ed6 68bb f093 a3bd 12ea ab3d
000001f0: ceda 753d 2a7f c23b 7dc4 b13c faef c0bb
00000200: 73a9 91bd c945 e3bc 523e c9bc 3a4a d9bd
00000210: fce2 c5bd 5fdf a6bd 11bd 6cbd ce65 38bd
00000220: 5d27 63bd 72bd 50bc 6291 cfbd 3b17 cebd
00000230: 5880 813c e192 bebd 14e2 45bd ff56 7ebd
00000240: 3d75 04bd 83c4 80bd f478 fdbd d464 48bd
00000250: 3b9a d1bd bd50 9dbd e1fe d8bd b44d a2bd
00000260: cab5 d1bd fa21 5fbd 0e7d 7cbd db4b 37bd
00000270: f2fb 5ebd 3f2b 07be dad8 f1bd 906f 96bd
00000280: 9c03 f63c 9718 b3bd 43bc cabc 9326 3fbd
00000290: 9610 80bd aabf b2bd 0d67 e1bc 1ed5 5fbd
000002a0: 1f36 06bd 8f52 8abd 3cac bcbc 2e7c 4fbd
000002b0: 7a5e b7bd 8cb7 a9bd eb3c 013c 573e 89bc
000002c0: e4be bcbd e89d 56bd 5931 d6bd 3ffc d3bd
000002d0: 253a d1bd 4584 89bd 4744 eebd ce29 9abc
000002e0: b13d f3bc 73cf ebbd 1007 e0bb 0147 e3bd
000002f0: 5b63 fc3b 8fbc 9dbd 741d fcbd bc3e c5bd
00000300: edad a0bd 3371 95bd 0dfd 39bd bebc 77bc
00000310: 7b56 b2bd e025 10bd 9c77 bfbd 581d 45bd
00000320: e831 ecbd cb71 c8bd 3ef9 a1bd cd36 41bd
00000330: c46a 82bd 6d49 80bd 4c53 8abd 77a0 f0bd
00000340: 3a3f 8ebd 2ae6 8ebc c37c 9fbd 601a 26bd
00000350: d568 9fbd 6daf 2abd 798a e7bc 67bf 88bd
00000360: 086a 49bd 9695 b5bd 97ba 67bd 60d7 2bbc
00000370: f9a0 4cbc f5cc b4bd 43c0 b0bd 620b 28bd
00000380: 4257 1fbd e4c2 a9bd db13 d3bd 482d 98bd
00000390: 2f83 acbd 42f1 87bd a9bf b9bd 1e27 47bd
000003a0: c975 06bd 20d3 8cbd 29fc e3bd 8ee5 0abd
000003b0: d973 98bd 1c0e 0fbd 3b3c b1bd 8365 e9bd
000003c0: 1507 0bbd 1afc 37bc 926c b33d 33a1 8abd
000003d0: 39c9 abbd bd6f 89bd b369 8abd 3bbf 65bd
000003e0: f1b0 69bd 0c06 e2bc 2bec 28bd b88e 7cbd
000003f0: dc22 9abd 9794 65bd a523 45be 2dbe 7ebd

functional_1_1/gru_2_1/gru_cell_1/Cast_1/ReadVariableOp/resource:0 f4 [128, 384]
0.00059378374 -0.028540509 0.15014578 -0.05158304 0.03505761 -0.07987896 0.024673812 -0.010908936
0.018676069 0.023678862 0.1979259 0.064149395 0.029226229 0.005871459 -0.008489821 0.0051950463
0.015162856 0.029390449 0.020531638 0.03668193 -0.023882858 -0.023957143 -0.020838136 -0.06381751
0.016046554 -0.12257252 0.009389459 0.010535317 0.027399058 0.009148721 -0.0043473304 -0.024824684
-0.04033714 0.038212605 -0.016746016 -0.09006819 -0.021737097 -0.0020605596 -0.17565219 -0.12372399
-0.021232251 0.07795538 -0.09732402 0.006585236 -0.085826516 0.03315155 0.083069354 -0.06758988
0.024103198 -0.010037169 0.004650243 -0.100699246 -0.01525483 -0.005242527 0.03667269 0.026406003
0.11566027 0.14788151 -0.021948187 -0.0044856 0.06626035 0.008525188 -0.013328316 -0.01773369
-0.023924816 0.017523639 -0.043189626 0.04278807 0.022415664 -0.06502121 0.068928055 0.021481538
-0.084884055 -0.05492904 0.020865398 0.029072808 0.017879615 -0.033350706 0.0026822293 -0.006030216
0.01144677 0.07124532 0.045798164 0.011543145 0.042092588 -0.02677094 0.03374902 0.04645099
0.028174879 -0.05868812 0.08008972 0.027720172 -0.01706254 0.06538031 -0.0062578274 0.14628507
0.07847447 0.03758069 0.12144542 0.02164077 -0.0016847769 0.07248407 -0.01179566 0.13422225
-0.011595404 0.037085995 -0.050119497 -0.15383276 -0.047415674 0.055669267 0.0017018754 0.043454275
0.12046262 -0.05942708 0.033911083 -0.019854546 -0.017796388 -0.025717184 0.088655785 0.0161997
-0.015017329 0.11915079 0.009683961 0.019073673 -0.047316387 -0.20725758 0.10079309 0.036345575
-0.028958559 -0.032507814 -0.11322633 0.058768988 0.01951406 -0.16428244 0.08236935 0.018293278
0.017457772 0.049846355 0.17018072 -0.07932877 -0.081440926 0.017953243 0.004021072 0.038606066
0.047465242 0.0055658123 0.03771789 -0.0029051257 0.0027526724 0.00895113 0.010591733 0.059792835
0.035286773 0.028107272 -0.11213824 0.04327699 -0.09046069 -0.079436146 0.0023793983 0.03431818
-0.08060536 0.0009632743 0.022210764 0.04654292 0.0060782707 0.095612474 0.016187962 0.08869893
0.06533476 0.007371415 -0.07044166 0.085476175 -0.077871084 0.07960543 -0.09035375 0.0745289
0.11384763 -0.0025545969 0.030139068 0.02096896 0.016169434 0.09021302 -0.09488302 -0.041374017
-0.1808034 0.006464136 0.04777687 0.09016281 -0.064747944 0.002387228 -0.0064629046 -0.05147262
0.06679915 0.029830003 0.08963274 0.041461263 0.06752621 -0.011428284 -0.014578186 0.11916984
-0.0640221 0.020142637 -0.05049655 -0.027918769 -0.012238187 -0.012006392 -0.03495634 0.054696396
0.043005176 -0.07215728 0.02391495 -0.099026635 0.10898395 -0.08411752 0.05110527 0.039482523
0.021033403 -0.06911147 0.016972186 -0.07375552 -0.005017394 -0.037416257 0.038987394 -0.03562875
-0.051435467 0.017492691 0.02533121 0.12727089 0.027655251 -0.13703534 0.08505701 0.13057415
-0.0054058796 -0.037903182 -0.053638708 0.04189466 -0.014743564 -0.058514956 0.010003399 0.10542739
0.0967185 -0.042581003 -0.07025226 0.033456624 0.013248397 0.07840973 -0.19766627 0.14427736
0.085447356 -0.0035547002 0.1642127 -0.03782595 -0.0021781118 0.06922222 -0.010006516 0.17628194
00000000: 27a8 1b3a c9cd e9bc d1bf 193e bd48 53bd
00000010: 9298 0f3d 9597 a3bd bc20 ca3c 65bb 32bc
00000020: 8efe 983c 2cfa c13c 16ad 4a3e c260 833d
00000030: d86b ef3c 5e65 c03b e418 0bbc 353b aa3b
00000040: a16d 783c 3dc4 f03c f731 a83c cb3f 163d
00000050: fca5 c3bc c541 c4bc bdb4 aabc c1b2 82bd
00000060: 1074 833c 4d07 fbbd 3fd6 193c 529c 2c3c
00000070: fd73 e03c 84e4 153c 0d74 8ebb 235d cbbc
00000080: 8f38 25bd d284 1c3d f12e 89bc ac75 b8bd
00000090: ff11 b2bc 740a 07bb 2bde 33be 0163 fdbd
000000a0: 42ef adbc 12a7 9f3d d151 c7bd f7c8 d73b
000000b0: d0c5 afbd ebc9 073d 4420 aa3d 906c 8abd
000000c0: 1274 c53c f072 24bc 1161 983b 683b cebd
000000d0: 65ef 79bc 81c9 abbb 1a36 163d 6751 d83c
000000e0: 4bdf ec3d 406e 173e afcc b3bc f1fb 92bb
000000f0: 82b3 873d 3bad 0b3c 025f 5abc 3e46 91bc
00000100: fafd c3bc bc8d 8f3c 9be7 30bd 8b42 2f3d
00000110: 0ea1 b73c d729 85bd 272a 8d3d 0dfa af3c
00000120: b1d7 adbd 46fd 60bd e9ed aa3c 192a ee3c
00000130: 4578 923c c09a 08bd 57c8 2f3b 1e99 c5bb
00000140: 3c8b 3b3c 11e9 913d db96 3b3d 761f 3d3c
00000150: 4769 2c3d bb4e dbbc 6a3c 0a3d 6543 3e3d
00000160: 01cf e63c f462 70bd 1406 a43d 6a15 e33c
00000170: bdc6 8bbc 1de6 853d 760e cdbb c1cb 153e
00000180: 39b7 a03d 36ee 193d 60b8 f83d fc47 b13c
00000190: bbd3 dcba 8772 943d 9542 41bc 8f71 093e
000001a0: a6fa 3dbc 7ce7 173d 1a4a 4dbd 5686 1dbe
000001b0: f036 42bd 7505 643d 7611 df3a 1cfd 313d
000001c0: 1bb5 f63d cf69 73bd 59e6 0a3d 00a6 a2bc
000001d0: bbc9 91bc d8ac d2bc 2a91 b53d 3cb5 843c
000001e0: 3e0b 76bc 5405 f43d 7aa9 1e3c 6440 9c3c
000001f0: d4ce 41bd 553b 54be 9c6c ce3d 19df 143d
00000200: 803a edbc ea26 05bd 35e3 e7bd c0b7 703d
00000210: f3db 9f3c a839 28be 43b1 a83d c9db 953c
00000220: 9a03 8f3c b12b 4c3d db43 2e3e 1f77 a2bd
00000230: 80ca a6bd ae12 933c 32c3 833b 6521 1e3d
00000240: ea6a 423d 6b61 b63b 137e 1a3d ec63 3ebb
00000250: 2e66 343b c3a7 123c f388 2d3c 55e9 743d
00000260: dd88 103d 3941 e63c bca8 e5bd 3743 313d
00000270: 7443 b9bd 6baf a2bd aeef 1b3b 3891 0c3d
00000280: 6c14 a5bd 3e84 7c3a 59f3 b53c caa3 3e3d
00000290: 3b2c c73b 79d0 c33d 9e9c 843c c9a7 b53d
000002a0: 3bce 853d e98b f13b b843 90bd 220e af3d
000002b0: e07a 9fbd 2c08 a33d 630b b9bd 9ca2 983d
000002c0: f228 e93d 066b 27bb 35e6 f63c 19c7 ab3c
000002d0: c375 843c 9bc1 b83d 0752 c2bd cd77 29bd
000002e0: 8724 39be 1ad1 d33b aeb1 433d 48a7 b83d
000002f0: 929a 84bd 0a73 1c3b c6c6 d3bb f4d4 52bd
00000300: fecd 883d 0d5e f43c 5f91 b73d 49d3 293d
00000310: 2e4b 8a3d b33d 3bbc 58d9 6ebc 510f f43d
00000320: 051e 83bd 2c02 a53c 78d5 4ebd e7b5 e4bc
00000330: ad82 48bc 75b6 44bc 612e 0fbd 5409 603d
00000340: 3226 303d 32c7 93bd 49e9 c33c 7ace cabd
00000350: fa32 df3d ce45 acbd c253 513d 6db8 213d
00000360: 3e4e ac3c 508a 8dbd 4109 8b3c 220d 97bd
00000370: f468 a4bb ca41 19bd 3fb1 1f3d 74ef 11bd
00000380: ffad 52bd d54c 8f3c 6683 cf3c 4d53 023e
00000390: 448d e23c fe52 0cbe 5f32 ae3d 3bb5 053e
000003a0: ce23 b1bb 5e40 1bbd 43b4 5bbd bc99 2b3d
000003b0: fd8e 71bc 61ad 6fbd 4ce5 233c 51ea d73d
000003c0: 5914 c63d 6b69 2ebd 6be0 8fbd d009 093d
000003d0: ce0f 593c 4895 a03d 0769 4abe 72bd 133e
000003e0: 06ff ae3d f9f5 68bb 6027 283e 62ef 1abd
000003f0: a7be 0ebb 61c4 8d3d 5ff2 23bc 4183 343e

functional_1_1/gru_2_1/gru_cell_1/Cast/ReadVariableOp/resource:0 f4 [64, 384]
0.04764024 0.04688753 0.11574325 -0.021585356 -0.024517737 -0.054452024 0.1383932 0.0786824
0.09550238 -0.035785865 -0.058447737 -0.0040943786 -0.07818454 0.082251824 0.06608857 -0.048880868
-0.074827746 -0.18048391 0.11589908 -0.15202744 -0.039815474 -0.041265454 0.14057198 0.113100514
-0.047713973 0.13820146 0.011269094 0.038403656 0.105742656 -0.04048038 0.099102736 -0.09847355
0.06611389 0.04348866 -0.07603462 -0.11428119 -0.13755055 0.012634627 0.10290576 -0.09107751
-0.043822046 -0.039475657 0.0025977343 -0.024876688 0.07464783 0.017053083 0.057168953 0.0869372
0.09069708 -0.081133455 0.013688127 -0.030623207 0.008711327 0.080164954 -0.032489374 -0.04526152
0.0480718 -0.08542365 -0.02136711 0.0136735765 0.14208646 0.033354428 0.02386303 0.0019153408
0.123724945 -0.047515143 0.046786577 -0.0423768 0.026613392 -0.12688613 0.06913385 0.033249937
0.11720242 0.09092914 0.122585 0.015413728 0.05959862 -0.027404062 0.016476342 0.044655833
-0.100165345 0.069361426 0.073186606 -0.07410476 0.058443047 -0.090920605 -0.101617806 0.12811638
-0.10938802 -0.10318417 -0.0006543292 0.0661156 0.14141053 0.07560594 0.0686927 0.08269799
0.094136976 -0.011125031 -0.09050334 -0.13442972 -0.11493943 -0.017024167 -0.012585682 -0.0683506
-0.10474441 -0.042364962 0.08082435 -0.04412976 0.09078465 -0.08555019 0.10625124 0.05016783
-0.062178906 -0.057728685 -0.081848495 -0.010281498 0.08660147 -0.091288365 0.24473637 -0.083852045
0.022413941 -0.07737531 0.09916021 -0.043307655 0.05251202 -0.041567333 0.04617251 0.026330873
0.11295008 -0.06302208 -0.04110799 0.19340348 0.029380072 -0.0820608 0.08434307 0.12241036
-0.060139813 -0.048339345 -0.019632084 -0.12607852 0.045711856 -0.13587685 -0.07837499 0.11024093
-0.03289961 0.012737903 -0.014603423 0.087988935 0.054626845 0.13394934 0.1296885 0.097577415
0.06669142 0.10506851 -0.0059281792 0.051625527 0.10960948 0.06798478 0.12180966 0.10059173
-0.0747718 -0.011978509 -0.10437878 0.14255163 -0.026462004 0.110057496 0.016711414 -0.036683146
0.08113144 -0.0021141476 0.07334362 -0.022226343 0.13581325 0.017363502 0.06315845 -0.0073989164
-0.007392088 0.06780674 0.03433517 0.10031983 -0.12074811 0.010623934 0.07376575 0.11667593
0.0004741345 -0.040704995 -0.10895592 -0.013804335 -0.10745259 0.071736746 -0.1198581 0.10182772
0.03860196 0.10125446 0.06763934 0.058454584 -0.014850176 0.0354939 0.19416603 0.08507839
-0.0026800234 0.14877062 -0.06378679 -0.0848826 -0.017584564 0.11018512 -0.081180856 -0.0030635141
0.023415003 0.10756914 -0.13208932 -0.032141894 0.010700006 0.007902751 0.12653744 0.14450043
-0.011373716 0.040372703 -0.15218785 0.10321392 0.05678294 0.063051164 0.09439538 0.038134005
-0.020832159 0.036530428 0.0035890462 -0.028438725 0.0011776858 -0.019010443 0.046215773 -0.03349137
0.13576296 0.021821562 0.16247699 -0.118914776 -0.11840286 0.10760963 0.05184478 0.026472338
-0.08133688 -0.0016688012 -0.12078604 0.08426257 0.039394967 0.16816416 0.0921961 -0.11396656
-0.046066705 0.06918771 0.044552457 -0.06863198 -0.0972602 -0.12806912 -0.0033794735 -0.062392265
00000000: 6a22 433d 230d 403d cc0a ed3d c6d3 b0bc
00000010: 6cd9 c8bc 1609 5fbd f2b6 0d3e 3d24 a13d
00000020: c096 c33d 3394 12bd e566 6fbd 232a 86bb
00000030: 371f a0bd a573 a83d 7259 873d 4e37 48bd
00000040: 4a3f 99bd c6d0 38be 7f5c ed3d 15ad 1bbe
00000050: 8d15 23bd f705 29bd 1af2 0f3e 3ea1 e73d
00000060: ba6f 43bd af84 0d3e 02a2 383c 274d 1d3d
00000070: 9b8f d83d c1ce 25bd 60f6 ca3d 80ac c9bd
00000080: b866 873d 2a21 323d 0ab8 9bbd 420c eabd
00000090: 0dda 0cbe 7701 4f3c 41c0 d23d d886 babd
000000a0: bf7e 33bd 3ab1 21bd c03e 2a3b 32ca cbbc
000000b0: f6e0 983d e8b2 8b3c fe29 6a3d 210c b23d
000000c0: 64bf b93d 4c29 a6bd 2a44 603c 85dd fabc
000000d0: f4b9 0e3c 862d a43d 9413 05bd 2564 39bd
000000e0: f0e6 443d 98f2 aebd 140a afbc 2307 603c
000000f0: 1d7f 113e a79e 083d 677c c33c 2c0c fb3a
00000100: 8163 fd3d 3d9f 42bd 48a3 3f3d 4c93 2dbd
00000110: 5404 da3c 70ee 01be 0c96 8d3d 1631 083d
00000120: d307 f03d 0f39 ba3d d80d fb3d dc89 7c3c
00000130: af1d 743d 7c7e e0bc 65f9 863c 09e9 363d
00000140: 7d23 cdbd 5d0d 8e3d dce2 953d 3dc4 97bd
00000150: fa61 6f3d 9534 babd ff1c d0bd f130 033e
00000160: d406 e0bd 3952 d3bd 4a87 2bba 9e67 873d
00000170: eccd 103e 49d7 9a3d c2ae 8c3d 905d a93d
00000180: e3ca c03d c345 36bc d159 b9bd f2a7 09be
00000190: 5d65 ebbd 4476 8bbc 2d34 4ebc 66fb 8bbd
000001a0: 3d84 d6bd e286 2dbd 3d87 a53d 68c1 34bd
000001b0: 4ded b93d f034 afbd 409a d93d c87c 4d3d
000001c0: 4faf 7ebd ea74 6cbd 2fa0 a7bd ba73 28bc
000001d0: 1d5c b13d 65f5 babd 2c9c 7a3e 9fba abbd
000001e0: 719d b73c f276 9ebd 8214 cb3d 5e63 31bd
000001f0: d816 573d 8242 2abd 631f 3d3d d8b3 d73c
00000200: 5f52 e73d b811 81bd da60 28bd 900b 463e
00000210: 7aae f03c 7e0f a8bd 0fbc ac3d 48b2 fa3d
00000220: 2a55 76bd 7aff 45bd 77d3 a0bc ba1a 01be
00000230: 5b3c 3b3d 4d23 0bbe 1183 a0bd ffc5 e13d
00000240: bec1 06bd a3b2 503c 3243 6fbc 8b33 b43d
00000250: 66c0 5f3d 042a 093e 10cd 043e abd6 c73d
00000260: 8395 883d 292e d73d 2c41 c2bb 4a75 533d
00000270: ef7a e03d 9b3b 8b3d 5877 f93d 0903 ce3d
00000280: f521 99bd 8241 44bc 8bc4 d5bd 0ef9 113e
00000290: d8c6 d8bc d365 e13d 60e6 883c 1141 16bd
000002a0: 3e28 a63d 838d 0abb 2e35 963d 0514 b6bc
000002b0: a112 0b3e e73d 8e3c 3859 813d 9c72 f2bb
000002c0: 5439 f2bb 43de 8a3d 09a3 0c3d 7c74 cd3d
000002d0: c94a f7bd 0210 2e3c 7f12 973d caf3 ee3d
000002e0: 4195 f839 48ba 26bd 4824 dfbd 942b 62bc
000002f0: 1a10 dcbd b7ea 923d 2a78 f5bd 0d8b d03d
00000300: 171d 1e3d 805e cf3d 7f86 8a3d 136e 6f3d
00000310: 274e 73bc 0d62 113d 76d3 463e 943d ae3d
00000320: 55a3 2fbb 5357 183e a6a2 82bd eed6 adbd
00000330: 810d 90bc bca8 e13d 2642 a6bd 3dc5 48bb
00000340: d2d0 bf3c 364d dc3d 6c42 07be 38a7 03bd
00000350: 144f 2f3c 8a7a 013c 0893 013e ecf7 133e
00000360: d358 3abc d95d 253d 22d7 1bbe d261 d33d
00000370: 3a95 683d f820 813d 5d52 c13d 6732 1c3d
00000380: 34a8 aabc eea0 153d 3436 6b3b 54f8 e8bc
00000390: 945c 9a3a cabb 9bbc c04c 3d3d 3f2e 09bd
000003a0: 7205 0b3e 22c3 b23c 5e60 263e 9789 f3bd
000003b0: 337d f2bd 7062 dc3d 315b 543d 84dc d83c
000003c0: f393 a6bd adbb daba ac5e f7bd db91 ac3d
000003d0: 9e5c 213d 3a33 2c3e 4fd1 bc3d 4d67 e9bd
000003e0: 71b0 3cbd 49b2 8d3d a37c 363d ec8e 8cbd
000003f0: 5b30 c7bd 8d24 03be 287a 5dbb 088f 7fbd

functional_1_1/dense_3_1/Cast/ReadVariableOp:0 f4 [128, 3]
0.017046764 0.12651244 0.111261584 -0.0064205565 0.1347021 -0.070041195 -0.1826159 -0.21638905
-0.1681515 -0.004701941 -0.06897754 -0.019795433 -0.0348098 -0.0039129765 -0.032833163 -0.19163367
-0.04418893 0.07564682 0.12736806 0.15382013 0.146278 -0.09624306 -0.14155479 -0.083031535
0.005536512 -0.0843872 0.08502896 -0.12960209 -0.080627434 -0.12990558 -0.025296567 -0.03344073
-0.038700804 -0.10685762 -0.13517909 -0.052772652 0.042276155 -0.056881867 0.11407826 0.123628005
0.08982499 -0.049417615 0.03951389 -0.018025158 0.16177267 0.15534794 0.09047714 -0.008899909
-0.07293573 0.093167774 -0.14646947 0.103035115 0.073985405 0.06554566 0.03348447 0.006810255
0.039781183 -0.1060852 -0.09458679 -0.0939632 -0.10455489 0.1000923 -0.057158455 0.12787728
0.022700498 -0.02752455 0.021211108 0.065019965 0.1256289 -0.04515299 -0.032054 0.1090455
0.118306115 0.071810484 0.041623 0.03639765 0.18228334 0.15912047 -0.043299478 -0.17962691
-0.013847928 -0.058639172 -0.08960663 -0.12867755 0.04101208 0.10017886 -0.012221842 0.095261514
0.045734268 0.06746757 -0.07268106 0.0033284463 -0.012920892 -0.09243361 -0.11187763 -0.0841814
0.06608323 -0.11099182 -0.00842571 0.15239267 0.07171483 -0.07462893 -0.12946606 -0.17605945
0.1623843 0.11491777 0.01751846 -0.07718456 -0.15272358 -0.021921827 -0.053022344 0.10392312
-0.030979984 0.06708471 -0.017129028 0.10036555 -0.071638204 0.058564276 0.058369853 -0.003856069
0.02674732 -0.06266413 0.08196199 0.12651655 0.12240335 0.12141113 0.07383911 0.11132789
-0.10785411 0.20669787 0.21083704 0.20360439 0.005490937 0.16742885 -0.06333967 0.18048136
0.11845354 0.04038557 0.031648863 0.040606312 -0.027476659 0.13090576 0.12572388 -0.059407495
-0.07183574 -0.042513173 -0.075536385 0.1661836 0.12047006 -0.09083309 0.07709277 -0.0015841359
-0.023984706 -0.164923 -0.1469679 0.025664601 0.14262225 -0.18377756 -0.1342078 -0.03891212
0.11727147 0.046830058 -0.049735766 -0.12569998 -0.007966625 -0.098844446 -0.104898594 -0.034795035
-0.0621691 0.10705861 -1.0002077e-05 -0.10792039 -0.058611177 0.066293806 -0.18121782 -0.18265495
-0.11199798 -0.03528079 -0.0484714 0.08332911 0.20261408 -0.0024388435 0.09832101 -0.061852623
-0.16337022 -0.11221513 0.04886891 0.08503021 0.09484331 -0.00498636 -0.1862018 -0.05212925
0.14021803 0.090219386 0.11127367 0.09164651 0.11464447 -0.09689386 -0.104785696 -0.045015343
-0.05589181 -0.17679717 -0.21238886 -0.035163388 0.06646085 -0.041413467 -0.074936345 -0.00918699
0.001411854 -0.017658247 0.13080998 -0.098363295 0.07298134 0.10247795 0.031872176 -0.030643485
-0.14733991 0.04008786 -0.12390449 0.016662458 0.0038926946 0.009873783 -0.091257885 -0.16505288
-0.09215433 0.061279245 -0.046081882 0.0666834 0.03120339 -0.0934637 -0.026697239 -0.0681204
-0.0891689 -0.13442926 -0.08809467 -0.16117981 -0.11327153 0.08628523 0.110427596 0.15797116
0.0408035 -0.043357074 -0.059781395 0.09934285 -0.15504853 0.0878083 -0.06021736 -0.052856676
-0.11516395 0.035081565 -0.07184819 0.11737883 -0.08125684 -0.11796479 0.017991643 -0.06769896
00000000: a8a5 8b3c 7a8c 013e 1ddd e33d 8863 d2bb
00000010: 59ef 093e c271 8fbd aaff 3abe 1795 5dbe
00000020: e82f 2cbe bd12 9abb 1944 8dbd 082a a2bc
00000030: b994 0ebd 6d38 80bb 117c 06bd 9e3b 44be
00000040: 74ff 34bd b8ec 9a3d c66c 023e 0683 1d3e
00000050: e6c9 153e 151b c5bd bdf3 10be 700c aabd
00000060: a16b b53b 32d3 acbd aa23 ae3d 69b6 04be
00000070: ff1f a5bd f805 05be bf3a cfbc 26f9 08bd
00000080: bc84 1ebd 2bd8 dabd 636c 0abe 2328 58bd
00000090: c329 2d3d f6fc 68bd dda1 e93d ae30 fd3d
000000a0: 2af6 b73d 206a 4abd 51d9 213d 7fa9 93bc
000000b0: bca7 253e 8813 1f3e 144c b93d edd0 11bc
000000c0: 545f 95bd bfce be3d 18fc 15be 1304 d33d
000000d0: a985 973d ce3c 863d 0327 093d 8f28 df3b
000000e0: 98f1 223d 3343 d9bd b8b6 c1bd c76f c0bd
000000f0: e020 d6bd 31fd cc3d fc1e 6abd 43f2 023e
00000100: 65f6 b93c 2a7b e1bc ebc2 ad3c 3029 853d
00000110: dda4 003e 57f2 38bd 0e4b 03bd 3f53 df3d
00000120: 7a4a f23d 6011 933d e17c 2a3d b415 153d
00000130: 7ca8 3a3e 7af0 223e cb5a 31bd 1ef0 37be
00000140: 6be2 62bc a12f 70bd ae83 b7bd 0cc4 03be
00000150: 48fc 273d 932a cd3d 1f3e 48bc 7818 c33d
00000160: db53 3b3d 702c 8a3d cfd9 94bd 1022 5a3b
00000170: 26b2 53bc d54d bdbd 1920 e5bd 4c67 acbd
00000180: a556 873d ae4f e3bd fd0b 0abc d30c 1c3e
00000190: 3adf 923d 0dd7 98bd c092 04be ee48 34be
000001a0: 1248 263e 025a eb3d e082 8f3c f012 9ebd
000001b0: 9263 1cbe 6795 b3bc f52d 59bd a5d5 d43d
000001c0: bcc9 fdbc b563 893d 2d52 8cbc 748c cd3d
000001d0: 0db7 92bd 18e1 6f3d 3a15 6f3d 1ab6 7cbb
000001e0: 321d db3c 0d56 80bd b0db a73d 8e8d 013e
000001f0: 9cae fa3d 66a6 f83d f638 973d e0ff e33d
00000200: 9ee2 dcbd 9ba8 533e aae5 573e ab7d 503e
00000210: 51ed b33b 7872 2b3e 3bb8 81bd 1bd0 383e
00000220: c597 f23d 576b 253d 3da2 013d ce52 263d
00000230: bb16 e1bc 290c 063e c3bd 003e 4655 73bd
00000240: 9e1e 93bd 4b22 2ebd d2b2 9abd 092c 2a3e
00000250: 02b9 f63d b306 babd d0e2 9d3d c8a2 cfba
00000260: 937b c4bc 93e1 28be c17e 16be 923e d23c
00000270: 910b 123e 2f30 3cbe c56d 09be 5162 1fbd
00000280: 062c f03d e0d0 3f3d bbb7 4bbd 7fb7 00be
00000290: 7286 02bc f56e cabd 13d5 d6bd 3d85 0ebd
000002a0: 07a5 7ebd 8b41 db3d 98ce 27b7 5e05 ddbd
000002b0: 4612 70bd 0cc5 873d 2a91 39be e609 3bbe
000002c0: 325f e5bd 9782 10bd f289 46bd 74a8 aa3d
000002d0: 117a 4f3e 01d5 1fbb 875c c93d 2d59 7dbd
000002e0: 864a 27be 0cd1 e5bd c42a 483d 5224 ae3d
000002f0: 363d c23d 9f64 a3bb afab 3ebe 7b85 55bd
00000300: 5195 0f3e f1c4 b83d 73e3 e33d 2ab1 bb3d
00000310: b8ca ea3d 4a70 c6bd e299 d6bd 0262 38bd
00000320: d0ee 64bd 510a 35be 777c 59be 7c07 10bd
00000330: a01c 883d 2ba1 29bd 3a78 99bd 0785 16bc
00000340: f60d b93a 07a8 90bc 0df3 053e b272 c9bd
00000350: 3e77 953d f6df d13d 668c 023d 0c08 fbbc
00000360: 46e0 16be 2b33 243d a3c1 fdbd b57f 883c
00000370: 941c 7f3b a6c5 213c 6ae5 babd 9f03 29be
00000380: 69bb bcbd f2ff 7a3d 5bc0 3cbd 4e91 883d
00000390: 409e ff3c e569 bfbd 2bb4 dabc b582 8bbd
000003a0: 2f9e b6bd d3a7 09be fa6a b4bd 520c 25be
000003b0: e7fa e7bd 50b6 b03d dd27 e23d 31c3 213e
000003c0: 9221 273d 3097 31bd 56dd 74bd 4474 cb3d
000003d0: 0bc5 1ebe d7d4 b33d 7aa6 76bd 3e80 58bd
000003e0: 14db ebbd b0b1 0f3d 2525 93bd 5064 f03d
000003f0: fc69 a6bd 8697 f1bd 3663 933c c1a5 8abd

functional_1_1/dense_3_1/BiasAdd/ReadVariableOp:0 f4 [3]
-0.006359961 0.019516353 -0.012666749
00000000: 3867 d0bb c2e0 9f3c 3288 4fbc
