model1212.onnx (onnx, 500424 bytes, 12 tensors)

functional_1/lstm_1_2/lstm_cell_1/add_1/ReadVariableOp/resource:0 f4 [256]
0	0xbd5fe83a	-0.054664828
1	0xbd0b9ac3	-0.03408314
2	0xbd284bbc	-0.04108785
3	0xbd6f0eb9	-0.05836365
4	0xbd697c5c	-0.057003364
5	0xbb7b82cf	-0.0038377529
6	0xbd4eb092	-0.05046136
7	0xbc541b1f	-0.012945919
8	0xbd3695df	-0.044576522
9	0xbd80c00f	-0.06286632
10	0xbce229e6	-0.02760787
11	0xbb9b25c7	-0.004734728
12	0xbd842ab7	-0.0645346
13	0xbcc4b0a0	-0.024010003
14	0xbcbd901b	-0.023140004
15	0xbcdc40b7	-0.026886327
16	0xbd2d2299	-0.042269323
17	0xbc8de60c	-0.017321609
18	0xbd2adaeb	-0.041712683
19	0xbc55e4e1	-0.013055057
20	0xbd322acd	-0.04349785
21	0xbd1a13e3	-0.03761662
22	0x3c4f366c	0.0126472525
23	0x3ce6233c	0.028092973
24	0xbd5eafcb	-0.054366868
25	0xbcba9420	-0.02277571
26	0xbbb25cce	-0.005443192
27	0xbd40cd42	-0.04707075
28	0xbd537a45	-0.051630277
29	0xbd86cd8d	-0.065821745
30	0xbc138bb3	-0.009005475
31	0xbd5923a0	-0.05301249
32	0xbd158747	-0.036505964
33	0xbc866648	-0.016406193
34	0xbd5a6a82	-0.05332423
35	0xbd2336a1	-0.03984702
36	0xbc387479	-0.011258238
37	0x3b8e31a8	0.0043394156
38	0xbd4cf29a	-0.05003605
39	0xbcae8bbc	-0.021306865
40	0xbd6190bc	-0.05506967
41	0xbd57b42b	-0.052662056
42	0xbd055f1a	-0.0325614
43	0xbcccddc2	-0.025008086
44	0xbc645ce5	-0.013938163
45	0xbd1a78ba	-0.03771279
46	0xbd238440	-0.039921045
47	0xbc6df3f6	-0.014523497
48	0xbd74be2a	-0.059751667
49	0xbc2f5c85	-0.010703211
50	0xbd955783	-0.07292082
51	0xbd0b0fc4	-0.033950582
52	0xbcc999c1	-0.024609448
53	0xbd9e4c80	-0.07729435
54	0xbc56d82e	-0.013113065
55	0xbd5edbc8	-0.05440882
56	0xbd6f48b3	-0.05841894
57	0xbcaf3feb	-0.021392783
58	0xbc1e988e	-0.009679927
59	0xbcdbe210	-0.026841193
60	0xbc3b6264	-0.011437032
61	0xbd4ce57f	-0.050023552
62	0xbd69a812	-0.05704505
63	0xbcbfc824	-0.023410864
64	0x3f739df8	0.95162916
65	0x3f75e626	0.96054304
66	0x3f74d946	0.9564403
67	0x3f74b3f5	0.9558709
68	0x3f72c81d	0.948366
69	0x3f79b7e3	0.97546214
70	0x3f7c3a9a	0.9852692
71	0x3f7dd6df	0.9915599
72	0x3f75633c	0.95854545
73	0x3f7b0ba6	0.9806465
74	0x3f7912ee	0.9729451
75	0x3f80471a	1.0021698
76	0x3f6c8e06	0.9240421
77	0x3f7c398a	0.985253
78	0x3f802818	1.0012236
79	0x3f7784fe	0.96687305
80	0x3f7aacd7	0.9791998
81	0x3f7aec24	0.9801657
82	0x3f78a0fa	0.9712063
83	0x3f833d5b	1.0253099
84	0x3f7c55c3	0.9856836
85	0x3f804681	1.0021516
86	0x3f83ec4e	1.030649
87	0x3f84040a	1.0313733
88	0x3f764e3e	0.9621314
89	0x3f7cff84	0.98827386
90	0x3f795a91	0.9740382
91	0x3f73255c	0.9497888
92	0x3f7b109d	0.98072225
93	0x3f73fb03	0.9530489
94	0x3f7c46d0	0.9854555
95	0x3f79534f	0.97392744
96	0x3f7bd176	0.9836649
97	0x3f807233	1.0034851
98	0x3f740996	0.95327127
99	0x3f77f265	0.9685424
100	0x3f7848be	0.96985996
101	0x3f85df79	1.0458823
102	0x3f7113ab	0.94170636
103	0x3f760416	0.96099985
104	0x3f78be5d	0.9716547
105	0x3f7c3400	0.98516846
106	0x3f7e565f	0.9935054
107	0x3f7bee1c	0.984102
108	0x3f81f4c3	1.015282
109	0x3f764bbc	0.9620931
110	0x3f808071	1.0039197
111	0x3f7db3ef	0.9910268
112	0x3f736491	0.9507533
113	0x3f82aa01	1.0208131
114	0x3f76c475	0.9639352
115	0x3f81cfc1	1.0141526
116	0x3f7b771d	0.9822863
117	0x3f6df943	0.9295847
118	0x3f785482	0.9700395
119	0x3f741a33	0.95352477
120	0x3f712956	0.942037
121	0x3f823b7d	1.0174404
122	0x3f803140	1.001503
123	0x3f73c066	0.9521545
124	0x3f80ef05	1.0072943
125	0x3f7e6cb3	0.9938461
126	0x3f6ff821	0.9373799
127	0x3f7a117e	0.9768294
128	0xbbe73857	-0.007056277
129	0x3b81bf9f	0.0039596106
130	0xbca12f9a	-0.019676019
131	0x3cc098af	0.023510305
132	0xbc0c5dd6	-0.008567294
133	0x3d797ca7	0.060909893
134	0xbbe97725	-0.007124799
135	0xbc2f36cd	-0.010694218
136	0xbcd89a17	-0.026440663
137	0x3c2c9bc1	0.0105351815
138	0xbb975248	-0.004617963
139	0xbc0cd649	-0.008596011
140	0x3c8f7618	0.017512366
141	0x3ced836e	0.028993335
142	0x3c9fc129	0.019501286
143	0x3cc318c8	0.023815528
144	0xbb3deb44	-0.002897934
145	0x3c85e397	0.016343875
146	0x3c40904a	0.011753151
147	0x3c350dd5	0.011050661
148	0xbb864a01	-0.0040981774
149	0x3bc20fd7	0.0059222984
150	0x3cbdb77e	0.023158785
151	0x3d1ff618	0.039053053
152	0x3c735cc3	0.014853659
153	0x3bfacf90	0.007654138
154	0x3c3d2c91	0.01154627
155	0x3c6e2f98	0.014537714
156	0x3bb9696b	0.0056583188
157	0x3c127515	0.008939047
158	0xbc21f565	-0.009885167
159	0x3cb5cc2b	0.022192081
160	0xbbc2c5cb	-0.005943989
161	0xbc432df2	-0.01191281
162	0xbb858761	-0.0040749763
163	0xbb1b4b6d	-0.002369608
164	0xbca91e25	-0.020644257
165	0xbcd3bdcd	-0.02584734
166	0x3c1f1ace	0.009710981
167	0xbcb48eca	-0.022040743
168	0xbcd824c5	-0.02638472
169	0x3c79ef54	0.015254814
170	0xbc9aeda9	-0.018912153
171	0xbc5534fc	-0.013013121
172	0x3a9aa681	0.001179889
173	0x3ca41f63	0.020034498
174	0x3b49e261	0.0030805098
175	0xbcaf3584	-0.021387823
176	0x3b05d62e	0.002042185
177	0xbc8a6e5b	-0.016898325
178	0x3c43e856	0.011957249
179	0xbc51ac01	-0.012797357
180	0x3c5c08a6	0.013429796
181	0x3acc4691	0.0015584995
182	0x3bb8e279	0.005642232
183	0x3ca54ca5	0.020178149
184	0xbbe7f248	-0.0070784427
185	0xbc7cb725	-0.015424524
186	0xbc901149	-0.017586367
187	0x3bf34896	0.0074244244
188	0x3ce47d3a	0.027891744
189	0xbcb3ae95	-0.021933833
190	0xbbdaef29	-0.006681342
191	0x3cabf92b	0.020992836
192	0xbd761860	-0.06008184
193	0xbd0af6a2	-0.033926614
194	0xbd30bb10	-0.043147147
195	0xbd6e5e0a	-0.05819515
196	0xbd50f4e0	-0.05101478
197	0xbbadc604	-0.0053031463
198	0xbd5da238	-0.054109782
199	0xbc325c80	-0.0108863115
200	0xbd41765f	-0.047232028
201	0xbd8595c2	-0.06522705
202	0xbcd2dbf4	-0.025739647
203	0x3ba42af5	0.0050100037
204	0xbd90f8fa	-0.070787385
205	0xbcd121bd	-0.025528783
206	0xbcad2721	-0.021136822
207	0xbca793b4	-0.020456173
208	0xbd630770	-0.055427015
209	0xbca0188d	-0.019542957
210	0xbd1808dd	-0.037117828
211	0x3a53b095	0.0008075324
212	0xbd482bbe	-0.04886984
213	0xbd2ff816	-0.042961203
214	0x3ce8013b	0.0283209
215	0x3c934680	0.017977953
216	0xbd4aa290	-0.049471438
217	0xbcf255a6	-0.029581856
218	0xbb399c22	-0.0028321822
219	0xbd46e055	-0.048553783
220	0xbd44f49e	-0.048084848
221	0xbd7d1f1b	-0.061797243
222	0xbbfe84e3	-0.007767306
223	0xbd3c248b	-0.045933288
224	0xbcc93682	-0.024562124
225	0xbcf28822	-0.029605929
226	0xbd54b3ba	-0.051929213
227	0xbd1f851e	-0.03894531
228	0xbc1b468d	-0.00947727
229	0x3b8fd1d3	0.0043890267
230	0xbd3177df	-0.04332721
231	0xbcda03ed	-0.0266132
232	0xbd54920a	-0.051897086
233	0xbd6cfde5	-0.05785932
234	0xbc81d83d	-0.01585018
235	0xbd127ec3	-0.03576542
236	0xbb35b089	-0.0027723631
237	0xbd222103	-0.039582264
238	0xbca8be33	-0.020598507
239	0xbca52db4	-0.020163395
240	0xbd81c5a0	-0.06336522
241	0xbaaf2b2f	-0.001336431
242	0xbd9db06d	-0.07699666
243	0xbbe00f61	-0.006837771
244	0xbcd60876	-0.026127081
245	0xbd94e3c7	-0.072700076
246	0xbc226506	-0.009911781
247	0xbd2c2a49	-0.042032514
248	0xbd65feca	-0.05615119
249	0x3b55fbfe	0.003265142
250	0xbc0d3f2c	-0.008621018
251	0xbcc13425	-0.023584435
252	0xbcb575b8	-0.02215086
253	0xbd450cdb	-0.048107963
254	0xbd71b72c	-0.059012577
255	0xbcb5d0ae	-0.022194233

functional_1/lstm_1_2/lstm_cell_1/Cast_1/ReadVariableOp/resource:0 f4 [64, 256]
0	0x3d008732	0.031378932
1	0x3bc9d0d7	0.006158929
2	0x3c765f49	0.015037366
3	0xbdda1299	-0.106480785
4	0xbd40d0ed	-0.047074247
5	0x3d14f1e6	0.036363505
6	0xbcf58b04	-0.029973514
7	0x3d4a4322	0.04938043
8	0x3d6e9f7a	0.058257557
9	0x3cdbedac	0.02684673
10	0xbe0f0fb8	-0.1397084
11	0xbd700800	-0.05860138
12	0xbd041f30	-0.032256305
13	0xb9b013a0	-0.00033583958
14	0x3d4e212c	0.050324604
15	0x3d462ce0	0.04838264
16	0x3d0a7a2f	0.03380793
17	0xbd9d7c4a	-0.07689722
18	0xbdbe8406	-0.09302525
19	0x3db903ce	0.09033929
20	0xbd17d88d	-0.037071753
21	0xbd17b925	-0.037041802
22	0x3b2ab254	0.0026046233
23	0xbe2003a6	-0.15626392
24	0xbd8c2e8c	-0.068448156
25	0xbc99ae07	-0.01875974
26	0xbdc2a6cc	-0.0950447
27	0x3ca82397	0.020524783
28	0xbd08940d	-0.033344317
29	0x3e113a67	0.14182435
30	0x3db1078b	0.08644017
31	0x3d1623f9	0.0366554
32	0x3b946a77	0.004529293
33	0xbd492c12	-0.049114294
34	0xbd1b0e8e	-0.037855677
35	0x39fe8500	0.00048545748
36	0xbde35860	-0.111008406
37	0x3d10da05	0.03536417
38	0x3d49554b	0.049153607
39	0x3da9934b	0.08280047
40	0x3e13159c	0.14363712
41	0x3b2dbe5b	0.0026511166
42	0x3c13e17a	0.009025926
43	0x3d49b318	0.049243063
44	0xbdadf4e2	-0.08493973
45	0xbc8261a2	-0.015915696
46	0x3dc77a5e	0.097401366
47	0xbc185a5b	-0.009298886
48	0xbda31a6c	-0.07964024
49	0xbe2ec635	-0.17067797
50	0x3c9759a1	0.018475356
51	0xbdd08c0a	-0.1018296
52	0x3cb50a2b	0.022099575
53	0x3d50fda6	0.051023148
54	0x3df54dd5	0.11977736
55	0xbd16ccab	-0.03681628
56	0x3d3ae45a	0.04562793
57	0xbd9a94ae	-0.0754789
58	0xbd6b5bff	-0.05746078
59	0xbb293b29	-0.0025822616
60	0xbdc830a2	-0.09774901
61	0x3bbe1bfe	0.005801677
62	0xbd9bd7d9	-0.07609529
63	0x3cc81cc2	0.024427775
64	0x3d8a7f8f	0.06762611
65	0xbceb7d24	-0.028746195
66	0x3d9474b8	0.07248825
67	0xbe3d5aac	-0.1849162
68	0x3d9a2150	0.07525885
69	0x3d100c47	0.03516796
70	0x3dc7a6e5	0.097486295
71	0xbd0a5615	-0.0337735
72	0x3d547354	0.051867798
73	0xbd3b2f80	-0.045699596
74	0x3b8988da	0.004197222
75	0x3d087ea5	0.033323903
76	0x3ceccdb4	0.02890668
77	0xbd25556f	-0.04036468
78	0x3ccb46f7	0.024814112
79	0x3c06e6c9	0.008233734
80	0x3dbba7e9	0.09162886
81	0xbdd67ff5	-0.104736246
82	0xbdcb25fd	-0.09919355
83	0x3dcb8843	0.09938099
84	0x3ca4caa6	0.020116162
85	0xbd35a11b	-0.044343095
86	0x3d3e700f	0.046493586
87	0x3d1bc9d3	0.03803427
88	0xbdcdbeea	-0.100461796
89	0x3e14c0f6	0.14526734
90	0x3d7323c7	0.05936029
91	0x3c7a579d	0.015279678
92	0x3c885b34	0.016645052
93	0x3da6ad3a	0.08138509
94	0xbd00c275	-0.03143545
95	0xbd36f5fd	-0.044668186
96	0x3d6e331e	0.058154218
97	0xbc9744d2	-0.018465433
98	0xbce5b302	-0.02803946
99	0x3af9859f	0.0019037015
100	0x3d965dca	0.073421076
101	0xbc9b8806	-0.01898576
102	0xbd9dccea	-0.077051
103	0x3b0ab742	0.002116636
104	0x3db7ec63	0.08980634
105	0xbccc8d5c	-0.02496975
106	0xbdb75c8a	-0.08953197
107	0xbced763d	-0.028987044
108	0xbc961d95	-0.018324653
109	0xbde64495	-0.1124355
110	0x3da00e80	0.07815266
111	0xbc5d7ac0	-0.013518035
112	0xbcd3e261	-0.025864782
113	0xbc5a8cce	-0.0133392345
114	0xbb7c7503	-0.0038521893
115	0xbda6dd39	-0.081476636
116	0x3c0fcbc3	0.008776608
117	0x3d255bec	0.040370867
118	0x3db2aeb4	0.08724728
119	0x3a0777a8	0.00051676715
120	0x3d5e5dc8	0.054288656
121	0x3d74cc29	0.059765015
122	0xba9f514b	-0.0012154964
123	0x3c8e378b	0.01736047
124	0x3de42edc	0.1114175
125	0xbd81b337	-0.06333011
126	0x3e033d89	0.12816443
127	0x3c2ea73d	0.01065999
128	0xbd78110a	-0.060563125
129	0xbdbaac7a	-0.091149285
130	0xbd376c64	-0.044781104
131	0xbe5110b0	-0.20416522
132	0x3dc6255b	0.09675094
133	0x3d3c51ac	0.045976326
134	0x3d25a8f1	0.04044432
135	0x3c21e6c4	0.009881679
136	0xbdb3bbc0	-0.08776045
137	0x3d87f4fe	0.066385254
138	0x3d15ed61	0.036603335
139	0x3c1563e1	0.009118051
140	0xb92318ee	-0.00015554178
141	0xbd81a93f	-0.06331109
142	0x3ad78fa1	0.0016446003
143	0xbcc4ff6a	-0.024047572
144	0x3c1fa7f4	0.009744633
145	0x3c274418	0.010209106
146	0xbd03130f	-0.032000598
147	0xbdbe8830	-0.093033195
148	0xbbf9e343	-0.0076259687
149	0x3d103fbb	0.035217028
150	0x3d65d602	0.056112297
151	0xbb01539d	-0.0019733675
152	0xbdbd18a2	-0.09233214
153	0x3d45c778	0.04828593
154	0xbd0fd698	-0.035116762
155	0xb9caa932	-0.00038654503
156	0x3cffdc47	0.031232966
157	0x3d89c5a1	0.06727148
158	0xbd2220b6	-0.039581977
159	0xbd601f52	-0.05471737
160	0xbcf1563a	-0.029460061
161	0xbca49a84	-0.02009321
162	0x3bfdc40d	0.0077443183
163	0x3ab86fec	0.0014071441
164	0xbda21e58	-0.07915944
165	0xbd5dd82e	-0.054161243
166	0x3d8c10f2	0.068391696
167	0x3d30a7c0	0.04312873
168	0x3d1abad2	0.037775822
169	0x3ca68b04	0.02032996
170	0xbb8ccc2b	-0.0042967997
171	0xbcd0250b	-0.025408288
172	0x3da7c9f4	0.081928164
173	0x3d5362e3	0.051607978
174	0x3bdc9a8d	0.006732291
175	0x3ddd6542	0.10810329
176	0x3cc2ae98	0.023764893
177	0x3cd7154d	0.026255274
178	0x3ccf1219	0.025277184
179	0xbdebdd1e	-0.11516784
180	0xbcf31f12	-0.029677901
181	0x3d7c942e	0.061664753
182	0x3ad4bf5b	0.0016231345
183	0x3c029f4c	0.00797255
184	0xbda2ec08	-0.07955176
185	0xbc00f2bf	-0.007870375
186	0x3d43ed04	0.047833458
187	0xbd068a1d	-0.03284656
188	0xbd4d5b6f	-0.050136026
189	0xbd11971c	-0.0355445
190	0x3d4f49d7	0.05060753
191	0xbd837c70	-0.06420219
192	0xbcfbe22f	-0.030747501
193	0x3db0f000	0.08639526
194	0x3cfa7aeb	0.03057619
195	0xbccb9ffa	-0.024856556
196	0x3d401b20	0.04690087
197	0x3d50dbb8	0.05099079
198	0xbdffe559	-0.124949165
199	0x3ddf7562	0.10911061
200	0x3d780481	0.06055117
201	0xbd2f9374	-0.04286523
202	0x3e33707b	0.17523377
203	0xbd132b68	-0.035930067
204	0x3d7f22de	0.06228911
205	0x3d35e685	0.044409294
206	0x3e23ced6	0.1599687
207	0x3b1392f1	0.0022518004
208	0x3c60fbcb	0.013731907
209	0x3d4152ad	0.047197986
210	0xbddd0a17	-0.1079294
211	0xbd2273cd	-0.039661217
212	0xbce6cda1	-0.028174223
213	0xbd943597	-0.07236784
214	0x3d03420f	0.03204542
215	0xbd99c0a2	-0.07507445
216	0xbdd92f45	-0.10604719
217	0x3d576c2f	0.052593406
218	0xbd5913cd	-0.0529974
219	0x3d2b8762	0.041877158
220	0x3e027373	0.12739353
221	0x3c654cf6	0.0139954
222	0x3c19e122	0.009392055
223	0x3cee6a63	0.029103464
224	0x3d879d44	0.06621793
225	0x3c0b40bc	0.008499321
226	0xbcae60bb	-0.021286359
227	0x3cf9cf98	0.030494496
228	0xbd649a12	-0.055810995
229	0x3d8ede0e	0.06975947
230	0x3d652669	0.055944834
231	0x3daafac2	0.083486095
232	0x3dfbb490	0.12290299
233	0x3ce22625	0.02760608
234	0xbd44e80a	-0.048072852
235	0x3e0762ec	0.1322133
236	0x3d386dc4	0.045026556
237	0x3d6e0a06	0.058115028
238	0x3d587d33	0.052853774
239	0x3c1d6d74	0.009608615
240	0xbc9b35da	-0.018946577
241	0x3d23b1c7	0.039964464
242	0x3d10b0c7	0.035324838
243	0xbceae7e9	-0.028675037
244	0xbd91d1f1	-0.07120121
245	0xbe09b0d9	-0.13446368
246	0x3b9e981d	0.0048399107
247	0xbce27b7a	-0.027646769
248	0x3e55f16e	0.2089288
249	0x3d5ddd2c	0.054166004
250	0x3d37fd0c	0.04491906
251	0xbd99421c	-0.074833125
252	0xbe31cab0	-0.17362475
253	0x3d88b0c0	0.066743374
254	0x3c151f11	0.009101645
255	0x3dae81f3	0.085208796

functional_1/lstm_1_2/lstm_cell_1/Cast/ReadVariableOp/resource:0 f4 [128, 256]
0	0xbd2ff228	-0.042955548
1	0x3d5fede6	0.054670237
2	0xbc80a13b	-0.01570188
3	0xbd8c8ff5	-0.06863395
4	0xbd1bbd1d	-0.03802215
5	0xbd1b6dc0	-0.037946463
6	0xbde11a2a	-0.109913185
7	0x3ce750b0	0.028236717
8	0x3df40ab7	0.11916106
9	0xbd89ac9d	-0.067223765
10	0x3cda059c	0.026614003
11	0xbde29659	-0.11063833
12	0xbab9438b	-0.0014134509
13	0x3da34a55	0.07973162
14	0xbdcdaf43	-0.10043194
15	0x3c3e06d6	0.0115983095
16	0xbdf7c92d	-0.12098918
17	0xbc6166e6	-0.013757443
18	0x3cce4b55	0.025182405
19	0x3cdb0812	0.026737247
20	0xbdf7d4d1	-0.121011384
21	0xbd0ccc85	-0.034374733
22	0xbdd13d58	-0.102167785
23	0xbda5be7c	-0.08092973
24	0x3d7ac99b	0.061227422
25	0xbd18e85a	-0.037330963
26	0xbd3012b5	-0.04298659
27	0x3da523d1	0.08063472
28	0x3d525878	0.0513539
29	0x3dd29b12	0.102834836
30	0xbe0f0e5b	-0.1397032
31	0xbde01fd1	-0.109435685
32	0xbdb32142	-0.08746578
33	0xbd3d263f	-0.046179052
34	0x3e10eb70	0.14152312
35	0xbde2e533	-0.110788725
36	0x3d78b7e8	0.06072226
37	0xbdec3357	-0.1153323
38	0xbdf2cf85	-0.118559875
39	0xbdab843c	-0.08374831
40	0xbb62ef92	-0.0034627658
41	0x3afe5d61	0.0019406491
42	0xbddcccb4	-0.107812315
43	0xbd119b24	-0.035548344
44	0xbdc4e7d8	-0.09614533
45	0xbe0aa448	-0.13539231
46	0xbcdb7ee3	-0.026793903
47	0xbd028a46	-0.03187015
48	0xbe0d8ddf	-0.13823651
49	0x3e02e4bc	0.12782568
50	0x3d774160	0.06036508
51	0xbe06a746	-0.13149747
52	0x3d16d038	0.036819667
53	0xba4cdb10	-0.0007814625
54	0xba8ae86b	-0.001059783
55	0xbdbc7497	-0.09201925
56	0xbe0d1ac1	-0.13779737
57	0x3d778bcc	0.060436055
58	0x3c5d444f	0.013505056
59	0x3dc8a1a6	0.09796457
60	0xbd82c0f5	-0.0638446
61	0x3d0a63f0	0.033786714
62	0xbd497c27	-0.049190667
63	0x3daeaa90	0.08528626
64	0x3c30b2ed	0.010784847
65	0xbdb728a0	-0.089432955
66	0x3d20aee9	0.039229307
67	0x3da3ba05	0.07994465
68	0xbd6df506	-0.058095
69	0x3d656cd4	0.05601199
70	0x3dd4ad57	0.103846245
71	0x3da505b2	0.08057727
72	0x3dc81950	0.09770453
73	0x3dca4671	0.09876717
74	0xbd603571	-0.054738466
75	0xbce9a596	-0.02852134
76	0xbc777674	-0.015103925
77	0xbdf19750	-0.11796439
78	0xbd461933	-0.048363876
79	0xbd789fee	-0.060699396
80	0x3e00108f	0.12506317
81	0xbde61cb9	-0.11235947
82	0xbdecd485	-0.115639724
83	0x3da1a3d3	0.07892575
84	0x3df78cf8	0.120874345
85	0x3929bbc0	0.00016187038
86	0x3db8043c	0.08985183
87	0x3d9d0c55	0.07668368
88	0x3d2c7601	0.042104725
89	0x3e26dd59	0.16295375
90	0xbab4b056	-0.0013785462
91	0xbd7e196a	-0.062035955
92	0x3dbe1641	0.09281588
93	0x3d0b9604	0.034078613
94	0xbcff32ab	-0.03115209
95	0xbdc37791	-0.0954429
96	0x3c946fb6	0.018119674
97	0x3dad3923	0.084581636
98	0x3c1f4e98	0.009723328
99	0x3d03ff3e	0.03222584
100	0x3b228f21	0.002480455
101	0x3d0dad9b	0.03458939
102	0x3d2be900	0.041970253
103	0xbe00087f	-0.12503241
104	0xbdd06961	-0.101763494
105	0x3d8638fb	0.06553837
106	0x3d3f7519	0.046742532
107	0xbd5e4768	-0.054267317
108	0xbd0787da	-0.033088543
109	0xbbd6f7f6	-0.006560321
110	0x3c48ed7f	0.012263655
111	0xbda22bde	-0.07918523
112	0xbd6ffc81	-0.058590416
113	0x3d428c33	0.047496986
114	0xbdc35a03	-0.09538653
115	0xbc7100e7	-0.014709688
116	0x3db31bf0	0.08745563
117	0xbd949dd6	-0.07256667
118	0x3cd3e6c3	0.025866872
119	0xbe1f0da1	-0.15532543
120	0xbdc3c603	-0.09559252
121	0x3d90d0d2	0.07071079
122	0xbdab6c23	-0.08370235
123	0xbe0043dd	-0.12525888
124	0x3db30734	0.08741608
125	0x3d12b69a	0.035818674
126	0xbc35d5e8	-0.0110983625
127	0x3b29d457	0.0025913918
128	0x3d4ebf05	0.05047514
129	0xbdfc3aa5	-0.12315873
130	0xbc38cce2	-0.011279317
131	0x3c0c34fa	0.0085575525
132	0x3d755717	0.05989751
133	0x3d3c75f9	0.046010945
134	0xbd8c1fd7	-0.068420105
135	0xbc40765b	-0.011746968
136	0xbbc79736	-0.006091024
137	0x3db3bbbe	0.08776043
138	0xbdd5f77f	-0.10447597
139	0x3df5437f	0.119757645
140	0xbd68838f	-0.05676609
141	0x3e0c45e5	0.13698538
142	0x3dc564e2	0.096383825
143	0x3daa8d44	0.083277255
144	0xbc28ecf2	-0.010310398
145	0x3d8ac299	0.06775398
146	0x3da45cd1	0.08025516
147	0xbc8aa63e	-0.016924974
148	0xbcb89c05	-0.022535333
149	0xbb0ee14f	-0.0021801775
150	0x3dd11c2b	0.10210451
151	0x3e1df25f	0.15424488
152	0xbd95dcb5	-0.07317487
153	0x3dd8e769	0.10591013
154	0xbd947859	-0.07249517
155	0xbca52f9d	-0.020164305
156	0x3de96ad5	0.1139733
157	0xbd311a66	-0.043238066
158	0xbdbe093d	-0.09279106
159	0xbda02053	-0.07818665
160	0x3da3aa55	0.07991473
161	0xbe038fcd	-0.12847824
162	0xbd8a7c3e	-0.067619786
163	0x3d9647b2	0.073378935
164	0x3c837d62	0.016050998
165	0xbde9fad8	-0.11424798
166	0xbdbd8735	-0.09254304
167	0xbdf12888	-0.11775309
168	0x3d390797	0.045173254
169	0x3ade6b86	0.00169693
170	0xbd598c66	-0.05311241
171	0x3dacfc1d	0.08446524
172	0xbc839c36	-0.016065698
173	0xbda66447	-0.08124595
174	0xbd9bad2b	-0.076013885
175	0xbdd78833	-0.10524025
176	0xbe074947	-0.13211547
177	0xbdb74113	-0.08947959
178	0xbd0d6e54	-0.034529045
179	0x3d2fb14b	0.04289369
180	0x3da0ca9c	0.07851145
181	0x3dee1725	0.11625508
182	0xbc99be96	-0.018767636
183	0xbd72c92d	-0.059273887
184	0xbca165c5	-0.019701848
185	0x3c896505	0.016771803
186	0xbd8f3418	-0.06992358
187	0x3cd03c5d	0.025419408
188	0x3d057f25	0.032591958
189	0xbde96ed0	-0.11398089
190	0x3e025626	0.12728176
191	0xbbbd1987	-0.0057708654
192	0x3dce718f	0.10080253
193	0xbded7c78	-0.11596006
194	0xbd570ce6	-0.052502535
195	0x3dc0d3c9	0.09415395
196	0xbda28d92	-0.07937159
197	0x3d3027e5	0.043006796
198	0x3d8b621c	0.06805822
199	0x3d8d004b	0.068848215
200	0xbdb57626	-0.08860426
201	0x3d6a89cc	0.05726032
202	0x3d2de386	0.04245331
203	0xbd8ad2a3	-0.06778457
204	0x3cba9fdf	0.02278131
205	0x3d567e13	0.052366327
206	0xbdec17e8	-0.11527997
207	0x3d9e8eb7	0.077420644
208	0xbe070f1d	-0.13189359
209	0x3d878d3a	0.06618734
210	0xbcb67040	-0.022270322
211	0xbd18b030	-0.0372774
212	0xbceb6561	-0.028734865
213	0x3e18e63a	0.14931574
214	0x3d882276	0.06647198
215	0xbb3e9223	-0.0029078803
216	0xbdb9495b	-0.090471946
217	0x3d024f5b	0.03181396
218	0xbd2e98db	-0.042626243
219	0x3d12e482	0.035862453
220	0xbd0ca59f	-0.034337636
221	0xbc3fb196	-0.011700055
222	0x3d4f9e3d	0.050688017
223	0x3da4b8d3	0.08043065
224	0xbda7cb0c	-0.08193025
225	0xbcbddd3b	-0.02317678
226	0x3d20e96a	0.0392851
227	0xbca1a6c5	-0.019732842
228	0xbb3550ca	-0.0027666562
229	0x3ddc3546	0.107523486
230	0xbe36e48c	-0.17860621
231	0xbd37eaf8	-0.044901818
232	0xbdd8bfd2	-0.10583462
233	0x3dba81f3	0.09106817
234	0xbc1299c9	-0.008947798
235	0xbdd9491b	-0.10609647
236	0x3d3663b3	0.044528674
237	0x3d81212f	0.063051574
238	0xbdd844e7	-0.10560017
239	0xbd6ce9ba	-0.057840087
240	0xbcd8b248	-0.026452199
241	0xbd353c1d	-0.04424678
242	0x3dc935b6	0.09824698
243	0x3cf6129a	0.030038167
244	0xbd386782	-0.045020588
245	0xbe00b143	-0.1256762
246	0xbda7c480	-0.08191776
247	0x3d9c5108	0.07632643
248	0xbdabc713	-0.0838758
249	0x3be20952	0.0068980837
250	0x3cf5d4e3	0.030008739
251	0x3da3d60b	0.0799981
252	0xbcfd03cd	-0.030885601
253	0x3c027377	0.007962099
254	0x3d8ca8b2	0.068681136
255	0x3db063fa	0.08612819

functional_1/lstm_1/lstm_cell_1/add_1/ReadVariableOp/resource:0 f4 [512]
0	0xbd52cbd5	-0.05146392
1	0xbd4f1b1a	-0.050562955
2	0xbd426eee	-0.047469072
3	0xbd789495	-0.060688574
4	0xbd114635	-0.035467345
5	0xbd22eb17	-0.03977498
6	0xbb9b4ff1	-0.0047397544
7	0xbd566824	-0.05234541
8	0xbc2166e5	-0.009851192
9	0xbd486550	-0.048924744
10	0xbbfd4f94	-0.0077304337
11	0x390421fb	0.0001260116
12	0xbc887f5a	-0.016662288
13	0xbd359798	-0.044334024
14	0xbcd2442e	-0.025667276
15	0xbcb1d783	-0.02170921
16	0xbc6feed3	-0.0146443425
17	0xbcc3a98d	-0.023884559
18	0xbd347cd9	-0.044064377
19	0xbcafb4c9	-0.02144851
20	0x39a6e1fb	0.00031830356
21	0xbd799b59	-0.060939167
22	0xbd3b4a16	-0.04572495
23	0xbd34464c	-0.044012353
24	0xbd5b91a8	-0.053605705
25	0xbacc6a07	-0.0015595563
26	0xbd46ed5d	-0.04856621
27	0xbc947268	-0.01812096
28	0xbd3aa406	-0.04556658
29	0xbd0cc6d2	-0.034369297
30	0xbd626476	-0.05527159
31	0xbd12ddfd	-0.035856236
32	0xbd1d2863	-0.038368594
33	0xbcf84c8d	-0.03030994
34	0xbd73ae57	-0.059492435
35	0xbd5e818c	-0.054322764
36	0xbd62a818	-0.055336088
37	0xbd7e896b	-0.06214277
38	0xbd337838	-0.04381582
39	0xbc8f8e20	-0.017523825
40	0xbc8bf420	-0.017084181
41	0xbcdecd44	-0.027197488
42	0xbcd66645	-0.026171813
43	0xbd6c2b27	-0.05765834
44	0xbd23b19e	-0.03996431
45	0xbc08fd5a	-0.008361185
46	0xbd3ca021	-0.04605115
47	0xbd90f359	-0.07077665
48	0xbd64fd62	-0.055905707
49	0xbcb2cbb9	-0.021825658
50	0xbcc8f979	-0.02453302
51	0xbcdec4ec	-0.027193509
52	0xb99e35ac	-0.00030176097
53	0xbd004980	-0.031320095
54	0xbcadce2b	-0.021216473
55	0xbccc52a9	-0.02494176
56	0xbcfe9c2f	-0.031080334
57	0xbce8a495	-0.028398791
58	0xbca7243f	-0.020403026
59	0xbd86af75	-0.065764345
60	0xbd86fc08	-0.0659104
61	0xbd468bc3	-0.04847313
62	0xbd6a9795	-0.057273466
63	0xbcf660aa	-0.03007539
64	0xbc82abc7	-0.01595105
65	0xbc6ebcba	-0.014571363
66	0xbd2c6604	-0.042089477
67	0xbd4beba2	-0.049785264
68	0xbd2d7466	-0.042347334
69	0xbcb3dd28	-0.021956041
70	0xbd4d100a	-0.050064124
71	0xbd28bf1e	-0.04119789
72	0xbb69d899	-0.003568208
73	0xbd047383	-0.032336723
74	0xbd0a72bb	-0.03380082
75	0xbcca8290	-0.02472046
76	0xbd608e58	-0.05482325
77	0xbd7ad169	-0.061234865
78	0xbc47aee7	-0.012187696
79	0xbd4806ae	-0.048834495
80	0xbd74188b	-0.05959372
81	0xbd50886f	-0.050911363
82	0xbb215adc	-0.0024620807
83	0xbc6d1187	-0.014469511
84	0xbbf88842	-0.0075846026
85	0xbcaee593	-0.021349704
86	0xbd6f4495	-0.058415014
87	0xbc666dca	-0.014064262
88	0xbd4d2e59	-0.05009303
89	0xbd00ca4b	-0.03144292
90	0xbd4b3cd5	-0.04961856
91	0xbd555e7b	-0.052092057
92	0xbce6c8fa	-0.028172005
93	0xbcf5244d	-0.029924536
94	0xbd694b69	-0.056956682
95	0xbd34058b	-0.0439506
96	0xbab2a748	-0.0013630176
97	0x3c1eb4ed	0.009686691
98	0xbd7a15fa	-0.061056115
99	0xbc8a1b84	-0.016858824
100	0xbcac8f73	-0.021064496
101	0xbd7abd7f	-0.061215874
102	0xbcd16200	-0.025559425
103	0xbcb1ccfd	-0.021704191
104	0xbd4713bc	-0.048602805
105	0xbd3d5a50	-0.046228707
106	0xbc424885	-0.01185811
107	0xbd1732c3	-0.036913645
108	0xbbe25dc7	-0.006908152
109	0xbcd3273a	-0.02577554
110	0xbd1338b5	-0.035942752
111	0xbd891b01	-0.06694604
112	0xbbd63d4b	-0.0065380684
113	0xbd8d2828	-0.06892425
114	0xbd3287c5	-0.04358651
115	0xbd01793a	-0.03160975
116	0xbd26b875	-0.040703256
117	0xbd61e4a7	-0.0551497
118	0xbd326b99	-0.043559644
119	0xbd070069	-0.032959376
120	0xbd60ef1c	-0.054915532
121	0xbce25671	-0.02762911
122	0xbbeb9b30	-0.0071901307
123	0xbc0fbf30	-0.00877361
124	0xbd5b3845	-0.05352046
125	0xbca918bd	-0.020641679
126	0xbd858c7a	-0.065209344
127	0xbcb77693	-0.022395408
128	0x3f79f836	0.97644365
129	0x3f7e2c68	0.9928651
130	0x3f733d65	0.95015556
131	0x3f78b5d9	0.9715248
132	0x3f79971c	0.974962
133	0x3f7490b6	0.9553331
134	0x3f7e60e4	0.99366593
135	0x3f798869	0.9747377
136	0x3f7451d0	0.95437336
137	0x3f74bb25	0.9559806
138	0x3f7c76d3	0.9861881
139	0x3f7e2d89	0.9928823
140	0x3f72aee6	0.94798124
141	0x3f73499d	0.950342
142	0x3f7e80ea	0.9941546
143	0x3f740428	0.9531884
144	0x3f7e0447	0.99225277
145	0x3f77587d	0.966194
146	0x3f764dba	0.9621235
147	0x3f7bbc6f	0.983344
148	0x3f843d8c	1.0331283
149	0x3f72c1f2	0.9482719
150	0x3f736077	0.9506907
151	0x3f769234	0.9631684
152	0x3f76e167	0.96437687
153	0x3f7b1f99	0.9809509
154	0x3f79ca76	0.97574556
155	0x3f727ed1	0.94724756
156	0x3f798381	0.97466284
157	0x3f7e54ef	0.9934835
158	0x3f734ac0	0.95035934
159	0x3f788438	0.9707675
160	0x3f7da571	0.9908057
161	0x3f7d3ab3	0.9891769
162	0x3f733ed9	0.9501777
163	0x3f727305	0.94706756
164	0x3f707404	0.93927026
165	0x3f78fa01	0.97256476
166	0x3f77eefd	0.9684904
167	0x3f82bbb4	1.0213532
168	0x3f736395	0.95073825
169	0x3f7ac67f	0.9795913
170	0x3f7910c0	0.97291183
171	0x3f71adcb	0.9440581
172	0x3f7617ed	0.9613026
173	0x3f73e01b	0.9526383
174	0x3f765a73	0.96231765
175	0x3f717f75	0.9433511
176	0x3f76c357	0.96391815
177	0x3f7fadde	0.99874675
178	0x3f7a2fd7	0.9772925
179	0x3f76ceef	0.96409506
180	0x3f7c43dc	0.98541045
181	0x3f750a74	0.95719075
182	0x3f6db04c	0.9284713
183	0x3f7ad4f2	0.9798118
184	0x3f798d05	0.97480804
185	0x3f783311	0.9695292
186	0x3f7473bc	0.95489097
187	0x3f740a90	0.9532862
188	0x3f7059c1	0.93886954
189	0x3f736e2f	0.9509
190	0x3f75ac26	0.959658
191	0x3f74b67c	0.9559095
192	0x3f807be4	1.0037808
193	0x3f77207f	0.9653396
194	0x3f7a358f	0.97737974
195	0x3f708f61	0.9396878
196	0x3f738d63	0.95137614
197	0x3f7d120d	0.9885567
198	0x3f72b35d	0.94804937
199	0x3f73a561	0.95174223
200	0x3f7f75dc	0.99789214
201	0x3f796f12	0.97435105
202	0x3f78de1d	0.9721392
203	0x3f7bd350	0.9836931
204	0x3f702f47	0.9382214
205	0x3f7023dc	0.9380472
206	0x3f7be603	0.98397845
207	0x3f730735	0.9493287
208	0x3f6ffb7f	0.9374313
209	0x3f71738b	0.9431693
210	0x3f7958ca	0.97401106
211	0x3f78b350	0.9714861
212	0x3f7a5bd2	0.97796357
213	0x3f771e9e	0.96531093
214	0x3f71da78	0.9447398
215	0x3f74c001	0.95605475
216	0x3f770a5d	0.9650019
217	0x3f78f28f	0.97245115
218	0x3f78edeb	0.97238034
219	0x3f75359e	0.9578494
220	0x3f76e6e0	0.9644604
221	0x3f766bf4	0.96258473
222	0x3f7399b9	0.9515644
223	0x3f7698be	0.96326816
224	0x3f7d435d	0.98930913
225	0x3f779d06	0.96723974
226	0x3f78208e	0.96924675
227	0x3f7e8b6d	0.99431497
228	0x3f785024	0.96997285
229	0x3f72aad7	0.9479193
230	0x3f78efd4	0.9724095
231	0x3f7caddc	0.9870279
232	0x3f745122	0.954363
233	0x3f73df2f	0.95262426
234	0x3f80e6dd	1.0070454
235	0x3f7dd61d	0.99154836
236	0x3f8234a6	1.0172317
237	0x3f7a7c2d	0.9784573
238	0x3f7d95e6	0.9905685
239	0x3f6d864b	0.9278304
240	0x3f76894f	0.96303266
241	0x3f740774	0.9532387
242	0x3f76121b	0.96121377
243	0x3f75a730	0.9595823
244	0x3f77c73e	0.96788394
245	0x3f714564	0.94246507
246	0x3f7c56f8	0.98570204
247	0x3f764d15	0.9621137
248	0x3f7697f9	0.9632564
249	0x3f7790e2	0.9670545
250	0x3f7d112d	0.98854333
251	0x3f7a93c3	0.97881716
252	0x3f70a8c7	0.94007534
253	0x3f7e7d59	0.99410015
254	0x3f7568a3	0.9586279
255	0x3f7bf979	0.9842754

functional_1/lstm_1/lstm_cell_1/Cast_1/ReadVariableOp/resource:0 f4 [128, 512]
0	0xbc671372	-0.014103757
1	0xbdc513c2	-0.09622909
2	0x3c3bb87b	0.011457558
3	0xbd439e35	-0.0477583
4	0x3d24b4ae	0.040211372
5	0xbc6b5377	-0.014363161
6	0xbd562201	-0.052278522
7	0xbd5b0632	-0.053472705
8	0x3cc5e26e	0.024155822
9	0xbd3e4868	-0.04645577
10	0x3d165c2c	0.036708996
11	0xbc914c77	-0.017736657
12	0x3e1484ee	0.14503834
13	0xbc114197	-0.0088657355
14	0xbdc0456a	-0.0938824
15	0xbd1e08ab	-0.038582485
16	0xbe0632f7	-0.13105379
17	0xbc434e91	-0.011920587
18	0xbdf9dfbb	-0.12200876
19	0xbc153269	-0.009106257
20	0xbd2273ad	-0.0396611
21	0xbd251ede	-0.04031264
22	0xbc821a4b	-0.015881678
23	0x3b118f61	0.0022210705
24	0x3d11755c	0.035512313
25	0xba929fed	-0.0011186578
26	0x3d626405	0.055271167
27	0xbdb23053	-0.08700623
28	0xbcaa5b6d	-0.020795548
29	0xbd7a4e98	-0.06111011
30	0xbd2bdab2	-0.04195661
31	0xbd3eabcb	-0.046550553
32	0x3c29b29d	0.010357526
33	0xbcb009f3	-0.02148912
34	0xbd7ae690	-0.061255038
35	0x3cd5226c	0.02601739
36	0xbba925ee	-0.0051619923
37	0xbd24ee78	-0.040266484
38	0xbd574324	-0.052554265
39	0xbda0e925	-0.07856969
40	0xbc2bf23e	-0.010494767
41	0xbd2c503a	-0.042068698
42	0xbc8ff569	-0.017573075
43	0x3d7ba10c	0.061432883
44	0xbbf91f85	-0.0076026344
45	0x3da080be	0.078370556
46	0xbcf4014d	-0.029785777
47	0x3cd98391	0.026551994
48	0x3d062f32	0.032759853
49	0xbd8f9ae0	-0.07011962
50	0x3c84e0b6	0.016220432
51	0xbde036f8	-0.109479845
52	0xbc065edb	-0.008201326
53	0x3dac9ebb	0.08428713
54	0xbdc56392	-0.09638132
55	0x3c929d52	0.017897282
56	0xbc41a9a7	-0.011820233
57	0x3d392e2f	0.04521006
58	0xbd3732e2	-0.04472626
59	0xbcaa51a5	-0.020790884
60	0xbd521991	-0.051293913
61	0xbda594bc	-0.080850095
62	0xbd5bf4da	-0.053700306
63	0xbc3e83c7	-0.011628098
64	0xbcf1c230	-0.029511541
65	0x3ac7d7ce	0.001524681
66	0xbd902395	-0.07038037
67	0xbd93bc61	-0.07213665
68	0xbd8f435a	-0.06995268
69	0x3d3ef1f2	0.046617456
70	0x3cc41e62	0.023940269
71	0xbd3b2a07	-0.045694377
72	0x3dd30707	0.10304075
73	0xbc617be2	-0.013762446
74	0xbd71c7ee	-0.05902856
75	0x3d538565	0.051640887
76	0xbd4f9cfa	-0.050686814
77	0xbaaf36b0	-0.0013367739
78	0xbd12e910	-0.035866797
79	0xbd12a510	-0.035801947
80	0x3cefef19	0.029288815
81	0xbb1d8841	-0.0024037512
82	0x3cc5b91f	0.024136124
83	0x3c9dbb27	0.01925428
84	0xbd5d4dcc	-0.05402927
85	0x3c17a28c	0.009255063
86	0x3b8bb9e1	0.004264102
87	0xbc37ed50	-0.011226013
88	0x3d83a720	0.06428361
89	0x3d849299	0.06473274
90	0x3b96989e	0.00459583
91	0xbd9bf0f6	-0.07614319
92	0x3cabb1b8	0.020958766
93	0x3c817214	0.015801467
94	0xbd1daef9	-0.038496945
95	0x3d36ac5f	0.04459798
96	0x3d345237	0.04402372
97	0xbd3a6296	-0.045504175
98	0xbd2446cc	-0.04010658
99	0x3d866e6c	0.0656403
100	0xbceaeecc	-0.02867832
101	0xbaaa35d6	-0.0012986015
102	0x3cb7ec2c	0.022451483
103	0xbda054c5	-0.078286685
104	0x3be75a53	0.007060328
105	0xbdb9fdb8	-0.09081596
106	0x3cba0048	0.022705212
107	0xbcc8c62d	-0.02450856
108	0xbc2fe283	-0.010735157
109	0x3d572316	0.052523695
110	0x3d327794	0.04357107
111	0x3c56af5a	0.0131033305
112	0x3d1037be	0.03520941
113	0xbccd802b	-0.02508553
114	0xbc4198e1	-0.011816234
115	0xbcdee2db	-0.027207782
116	0x3d452d2c	0.048138782
117	0xbd3053c5	-0.04304864
118	0xbd37cd89	-0.044873748
119	0xbd47c299	-0.048769567
120	0xbc348675	-0.011018385
121	0xbc72f61d	-0.014829186
122	0xbc38a433	-0.011269617
123	0x3c27ab48	0.010233708
124	0x3cfa28be	0.030537006
125	0x3d57e3bf	0.05270743
126	0x3d7ceaf0	0.06174749
127	0xbbc47eda	-0.005996567
128	0xbd8c41c2	-0.0684848
129	0x3d402901	0.046914104
130	0xbd8d43fb	-0.06897732
131	0x3dc138bf	0.094346516
132	0xbc69e304	-0.014275316
133	0x3d0b90da	0.034073688
134	0x3c780f39	0.015140348
135	0xbbca855e	-0.0061804494
136	0x3d0c90cb	0.034317773
137	0x3b5025f5	0.0031760905
138	0xbbfbe380	-0.007687032
139	0x3d8f5494	0.06998554
140	0xbccf2bb2	-0.02528939
141	0xbd081168	-0.033219725
142	0xbd6b275a	-0.057410575
143	0xbd93783e	-0.07200669
144	0xbdc40c08	-0.09572607
145	0xbc1666b5	-0.009179761
146	0xbd9b527f	-0.07584094
147	0xbcbe6ebd	-0.023246164
148	0xbdbbfd94	-0.091792256
149	0xbdfc3186	-0.12314133
150	0xbd015dcc	-0.031583592
151	0x3baac270	0.005211167
152	0xbdb8aaca	-0.090169504
153	0x3d00b1a4	0.03141941
154	0xbd9b8452	-0.075935975
155	0xbd38f006	-0.04515078
156	0x3c4e2323	0.012581619
157	0xbd0dafa3	-0.03459133
158	0x3d8a909d	0.06765864
159	0x3c9094fe	0.01764917
160	0xbc87d193	-0.016579425
161	0xbda631c8	-0.08114964
162	0xbd3a48a5	-0.045479435
163	0x3cbb7bea	0.022886235
164	0x3b2b44de	0.0026133577
165	0xbc08101d	-0.008304623
166	0xbd45ae56	-0.048261963
167	0xbce3ee0d	-0.027823472
168	0xbd9977f6	-0.07493584
169	0x3dbe6560	0.092966795
170	0xbdcad7a3	-0.09904411
171	0x3c07635d	0.008263436
172	0x3c6cbf2d	0.014449877
173	0xbe1ef0e2	-0.15521577
174	0x3cc37114	0.02385763
175	0xbb8be36d	-0.0042690546
176	0xbc96a65e	-0.018389877
177	0xbcb476ec	-0.022029363
178	0xbccea393	-0.025224483
179	0x3b403c44	0.0029332796
180	0x3c853fec	0.016265832
181	0x3cc2bc7b	0.023771515
182	0x3d3c693e	0.045998804
183	0xbc9f494f	-0.019444136
184	0xbd9cf946	-0.07664733
185	0x3dc53271	0.096287616
186	0xbde63384	-0.112402946
187	0xbdc628eb	-0.09675773
188	0xbcb3127f	-0.021859406
189	0xbd9592b7	-0.07303374
190	0xbb0a6bbd	-0.0021121346
191	0xbc2ee881	-0.01067555
192	0xbd8fa497	-0.07013815
193	0xbd9ebb0c	-0.0775052
194	0xbd052ac8	-0.032511503
195	0xbd308508	-0.04309562
196	0x3cc77d1e	0.024351653
197	0xbdae2515	-0.085031666
198	0xbd2321a4	-0.039827004
199	0xbc85e5ab	-0.016344866
200	0x3c8f668f	0.017504958
201	0xbd96d465	-0.0736473
202	0xbd97fe6e	-0.074215755
203	0xbd76e76a	-0.060279287
204	0x3c9f9c9f	0.019483862
205	0xbd2486a2	-0.04016746
206	0xbd8fae59	-0.07015676
207	0xbd0e5fbb	-0.034759264
208	0x3d7fbb96	0.062434755
209	0x3ce43db5	0.027861455
210	0xbc822d17	-0.015890641
211	0xbb7dc450	-0.0038721748
212	0xbd8ae642	-0.067821994
213	0xbc3520f0	-0.011055216
214	0xbd06ac9d	-0.03287946
215	0x3ae82109	0.001771004
216	0x3c076a2a	0.008265058
217	0x3cc97ebe	0.024596568
218	0xbcdaa882	-0.026691679
219	0x3a08ad06	0.0005213771
220	0xbd178fa7	-0.037002232
221	0x3c90f888	0.017696634
222	0xbd85138a	-0.064978674
223	0xbd9e0fb2	-0.077178374
224	0x3d698a26	0.057016514
225	0x3cd7f5d4	0.026362337
226	0xbdd7a3f1	-0.10529316
227	0xbdbfaa67	-0.093586735
228	0xbd4106a4	-0.047125474
229	0x3ca6b433	0.020349598
230	0x3dea787d	0.114487626
231	0x3d3bdd6b	0.045865458
232	0xbd1ef34e	-0.038806252
233	0x3d259963	0.040429484
234	0x3d911d55	0.07085673
235	0x3d2f6e9a	0.042830087
236	0x3c68c0a9	0.01420609
237	0xba7004a0	-0.00091559626
238	0xbd72ec3c	-0.059307322
239	0xbd3e2a5e	-0.046427123
240	0xbd8e6bd3	-0.069541596
241	0x3c1f79d9	0.009733641
242	0x3cbf7463	0.023370927
243	0xbc9d4823	-0.019199437
244	0x3c802922	0.015644614
245	0xbc60df97	-0.013725183
246	0xbbb4a2fc	-0.0055125933
247	0xbc6ce632	-0.01445918
248	0x3c840abd	0.016118402
249	0xbc6bf625	-0.014401947
250	0x3d06bf58	0.032897323
251	0x3dc6572b	0.09684595
252	0xbd06e0b0	-0.032929122
253	0x3c3460af	0.011009379
254	0x3d91a27a	0.07111068
255	0xbdb635bf	-0.0889697

functional_1/lstm_1/lstm_cell_1/Cast/ReadVariableOp/resource:0 f4 [1, 512]
0	0xbd18cd35	-0.037305076
1	0x3d891af2	0.066945925
2	0xbd908965	-0.07057456
3	0x3db9e095	0.09076039
4	0x3dd2cbcd	0.10292778
5	0xbce22a13	-0.027607953
6	0x3c1d047b	0.009583588
7	0xbddc5610	-0.107586026
8	0x3df4b97d	0.119494416
9	0x3d8bda7d	0.06828783
10	0x3e08c20a	0.1335527
11	0xbd5062f9	-0.050875638
12	0x3e0c6d84	0.13713652
13	0xbd6669c1	-0.0562532
14	0x3d583da4	0.05279316
15	0x3da58f39	0.08083958
16	0x3dbb05da	0.091319755
17	0x3bf9f199	0.0076276776
18	0xbddfd157	-0.109286
19	0x3de91373	0.11380663
20	0xbd6b5d6c	-0.05746214
21	0x3d5b00be	0.053467505
22	0x3d88d889	0.06681926
23	0xbd9401b1	-0.07226885
24	0xbd5d6359	-0.054049823
25	0xbc910493	-0.017702376
26	0xba2bbc6d	-0.000655121
27	0x3d59404d	0.053039838
28	0x3df2a244	0.11847356
29	0xbcbf6615	-0.023364106
30	0xbd1ae350	-0.03781444
31	0xbdf4e333	-0.11957397
32	0x3cced4f9	0.025248038
33	0x3da38d78	0.079859674
34	0x3d32bf48	0.04363945
35	0x3d58d6c0	0.052939177
36	0xbd86cb6d	-0.06581769
37	0xbc8f094c	-0.017460488
38	0x3b1182f9	0.002220331
39	0xbd7b3634	-0.06133099
40	0xbd2678b0	-0.04064244
41	0xbdaf454c	-0.08558139
42	0xbd980af1	-0.07423962
43	0xbdb7ad5b	-0.08968612
44	0x3d0721b0	0.03299111
45	0x3dbe07d4	0.09278837
46	0x3caa6c72	0.020803664
47	0x3d5dab3a	0.054118372
48	0x3d410c96	0.047131144
49	0xbbe1a458	-0.0068860464
50	0x3cb1a571	0.021685334
51	0xbcb63a39	-0.02224456
52	0xbaa9b5d7	-0.0012947869
53	0xbdb2c34a	-0.08728655
54	0x3d9d5277	0.076817445
55	0xbcde4cb2	-0.02713618
56	0x3da454b5	0.08023969
57	0x3db42715	0.08796517
58	0x3cd1469e	0.025546368
59	0x3cb35c14	0.021894492
60	0x39d99af3	0.00041504911
61	0xbd65c931	-0.056100074
62	0x3c5f978a	0.01364697
63	0xbd4c54d9	-0.049885605
64	0xbdb2d851	-0.08732665
65	0xbc8149b9	-0.015782224
66	0xbd77a745	-0.060462255
67	0x3da41460	0.08011699
68	0x3d9ceb58	0.07662076
69	0x3e2a163d	0.16610046
70	0xbd918d0b	-0.0710698
71	0x3d0d3799	0.03447685
72	0x3d02a707	0.03189757
73	0xbd06b8eb	-0.032891195
74	0xbc7edb61	-0.015555234
75	0xbd6a483c	-0.057197794
76	0x3d686773	0.056739282
77	0xbd6bfe28	-0.05761543
78	0x3cf1e5d7	0.029528541
79	0xbdf8c76b	-0.12147411
80	0xbdf15355	-0.117834724
81	0xbd69d697	-0.057089414
82	0xbd65911e	-0.056046598
83	0x3da585be	0.0808215
84	0xbcab165d	-0.020884687
85	0xbccc4390	-0.02493456
86	0x3cfea4d1	0.03108445
87	0x3da7da6a	0.08195956
88	0xbdb447c2	-0.08802749
89	0xbda6cd70	-0.08144653
90	0xbd9c4fe8	-0.076324284
91	0xbd8dad0c	-0.06917772
92	0xbc9b61f1	-0.0189676
93	0xbdd040ff	-0.10168647
94	0x3da291d3	0.0793797
95	0xbcf0cacb	-0.029393574
96	0xbd8f2629	-0.069897
97	0x3c82c04d	0.015960837
98	0x3d9ae5ac	0.07563338
99	0x3e06a7f5	0.13150008
100	0x3e176f63	0.14788584
101	0xbd12f6d2	-0.035879917
102	0x3d20e591	0.03928143
103	0xbb43029f	-0.00297562
104	0xbdb8b844	-0.09019521
105	0xbdf49a6a	-0.11943515
106	0xbd201717	-0.03908452
107	0x3d0bdb21	0.034144524
108	0xbc2af4d7	-0.010434351
109	0x3db22091	0.08697618
110	0x3bd5f6fd	0.0065296874
111	0x3d984427	0.07434874
112	0x3e026d42	0.12736991
113	0xbd9597e3	-0.07304361
114	0xbce3e85d	-0.02782076
115	0xbc22f0b9	-0.009945088
116	0x3b1801ae	0.002319436
117	0x3bcfae12	0.0063378895
118	0xbdc738c7	-0.09727626
119	0x3c84bce8	0.016203359
120	0x3b945995	0.0045272806
121	0xbdc1cca1	-0.09462858
122	0x3d93c380	0.07215023
123	0xbd254947	-0.040353086
124	0x3da43786	0.08018403
125	0x3d92bc3b	0.07164808
126	0xbd3b55c5	-0.045736093
127	0x3cb5c32a	0.022187788
128	0x3c5fe781	0.013666035
129	0xbbdb1c57	-0.006686728
130	0xbdbd5f8e	-0.09246741
131	0xbd20758f	-0.039174613
132	0x3caf8499	0.021425532
133	0xbcd3bf76	-0.025848132
134	0xbdc5d505	-0.09659771
135	0x3de83973	0.113390826
136	0xbd44b455	-0.04802354
137	0xbd73e65e	-0.059545867
138	0x3dd6ca68	0.10487825
139	0x3dbfb09c	0.093598574
140	0x3d44407d	0.047913063
141	0xbb7fc202	-0.003902555
142	0x3d679763	0.056540858
143	0xbd68d4cf	-0.056843575
144	0x3d7e36f3	0.062064122
145	0x3da6ad8f	0.081385724
146	0xbdd8f5a5	-0.10593728
147	0x3c7428c5	0.014902298
148	0x3d885081	0.0665598
149	0x3c8aa33d	0.016923541
150	0xbda05f86	-0.0783072
151	0x3db160fd	0.08661077
152	0xbd4ecbb8	-0.05048725
153	0xbcf0d0a4	-0.029396363
154	0xb92f7e0a	-0.00016736254
155	0x3d9d050c	0.07666978
156	0xbd2f6aae	-0.042826347
157	0x3bfda995	0.007741163
158	0x3d3b3c78	0.045711964
159	0x3db57bdb	0.08861514
160	0xbc7ea2db	-0.015541757
161	0xbd0f2b1c	-0.03495322
162	0x3d925986	0.071459815
163	0x3bbd494f	0.0057765613
164	0xbddf1bb2	-0.10893954
165	0x3cd3b3ec	0.02584263
166	0xbb0490d0	-0.0020227917
167	0xbd0b927b	-0.03407524
168	0xbd578fd7	-0.05262741
169	0x3d1ef6ec	0.0388097
170	0xbb206533	-0.0024474382
171	0x3bf3ba47	0.0074379775
172	0x3d404a7c	0.046946034
173	0xbdb072b7	-0.0861563
174	0x3d60dcb3	0.054897975
175	0x3d31d8d1	0.043419663
176	0xbd9f396c	-0.07774624
177	0xbdcbc508	-0.0994969
178	0x3d01912a	0.03163258
179	0x3b8bdf6c	0.0042685773
180	0xba53bd0c	-0.00080771814
181	0x3d90ea76	0.0707597
182	0xbb210c15	-0.0024573852
183	0xbc24cc9c	-0.010058548
184	0x3db0a246	0.08624701
185	0x3d2b579e	0.041831605
186	0x3dc14970	0.09437835
187	0xbdcab072	-0.098969355
188	0xbdac851c	-0.08423826
189	0x3c99a099	0.018753337
190	0x3d92f5db	0.071757995
191	0xbd9366e1	-0.07197357
192	0x3d3bb396	0.045825563
193	0x3d33eb96	0.043925844
194	0xbd38739b	-0.045032125
195	0x3d9b3b14	0.07579628
196	0x3bed9c68	0.007251311
197	0xbd611471	-0.054951135
198	0x3cf29351	0.029611262
199	0xbdc793cd	-0.09744988
200	0xbdec00e6	-0.11523609
201	0xbdf36b42	-0.11885692
202	0x3d760a50	0.06006843
203	0xbd3d10e5	-0.04615869
204	0xbda841ed	-0.08215699
205	0x3d9bd225	0.07608441
206	0x3e0281aa	0.12744775
207	0xbce9db24	-0.028546877
208	0xbb6f99dc	-0.0036560213
209	0xbd210548	-0.039311677
210	0x3d934b32	0.07192077
211	0xbd7cdd3e	-0.06173443
212	0xbdc4293c	-0.09578177
213	0xbb2e27cc	-0.0026574014
214	0xbdc7bbab	-0.09752592
215	0xbe0ac23c	-0.13550657
216	0x3c8415b5	0.016123632
217	0xbda6db3d	-0.08147285
218	0xbe0d1797	-0.1377853
219	0x3d0d22ef	0.034457143
220	0x3dcae81a	0.09907551
221	0xbdbd05f6	-0.092296526
222	0xbabd02f5	-0.0014420437
223	0xbd211290	-0.039324343
224	0xbce6aae5	-0.02815766
225	0xbbf1c052	-0.0073776627
226	0x3db44bf9	0.08803553
227	0x3b100ba1	0.0021979588
228	0xbdaf6cc9	-0.08565671
229	0xbc1b1713	-0.009465951
230	0xbbacd26f	-0.005274109
231	0xbcf1bfc8	-0.029510394
232	0xbc9e5f16	-0.01933245
233	0xbd04541d	-0.03230678
234	0x3c72fdf0	0.014831051
235	0x3d05580a	0.032554664
236	0xbc98834e	-0.018617298
237	0xbdab44c6	-0.08362727
238	0x3d8cf35e	0.06882356
239	0x3a0909e7	0.0005227611
240	0xbd323e51	-0.04351646
241	0xbd874095	-0.06604115
242	0xbdbe7b45	-0.093008555
243	0x3d8bbec5	0.06823496
244	0x3d438c3b	0.047741156
245	0xbcc50dd7	-0.02405445
246	0xbdc5678f	-0.09638893
247	0x3d5ed98f	0.0544067
248	0xbd18d46c	-0.037311956
249	0x3c55040c	0.013001453
250	0xbdb35e47	-0.08758216
251	0x3d6aab06	0.057292007
252	0x3de5f4b5	0.11228315
253	0xbc852608	-0.016253486
254	0x3d99ab93	0.07503428
255	0x3d020c4f	0.03175002

functional_1/dense_1_2/Cast/ReadVariableOp:0 f4 [64, 3]
0	0x3c4557bc	0.012044843
1	0xbda9a7c4	-0.08283952
2	0xbdad433f	-0.08460092
3	0x3e653679	0.22384061
4	0xbe808a85	-0.25105682
5	0x3e15a045	0.14611919
6	0x3e3119de	0.17295024
7	0xbd9c339a	-0.0762703
8	0x3e7c0d76	0.2461451
9	0xbe2a2f46	-0.16619596
10	0x3e57ed9b	0.21086733
11	0x3d270884	0.040779606
12	0x3e87e4b5	0.26541677
13	0x3e24c2ad	0.16089888
14	0x3e657093	0.22406225
15	0x3e1bf461	0.15229942
16	0x3e5c01b4	0.21485025
17	0xbd588b71	-0.052867357
18	0x3e14ed11	0.14543559
19	0x3e1014be	0.14070413
20	0x3e3c3658	0.18380105
21	0x3e45228c	0.1925146
22	0xbc354414	-0.011063594
23	0xbd0d717d	-0.03453206
24	0xbe613114	-0.21991378
25	0x3e24d749	0.1609775
26	0x3e0436f2	0.12911585
27	0xbe69d22b	-0.22834079
28	0x3dfb58ca	0.122727945
29	0xbd9862d3	-0.07440724
30	0x3e4ccda1	0.20000316
31	0x3e21a76c	0.15786523
32	0xbd8b83f6	-0.06812279
33	0x3dcb2021	0.099182375
34	0xbd48f8b2	-0.0490653
35	0x3d62bf6e	0.055358343
36	0xbcf4c8a2	-0.029880825
37	0x3d995fbd	0.07488964
38	0x3dce6110	0.10077107
39	0xbe82702c	-0.25476205
40	0xb9fe0c04	-0.00048455608
41	0x3dc747ab	0.097304665
42	0x3dbc38a5	0.091904916
43	0xbe39af68	-0.18133318
44	0xbe2a881e	-0.16653487
45	0xbbec10fe	-0.007204174
46	0x3e6c820e	0.23096487
47	0xbcb5e92c	-0.022205912
48	0x3e5e70e1	0.21722747
49	0xbe70bc66	-0.23509368
50	0xbe664810	-0.22488427
51	0x3e2abe0d	0.16674061
52	0x3e698813	0.22805814
53	0xbe01236d	-0.1261117
54	0xbe696e03	-0.22795872
55	0x3d82c0f4	0.06384459
56	0xbe36b738	-0.1784333
57	0xbe72d742	-0.23714927
58	0x3e810d5f	0.25205514
59	0x3e4c1ea8	0.1993357
60	0xbe2be7f2	-0.16787699
61	0xbdc1dc40	-0.094658375
62	0xbe07fd26	-0.13280162
63	0x3df1be29	0.11803848
64	0x3e4be121	0.19910099
65	0xbd88d265	-0.066807546
66	0x3cdf5510	0.02726224
67	0x3e33c293	0.17554693
68	0x3e71f3a9	0.23628105
69	0x3d7efb90	0.062251627
70	0x3cf4177c	0.029796354
71	0x3cce1953	0.02515856
72	0x3e1b66fd	0.15176006
73	0xbd4d5a3c	-0.050134882
74	0xbe3e5ab9	-0.18589295
75	0xbc0c24a2	-0.008553656
76	0xbe82d6d5	-0.2555453
77	0x3e068199	0.13135375
78	0xbdde429d	-0.10852549
79	0xbe360bcf	-0.17777942
80	0x3dd7ccfd	0.10537145
81	0x3e1e5975	0.15463813
82	0xbe8ef05c	-0.27917755
83	0x3e512ce3	0.20427279
84	0xbd9d8f3d	-0.07693336
85	0x3deb906f	0.11502158
86	0x3ea737c6	0.3265974
87	0xbe5861ee	-0.21131107
88	0xbca92d2d	-0.020651424
89	0x3e21c4d6	0.15797743
90	0x3e8442b2	0.25832134
91	0x3e888765	0.26665798
92	0xbdd97f4b	-0.10619982
93	0xbd938df5	-0.072048105
94	0xbd70f942	-0.05883146
95	0xbeafb73b	-0.3431948
96	0xbe9a33ad	-0.3011755
97	0x3e93aa86	0.28841037
98	0xbc60a648	-0.01371152
99	0xbe161808	-0.14657605
100	0xbe1d7125	-0.15375192
101	0xbdc67183	-0.096896194
102	0x3e700ad1	0.23441626
103	0xbd8fc66a	-0.07020266
104	0x3e869ca4	0.26291382
105	0x3e95c12e	0.29248947
106	0x3e2910c7	0.16510306
107	0x3e5f880a	0.21829239
108	0xbd9542de	-0.072881445
109	0x3e496a21	0.19669391
110	0xbe1ea5dc	-0.15492958
111	0xbda40006	-0.08007817
112	0x3e7d5e05	0.24742897
113	0x3cfc968f	0.03083351
114	0x3e8378bd	0.25678053
115	0x3dab03cd	0.08350334
116	0xbe8977a2	-0.26849085
117	0xbd165a1c	-0.03670703
118	0xbd60f484	-0.05492069
119	0xbe976628	-0.29570127
120	0x3e1153eb	0.14192168
121	0xbdf7b47a	-0.1209497
122	0x3d57347d	0.05254029
123	0x3d999cf2	0.07500638
124	0xbdb99a9e	-0.09062694
125	0xbcf6bcba	-0.030119289
126	0xbdc2baa2	-0.09508254
127	0x3d2a7c3b	0.04162238
128	0xbe45f8da	-0.1933321
129	0xbe222361	-0.15833808
130	0x3dfa00a3	0.12207153
131	0x3e03e238	0.12879264
132	0xbe46f0d0	-0.194278
133	0xbdcea39e	-0.10089801
134	0xbe770a49	-0.24125017
135	0xbdf43bda	-0.11925478
136	0x3e6c67f2	0.23086527
137	0xbde72b0f	-0.1128751
138	0x3e7b4813	0.24539213
139	0x3e2ddaa0	0.1697793
140	0xbe4d9258	-0.20075357
141	0xbe181ce0	-0.14854765
142	0x3c97f58f	0.018549709
143	0xbd3d7f35	-0.046263892
144	0xbd7390fe	-0.059464447
145	0x3d24506a	0.04011575
146	0xbdfe26c8	-0.12409741
147	0xbe245b05	-0.16050346
148	0x3dae0591	0.084971555
149	0x3e3d4580	0.18483543
150	0xbe76e9dc	-0.24112648
151	0xbe8a18e1	-0.26972106
152	0x3e1bc6f0	0.15212607
153	0x3be38ad1	0.0069440384
154	0xbe45e73e	-0.19326493
155	0xbd22a45d	-0.03970753
156	0xbd607103	-0.054795276
157	0xbcbdd981	-0.023175003
158	0xbe1e4504	-0.15456015
159	0xbe86f248	-0.2635672
160	0xbe340a80	-0.1758213
161	0x3dcf11bd	0.10110805
162	0x3e07413c	0.13208479
163	0xbc5c202a	-0.013435403
164	0x3d99cece	0.07510148
165	0xbe49c493	-0.19703893
166	0xbd094bd2	-0.033519574
167	0xbe2790ad	-0.16363783
168	0xbe342b67	-0.17594682
169	0xbdb53558	-0.08848065
170	0x3d85a889	0.06526286
171	0xbe917768	-0.28411412
172	0xbdb474e9	-0.08811361
173	0x3e3ab55e	0.18233249
174	0x3e02e17a	0.12781325
175	0x3dbe0e20	0.09280038
176	0xbe567fbf	-0.20947169
177	0xbdf71d3a	-0.120661214
178	0x3d8bd007	0.068267874
179	0x3d9a42d9	0.075322814
180	0xbe3afc72	-0.18260363
181	0xbd5c10c0	-0.05372691
182	0xbc2303b7	-0.009949616
183	0x3e1cf45c	0.1532759
184	0x3e78a916	0.24283251
185	0x3cbf3cf3	0.023344493
186	0xbe567c4f	-0.20945857
187	0xbbac43fc	-0.005257128
188	0x3e5cd627	0.21566068
189	0xba8d6ff2	-0.0010790809
190	0x3d9169de	0.07100271
191	0x3dd35b87	0.10320192

functional_1/dense_1_2/BiasAdd/ReadVariableOp:0 f4 [3]
0	0xbbaaf992	-0.0052177394
1	0x3b4d9b14	0.0031372951
2	0xbaefbc35	-0.0018290343
